rl_planner/30_model.pt (torch, 228989 bytes, 30 tensors)

critic.0.weight f4 [64, 72]
0	0x3d31729b	0.043322187
1	0xbe0a7115	-0.135197
2	0x3da24749	0.07923753
3	0x3e61d4ad	0.22053786
4	0xbd96ffea	-0.073730305
5	0x3ddc7363	0.10764196
6	0x3de06695	0.10957066
7	0x3e26375c	0.16232055
8	0xbde74eba	-0.11294313
9	0x3dc51bfc	0.09624478
10	0x3d60c63e	0.05487656
11	0x3dd12c28	0.102135
12	0x3ea93b06	0.33052844
13	0x3ddee029	0.10882599
14	0x3cc857b6	0.024455886
15	0x3b799d3a	0.00380881
16	0xbe1d723f	-0.15375613
17	0xbd458049	-0.048218045
18	0xbc899e2f	-0.01679906
19	0xbc015ba4	-0.007895384
20	0xbe82a4c8	-0.25516343
21	0xbe5bd749	-0.21468844
22	0xbc1bc503	-0.0095074205
23	0xbd0ff200	-0.0351429
24	0x3d07cc6e	0.033153944
25	0xbec4d277	-0.38441822
26	0xbe93302f	-0.287477
27	0xbe801b8e	-0.25021023
28	0xbe0869bb	-0.13321583
29	0xbdeec9eb	-0.116596065
30	0xbe674cdd	-0.22587915
31	0x3e5c3ed8	0.21508348
32	0xbd4487c1	-0.047981028
33	0xbcaee939	-0.021351444
34	0xbe13c32c	-0.14429921
35	0xbdb68e5a	-0.0891387
36	0xbd9064a7	-0.07050448
37	0xbee2c59c	-0.4429139
38	0xbdf84bdb	-0.12123843
39	0xbe50b3ec	-0.20381135
40	0x3d8b1b42	0.067923084
41	0xbe4f4bb8	-0.20243728
42	0xbdcb9258	-0.09940022
43	0xbd6b1afc	-0.05739878
44	0xbe754a24	-0.23954064
45	0x3dec453f	0.11536645
46	0xbda816b2	-0.08207454
47	0xbcfd7032	-0.030937288
48	0xbe447cb7	-0.191882
49	0x3e257e81	0.16161539
50	0xbee23c9e	-0.44186872
51	0x3df6a60d	0.120433904
52	0xbda4539f	-0.08023762
53	0xbd80dcc6	-0.06292109
54	0xbba8f12e	-0.005155704
55	0xbd87330d	-0.06601534
56	0xbea9974b	-0.3312324
57	0x3d10c91b	0.03534804
58	0x3de8e431	0.11371649
59	0xbe062828	-0.13101256
60	0x3e337248	0.17524064
61	0xbd8130d2	-0.0630814
62	0xbed6a530	-0.41922903
63	0xbe7b97be	-0.24569604
64	0x3cdf17ef	0.027233092
65	0x3d8a85ab	0.067637764
66	0xbcd71335	-0.026254276
67	0xbd47a0a1	-0.048737172
68	0xbe16a3fa	-0.1471099
69	0xbc135edf	-0.008994787
70	0xbd0baa07	-0.034097698
71	0x3e28213d	0.1641893
72	0x3ed14b3f	0.4087772
73	0xbd76a4cd	-0.06021576
74	0x3d844f20	0.064604044
75	0xbe3bc8ac	-0.18338269
76	0x3dea4be0	0.11440253
77	0xbe024a5a	-0.12723675
78	0xbcb4dcca	-0.022077937
79	0xbe44f565	-0.19234236
80	0xbe2d8c0e	-0.16947958
81	0xbe3df31a	-0.18549767
82	0x3bfa0d0e	0.007630951
83	0xbe17f963	-0.14841227
84	0xbe258f34	-0.16167909
85	0x3dfa2855	0.12214724
86	0x3d9cff59	0.07665891
87	0x3e7cb0b4	0.24676782
88	0x3db485a4	0.088145524
89	0x3c856a1d	0.01628595
90	0x3e0683a9	0.13136162
91	0xbdcdca24	-0.10048321
92	0xbda6fc41	-0.08153582
93	0xbe7269df	-0.23673199
94	0xbd55c1ce	-0.05218678
95	0xbe0459df	-0.12924908
96	0xbd534b56	-0.051585518
97	0xbd2de911	-0.042458598
98	0xbe61036e	-0.21973965
99	0x3e8854bc	0.26627147
100	0xbdb65b66	-0.089041516
101	0x3e40b5a6	0.18819293
102	0xbddb43b7	-0.10706275
103	0x3e3ff1bb	0.18744557
104	0x3e98ccb1	0.29843667
105	0xbd8d002e	-0.068848
106	0x3e11a0ca	0.14221492
107	0xbc6cf1ca	-0.014461944
108	0x3e84e44e	0.25955433
109	0x3e29d400	0.16584778
110	0xbda7061f	-0.081554644
111	0xbe4867df	-0.19570874
112	0xbd9f3df4	-0.077754885
113	0x3d965279	0.07339949
114	0x3bae1963	0.005313085
115	0xbd8b21f0	-0.067935824
116	0x3d1757c6	0.03694894
117	0x3c1dde78	0.00963556
118	0xbda53bf4	-0.08068076
119	0xbe93e243	-0.28883561
120	0xbe02dec7	-0.12780295
121	0x3da08041	0.078369625
122	0xbe2ccc1e	-0.1687474
123	0x3d334741	0.043769125
124	0x3e839223	0.2569743
125	0xbe6cf0ad	-0.23138686
126	0x3df0ab53	0.117514275
127	0xbe1073e8	-0.14106715
128	0x3ecd88d9	0.4014347
129	0x3e63802b	0.22216861
130	0xbe1bfe5d	-0.1523375
131	0x3d9eb2fc	0.07748982
132	0xbd9e63e8	-0.07733899
133	0xbe85a247	-0.2610037
134	0x3ccee953	0.025257742
135	0xbe9fdc56	-0.3122279
136	0xbe39fba4	-0.181624
137	0xbe5f6933	-0.21817474
138	0xbe889b3b	-0.2668093
139	0x3ddc0fa7	0.10745173
140	0xbcded5ac	-0.027201496
141	0xbd4db740	-0.05022359
142	0x3e70e28d	0.23523922
143	0x3e1ef603	0.15523534
144	0x3e20a7f2	0.15689066
145	0xbd5c6a57	-0.05381235
146	0x3e2fd66f	0.17171644
147	0x3cbc28dc	0.022968702
148	0xbe5fae0b	-0.21843736
149	0xbde5cf16	-0.11221139
150	0x3e078e59	0.13237895
151	0x3d82380f	0.063583486
152	0x3e0bbffe	0.13647458
153	0xbde1de39	-0.11028714
154	0x3e061ac3	0.13096146
155	0xbdb44ed7	-0.088041
156	0xbdd99027	-0.10623198
157	0xbd4f86de	-0.05066573
158	0xbe825673	-0.2545658
159	0xbe1a449f	-0.1506524
160	0x3e8f49c9	0.2798598
161	0xbeadcd0d	-0.33945504
162	0xbc51840c	-0.01278783
163	0x3cd675af	0.026179163
164	0xbda35c66	-0.07976608
165	0xbd6c5920	-0.057702184
166	0x3da610ea	0.08108695
167	0x3e99984b	0.29999003
168	0xbe941902	-0.2892533
169	0x3e0f1367	0.13972245
170	0x3e15fafb	0.14646523
171	0xbc8e73c6	-0.01738919
172	0x3ba2ffaa	0.004974325
173	0x3e9b3f51	0.30321744
174	0x3e883436	0.26602334
175	0x3e380cc4	0.1797362
176	0x3b8156f9	0.0039471355
177	0x3ea69201	0.32533267
178	0xbd8bb1d9	-0.06821031
179	0xbdd15fc5	-0.10223345
180	0xbc8f9014	-0.017524756
181	0x3e512130	0.20422816
182	0x3da7b12d	0.081880905
183	0x3e992cb8	0.2991693
184	0x3ddf9f70	0.10919082
185	0x3cc1d987	0.023663295
186	0xbe6d5956	-0.2317861
187	0xbe7e4e53	-0.24834566
188	0xbdc48381	-0.09595395
189	0xbeecf71c	-0.4628228
190	0x3e6bdbc2	0.2303305
191	0xbe0edcbd	-0.13951392
192	0x3e51e5e5	0.20497854
193	0xbc47a86a	-0.012186149
194	0x3d8a3ae1	0.067495115
195	0x3e800d31	0.25010064
196	0x3e46e669	0.19423832
197	0xbdd3da15	-0.1034433
198	0x3e56956e	0.2095544
199	0xbe1060e2	-0.14099458
200	0x3dd0e623	0.10200145
201	0x3d6c0001	0.05761719
202	0x3d38f263	0.045153033
203	0xbdc01931	-0.09379805
204	0x3e3b2a10	0.18277764
205	0xbdd43f9d	-0.10363696
206	0xbdfce7ce	-0.12348901
207	0x3bb6ff5e	0.0055846414
208	0xbe7256bd	-0.236659
209	0xbe3f07ce	-0.18655321
210	0xbde76753	-0.112990044
211	0xbe0ec7fa	-0.13943473
212	0xbe17279c	-0.14761204
213	0x3ce100ee	0.027466264
214	0xbdd999b3	-0.10625019
215	0xbd6e591e	-0.058190458
216	0xbe95f3c4	-0.2928754
217	0x3de5131a	0.11185284
218	0x3e163e64	0.14672238
219	0xbdc798dc	-0.097459525
220	0xbd9658d1	-0.07341159
221	0x3e557271	0.20844437
222	0xbdca9a33	-0.098926924
223	0x3d1d0bd9	0.038341377
224	0x3d9cb116	0.07650964
225	0xbe2bf07e	-0.16790959
226	0xbcb6df1d	-0.022323186
227	0xbd9e42ae	-0.07727562
228	0x3e0afb58	0.13572443
229	0x3cae18c9	0.021252053
230	0xbd737e34	-0.05944653
231	0x3e8dcb59	0.27694204
232	0x3c7c8895	0.015413423
233	0x3e41fad1	0.18943335
234	0xbe5715cb	-0.21004407
235	0x3e39f00b	0.18157975
236	0x3d97c0e0	0.07409835
237	0xbe43db3e	-0.19126603
238	0xbe57faec	-0.21091813
239	0xbde1fa8b	-0.110341154
240	0xbe3af1c2	-0.18256286
241	0x3da7582f	0.081711166
242	0xbdeb5009	-0.11489875
243	0xbe1b60db	-0.15173666
244	0x3dd41736	0.1035599
245	0xbe7d0fdf	-0.24713086
246	0xbea171cf	-0.31532142
247	0xbe8d920b	-0.27650484
248	0xbdf02e41	-0.11727572
249	0xbe11b8a3	-0.1423059
250	0xbe523c26	-0.20530757
251	0xbdda2c2a	-0.10652955
252	0xbe6abc90	-0.22923493
253	0xbda00ac8	-0.07814556
254	0xbec68f75	-0.38781324
255	0xbdbf7227	-0.09347945

critic.0.bias f4 [64]
0	0x3ea7ef69	0.32799843
1	0x3de1dde5	0.11028651
2	0x3e0e5c67	0.13902436
3	0x3f003d15	0.50093204
4	0xbde5af1f	-0.11215042
5	0x3e8da4c2	0.27664763
6	0x3eedd091	0.46448186
7	0xbddf784d	-0.109116174
8	0x3df491be	0.119418606
9	0x3e814c99	0.25253752
10	0x3e9f9054	0.311648
11	0xbdf62946	-0.12019591
12	0x3e9ad907	0.30243704
13	0x3d695e17	0.056974497
14	0x3decb500	0.115579605
15	0x3e18743c	0.1488809
16	0xbd411d91	-0.047147337
17	0x3e859241	0.26088145
18	0xbe682fe0	-0.22674513
19	0xbeb698a4	-0.3566333
20	0x3e11f17a	0.14252272
21	0x3d7f1d39	0.06228373
22	0xbe16d27a	-0.14728728
23	0xbe000110	-0.12500405
24	0x3ed7ea37	0.4217088
25	0x3e9b97ff	0.303894
26	0xbe17dca3	-0.1483026
27	0x3e605af3	0.21909694
28	0xbd1e7a56	-0.038690887
29	0x3dc975ee	0.098369464
30	0x3e846f7b	0.25866303
31	0xbd2a19a0	-0.041528344
32	0xbe347949	-0.17624392
33	0x3e5731e6	0.21015128
34	0x3e71efa9	0.2362658
35	0xbd6f76af	-0.058462795
36	0xbe420630	-0.18947673
37	0xbdf67272	-0.120335475
38	0xbb1835e0	-0.0023225471
39	0xbdb4afc2	-0.08822586
40	0xbe45ba07	-0.19309245
41	0xbd710b3b	-0.0588486
42	0x3db9225b	0.09039756
43	0x3e481d38	0.19542396
44	0x3e981f47	0.29711363
45	0x3e1c45ad	0.15260954
46	0x3dd53014	0.10409561
47	0xbcadc32d	-0.021211231
48	0xbd96ef00	-0.073698044
49	0x3d29547e	0.041340344
50	0x3c337f63	0.010955664
51	0x3e9bf12f	0.30457446
52	0xbdcb817d	-0.09936807
53	0x3e90fc62	0.28317553
54	0xbd8781d3	-0.06616559
55	0xbe7d9738	-0.24764717
56	0x3cf9749e	0.030451115
57	0xbed8cb90	-0.42342806
58	0xbd2b6485	-0.04184391
59	0xbe9a95dd	-0.30192462
60	0x3dddbcf3	0.10827055
61	0xbeb0bbe4	-0.3451835
62	0x3eadee4f	0.33970878
63	0x3e0febf8	0.14054859

critic.2.weight f4 [64, 64]
0	0xbc7aa7d2	-0.015298801
1	0x3e3b0892	0.18264988
2	0xbc43db6e	-0.011954172
3	0xbe54e638	-0.20790946
4	0x3e0f6b00	0.14005661
5	0xbd2b20fb	-0.0417795
6	0xbe2a7467	-0.16645966
7	0x3bfa4823	0.007637994
8	0xbbd995fd	-0.0066401944
9	0xbddeae44	-0.10873082
10	0x3ebdea83	0.3709298
11	0xbb8c1f63	-0.0042762025
12	0x3dc96ecd	0.09835587
13	0x3e0291c9	0.12750925
14	0xbe7c35cc	-0.24629897
15	0xbe654b71	-0.2239206
16	0xbced780b	-0.028987905
17	0xbd8aa0c1	-0.067689426
18	0xbe2530e1	-0.16131927
19	0x3d8e7085	0.06955055
20	0x3d78f81b	0.060783487
21	0x3e28c75c	0.164823
22	0x3e14caae	0.14530441
23	0xbd432958	-0.04764685
24	0xbb5a03c3	-0.0033266402
25	0x3eba5aad	0.36397305
26	0xbe300940	-0.17191029
27	0xbe3add25	-0.18248422
28	0xbb098384	-0.002098293
29	0x3e958adb	0.292075
30	0xbde5d0d2	-0.1122147
31	0xbd9deec9	-0.0771156
32	0x3d5c87d7	0.053840484
33	0xbe15d40a	-0.14631668
34	0xbc39ac2e	-0.011332555
35	0xbcb033dd	-0.021509105
36	0x3f0d74dc	0.5525644
37	0x3be72fae	0.0070552444
38	0xbdc8c5ed	-0.09803376
39	0xbd5e6919	-0.054299448
40	0x3e053b33	0.13010864
41	0x3d1055dd	0.035238136
42	0xbd91f7c0	-0.07127333
43	0xbdffc4a8	-0.12488681
44	0xbe355001	-0.177063
45	0xbdc70f05	-0.097196616
46	0x3d5aa813	0.053382944
47	0xbe08747c	-0.13325685
48	0x3e2f8292	0.17139652
49	0xbda75ba4	-0.08171776
50	0x3e3c4c13	0.18388395
51	0x3f153964	0.58290696
52	0x3e4afe54	0.19823581
53	0x3d64c96f	0.055856165
54	0xbe6b6699	-0.22988357
55	0x3c0f5b82	0.0087498445
56	0x3edf9967	0.43671724
57	0xbdb625dc	-0.0889394
58	0xbe67f0f0	-0.22650504
59	0x3ea18f4a	0.31554633
60	0xbd8a9666	-0.067669675
61	0x3e02db1c	0.12778896
62	0xbdea9cd8	-0.11455697
63	0xbd909faf	-0.07061707
64	0xbe222293	-0.15833502
65	0xbcd1b2ec	-0.025598012
66	0x3d3ea8fa	0.046547867
67	0x3e610007	0.21972667
68	0xbe48fab1	-0.19626881
69	0x3d55096b	0.052010935
70	0x3dc2841c	0.09497854
71	0xbe662b98	-0.22477567
72	0x3e8477a6	0.25872535
73	0xbcb45b33	-0.022016143
74	0xbe981abd	-0.297079
75	0x3d266747	0.040625837
76	0xbdcddad9	-0.100515075
77	0x3c9a63ae	0.01884636
78	0x3d9e9967	0.07744103
79	0x3e20cd3f	0.15703295
80	0xbdc643dc	-0.09680912
81	0xbe47b3f5	-0.19502242
82	0x3cb979ba	0.022641052
83	0x3df006a4	0.117200166
84	0x3ed52ab8	0.41634154
85	0xbe152b04	-0.1456719
86	0xbc903c17	-0.017606778
87	0xbdb07ade	-0.08617185
88	0xbeb69131	-0.35657647
89	0xbe2a563b	-0.16634457
90	0xbe10772a	-0.14107957
91	0xbd78bec8	-0.06072882
92	0x3ca77e86	0.020446073
93	0xbd86f80f	-0.06590282
94	0xbeb229bc	-0.34797466
95	0x3e9caae3	0.30599126
96	0x3b064a3f	0.0020491031
97	0x3e715b10	0.23569894
98	0xbcc926fe	-0.024554726
99	0x3db8f735	0.09031526
100	0x3e871f65	0.2639114
101	0x3dde400f	0.10852062
102	0xbde146ac	-0.10999808
103	0x3df99b38	0.12187809
104	0xbeeadf8e	-0.45873684
105	0x3d2f3353	0.042773556
106	0x3eb62232	0.35572964
107	0x3e604178	0.21899974
108	0x3dc8238f	0.09772407
109	0xbe231d6d	-0.15929194
110	0x3e29b77f	0.16573904
111	0x3eb8099a	0.35944825
112	0x3da06ec6	0.07833628
113	0x3c3cea39	0.011530452
114	0xbd8bb861	-0.06822277
115	0x3e3fb470	0.18721175
116	0x3dc6241c	0.09674856
117	0x3d9c4c51	0.07631744
118	0xbda33697	-0.079693966
119	0x3dd737b3	0.10508671
120	0xbde54ccc	-0.111962885
121	0xbd1f9d3b	-0.038968306
122	0xbdea2d02	-0.11434366
123	0x3dbe7627	0.092998795
124	0xbda25107	-0.07925611
125	0x3d9ea73e	0.07746743
126	0x3e29522a	0.1653525
127	0x3c805d63	0.01566953
128	0xbe535b01	-0.20640184
129	0xbde15380	-0.110022545
130	0xbe821849	-0.25409153
131	0xbe155594	-0.14583427
132	0x3e62ada2	0.22136548
133	0xbc33fcd0	-0.010985568
134	0xbe5715a2	-0.21004346
135	0xbc0beeee	-0.008540852
136	0x3dcf54b4	0.10123578
137	0x3d8f38ab	0.069932304
138	0xbeb3524c	-0.35023725
139	0x3ef9479f	0.48687455
140	0x3e810542	0.25199324
141	0x3d1d3056	0.038376175
142	0x3d7e2d10	0.062054694
143	0x3dfff4d3	0.124978684
144	0xbe76f4a0	-0.24116755
145	0x3ea8ff41	0.33007243
146	0xbd09d1c0	-0.0336473
147	0xbe06af1e	-0.1315274
148	0xbdff1c51	-0.12456573
149	0x3ea3b0db	0.31970868
150	0xbd93debe	-0.07220219
151	0xbd3646bb	-0.044501048
152	0x3d0ff7b8	0.035148352
153	0xbd64850a	-0.05579094
154	0xbdf931f6	-0.121677324
155	0xbdd4b981	-0.103869446
156	0xbd87560e	-0.066082105
157	0x3e462dc2	0.19353393
158	0x3d6fd695	0.05855425
159	0x3ea16f2a	0.31530124
160	0x3eb52936	0.35383004
161	0xbdccbc46	-0.09996848
162	0xbeb24815	-0.3482062
163	0xbed1abf5	-0.40951505
164	0xbc1dc0d2	-0.0096284915
165	0x3e229c3d	0.15879913
166	0x3d8c0793	0.06837382
167	0x3e1c2514	0.15248519
168	0xbdc4033d	-0.0957093
169	0xbd16a643	-0.036779653
170	0xbe737ba6	-0.23777637
171	0xbd6a3ee7	-0.057188895
172	0xbcdcd868	-0.02695866
173	0xbe83cb83	-0.25741205
174	0x3cb542f1	0.022126647
175	0xbdf039c3	-0.11729767
176	0xbd9d00ef	-0.07666194
177	0xbeb1363d	-0.34611693
178	0x3e3c3793	0.18380575
179	0xbd308a7a	-0.04310081
180	0xbd26f3cb	-0.040759843
181	0xbe4ef837	-0.20211874
182	0xbd481f13	-0.04885776
183	0xbdb089bd	-0.086200215
184	0xbdad9359	-0.0847537
185	0x3dbf48f4	0.093400866
186	0xbe857d89	-0.26072338
187	0x3e07e8e3	0.13272433
188	0x3e17ee62	0.1483703
189	0x3c19d8a3	0.009390029
190	0x3eb8fc1b	0.3612984
191	0xbcc40234	-0.023926832
192	0xbd8883ea	-0.066657856
193	0xbe34c92e	-0.17654869
194	0x3e5690fb	0.20953743
195	0xbd22b93e	-0.039727442
196	0xbde2d32d	-0.11075435
197	0x3cd3ef6d	0.025871003
198	0xbd587f0e	-0.052855544
199	0xbe06dcf3	-0.13170223
200	0x3e468a14	0.1938861
201	0xbe5e0bfe	-0.21684262
202	0xbe0685e8	-0.13137019
203	0x3d9d042f	0.076668136
204	0xbd8bb243	-0.0682111
205	0xbbe6e1a1	-0.00704594
206	0xbd0a9155	-0.033830006
207	0x3e7f3000	0.24920654
208	0x3e4255c0	0.18978024
209	0xbe5c6802	-0.21524051
210	0x3e3e6544	0.18593317
211	0x3e64c94f	0.22342418
212	0xbea6e996	-0.32600087
213	0x3df61ba8	0.12016994
214	0xbdaa3b56	-0.08312099
215	0x3e0c418b	0.13696878
216	0xbdf94638	-0.12171596
217	0xbd3b7ed8	-0.045775265
218	0xbdc6045f	-0.096688025
219	0x3e04a3dc	0.12953132
220	0x3e804dd2	0.25059372
221	0x3e30805e	0.17236468
222	0xbe4bcd8b	-0.19902627
223	0xbddc8898	-0.10768241
224	0xbdb1ec18	-0.086876094
225	0xbe31a6d3	-0.17348795
226	0xbe81e3e6	-0.25369185
227	0xbd577f5a	-0.052611686
228	0xbe02e8ef	-0.1278417
229	0xbe9cfb47	-0.3066046
230	0xbe1159c8	-0.14194405
231	0xbc387a22	-0.0112595875
232	0xbe9890ad	-0.2979788
233	0x3e99ee37	0.30064556
234	0xbe045a7e	-0.12925145
235	0x3e1ecff5	0.15509017
236	0xbe9e4b50	-0.30916834
237	0x3ea40b7d	0.32040015
238	0xbccdef7a	-0.025138605
239	0xbe1afb1e	-0.15134856
240	0xbc5100c0	-0.0127565265
241	0xbd3fb833	-0.046806525
242	0x3cad7d46	0.0211779
243	0xbde54670	-0.111950755
244	0x3dc35837	0.0953831
245	0xbedddd12	-0.43332726
246	0xbea79bb9	-0.32735994
247	0xbe3237be	-0.17404076
248	0xbd3a9cfb	-0.045559864
249	0xbedba521	-0.4289942
250	0x3d8cc6be	0.068738446
251	0xbdd4f448	-0.103981555
252	0x3edab39b	0.42715153
253	0xbc36e766	-0.011163568
254	0x3c136778	0.008996837
255	0xbeb2b274	-0.34901774

critic.2.bias f4 [64]
0	0xbe48550d	-0.19563694
1	0xbcd0ba34	-0.025479414
2	0x3bf8ccc5	0.00759277
3	0x3d56f7d2	0.052482434
4	0xbd079293	-0.03309877
5	0xbd943db5	-0.07238332
6	0x3cdac2ce	0.026704218
7	0xbe0e2c92	-0.1388419
8	0xbdb60db7	-0.08889335
9	0x3e1db8b3	0.15402488
10	0x3cb814db	0.022470882
11	0x3e0ce95d	0.13760896
12	0x3d26bb52	0.040705986
13	0x3dcff54e	0.1015421
14	0x3d107a14	0.035272673
15	0xbe1ffeaf	-0.15624498
16	0x3e7ecf5b	0.24883787
17	0xbd01c861	-0.031685237
18	0x3d5d9e2e	0.05410593
19	0xbe152262	-0.14563897
20	0x3dae085a	0.08497687
21	0xbd093a02	-0.033502586
22	0x3cfea8e2	0.031086389
23	0x3d9c2b08	0.07625395
24	0x3d16f46e	0.0368542
25	0xbe09c494	-0.13453895
26	0xbe563ac4	-0.20920855
27	0x3dd8c144	0.105837375
28	0x3da44886	0.08021645
29	0xbd056f54	-0.032576874
30	0xbe6bbcb7	-0.23021208
31	0x3cb9058d	0.022585655
32	0xbd994966	-0.07484703
33	0xbece452c	-0.4028715
34	0xbd1e62e0	-0.038668513
35	0x3dca953a	0.09891744
36	0x3eb9dae2	0.36299807
37	0xbe87fe38	-0.2656114
38	0x3e96b13b	0.2943209
39	0x3e0b78fd	0.13620372
40	0xbdbdcbec	-0.09267411
41	0xbe9490df	-0.29016778
42	0xbd74f5cf	-0.059804734
43	0xbd58a0bd	-0.052887667
44	0x3e38fabf	0.18064402
45	0xbcb54ff5	-0.022132853
46	0x3c278c5f	0.010226338
47	0xbe28285f	-0.1642165
48	0xbe84c6a9	-0.25932816
49	0xbef0c9bc	-0.4702891
50	0xbe45f2e1	-0.19330932
51	0x3dd674c5	0.10471491
52	0x3e6f31aa	0.23358789
53	0xbd80c9e2	-0.06288506
54	0x3d0fc439	0.035099242
55	0xba0ebd55	-0.0005445083
56	0x3d178899	0.036995504
57	0xbcf0391a	-0.029324103
58	0x3e26a5ae	0.1627414
59	0x3de29160	0.11062884
60	0x3e179529	0.14802994
61	0x3e6f5ee8	0.23376048
62	0x3b559618	0.0032590684
63	0x3d4b7d3e	0.049679987

critic.4.weight f4 [1, 64]
0	0xbd07077f	-0.032966133
1	0xbdfabb45	-0.1224275
2	0x3dd383ab	0.10327848
3	0x3d3cf6f0	0.046133935
4	0xbe512843	-0.20425515
5	0xbe33c596	-0.17555842
6	0x3e01c297	0.12671886
7	0xbe8bc8d0	-0.27301645
8	0xbdedb8dd	-0.116075255
9	0x3d11e64a	0.03562001
10	0x3e09d8f3	0.13461666
11	0x3e4ce49d	0.20009084
12	0x3e7ee83c	0.24893278
13	0x3d9ad0a2	0.07559325
14	0x3db3d291	0.08780397
15	0xbe629d08	-0.22130215
16	0x3e3ede2d	0.18639441
17	0x3e5ae5d7	0.2137674
18	0x3d221f59	0.039580677
19	0xbd9a9d44	-0.07549527
20	0x3df00245	0.11719183
21	0xb9d43041	-0.00040471743
22	0x3da8eddb	0.08248492
23	0x3e20028d	0.15625973
24	0x3e0436c9	0.12911524
25	0xbdec7367	-0.11545449
26	0xbe154519	-0.1457714
27	0x3d91586b	0.070969425
28	0x3cea52ce	0.028603937
29	0xbdeb593e	-0.11491631
30	0xbdd2a29b	-0.10284921
31	0x3e1a156d	0.15047236
32	0x3db73957	0.089464836
33	0xbe870b4a	-0.263758
34	0xbe6c292a	-0.23062578
35	0x3e197a6e	0.1498811
36	0x3e82d6b2	0.25554425
37	0xbe550c82	-0.20805553
38	0x3da6c8fc	0.081438035
39	0x3e8fdd3a	0.2809847
40	0xbe3f4b0e	-0.18680975
41	0xbdac470d	-0.08411989
42	0xbd980600	-0.074230194
43	0xbe1cb603	-0.15303807
44	0x3e261fdf	0.16223095
45	0xbe06cf6e	-0.13165066
46	0x3e91fd28	0.28513455
47	0xbde67ca9	-0.11254246
48	0xbe431eb9	-0.19054689
49	0xbdf55987	-0.119799666
50	0xbdf0a254	-0.11749712
51	0x3e9442ee	0.28957313
52	0x3d87b68a	0.066266134
53	0xbdb6eedd	-0.08932278
54	0x3e02e57a	0.12782851
55	0xbdc7fd28	-0.097650826
56	0x3e351670	0.1768434
57	0x3db89362	0.09012486
58	0x3e399b41	0.18125631
59	0x3e6ed744	0.23324305
60	0x3e18301f	0.14862107
61	0x3e0c3f9b	0.13696139
62	0x3e413ed7	0.18871628
63	0x3df2898a	0.1184264

actor_mean.0.weight f4 [64, 72]
0	0x3dd293e9	0.10282118
1	0xbe8b1dc0	-0.27171135
2	0xbd8d94f1	-0.06913174
3	0x3e463753	0.19357042
4	0x3c63b2ba	0.013897592
5	0xbe303733	-0.17208557
6	0xbe35c8d6	-0.17752394
7	0xbe2233df	-0.158401
8	0xbe46cfbd	-0.19415183
9	0x3dab8829	0.0837558
10	0x3e98c7b3	0.29839858
11	0x3e2af63e	0.16695496
12	0x3d2e119b	0.04249726
13	0x3d9958fe	0.07487677
14	0xbdcd6366	-0.10028724
15	0xbe76cdf6	-0.24102005
16	0x3ea36ea7	0.3192036
17	0xbe8262b9	-0.25465944
18	0x3e67c1a5	0.22632463
19	0xbe1afa61	-0.15134574
20	0x3e023868	0.1271683
21	0xbd1d5e2c	-0.038419887
22	0x3dd67792	0.10472025
23	0x3da20b6d	0.079123355
24	0xbe2fcb39	-0.17167367
25	0xbeb8df86	-0.36108035
26	0xbc07aaa6	-0.008280432
27	0x3dec16cf	0.11527788
28	0x3e4e8f67	0.20171891
29	0x3e098ee2	0.13433412
30	0xbe5faac8	-0.21842492
31	0xbe8fa6d4	-0.28056967
32	0xbd8e39bd	-0.069446065
33	0x3e439c4a	0.19102588
34	0x3ea24406	0.31692523
35	0xbdaeb260	-0.08530116
36	0x3dc45d28	0.09588081
37	0xbe10da2b	-0.14145724
38	0xbdefdce0	-0.117120504
39	0xbb63d79c	-0.0034765964
40	0x3d238ae4	0.03992738
41	0xbda8aa9c	-0.08235666
42	0xbdecd8a9	-0.11564762
43	0x3e1f9f0d	0.15588017
44	0x3e9fc9bd	0.31208602
45	0xbdae9bed	-0.08525834
46	0x3e88a529	0.26688507
47	0xbdd1eb56	-0.10249965
48	0x3e290672	0.16506365
49	0x3e5faf61	0.21844245
50	0x3d85f6a2	0.06541182
51	0x3d1dfede	0.03857314
52	0xbe539b3b	-0.20664684
53	0xbdc1b5f2	-0.094585314
54	0xbdaf0ff5	-0.085479654
55	0x3e8f809e	0.28027815
56	0xbd352827	-0.044227745
57	0xbe0ba008	-0.13635266
58	0xbe107ebb	-0.14110844
59	0x3db4cbd2	0.08827938
60	0xbe03c2e1	-0.12867309
61	0xbd10535f	-0.03523576
62	0x3e22d3bc	0.15901083
63	0x3dc39c84	0.09551337
64	0x3e96388c	0.29340017
65	0xbec50b89	-0.38485363
66	0xbe50362c	-0.20333165
67	0xbd5be1c4	-0.053682104
68	0x3cda6889	0.026661174
69	0x3d13b7b6	0.036063872
70	0xbdfd2631	-0.123608
71	0xbb88a63b	-0.004170207
72	0x3ecd66ce	0.40117496
73	0xbdb005f1	-0.08594883
74	0xbdf422f1	-0.11920727
75	0xbee50acf	-0.4473481
76	0x3e92dcc5	0.2868406
77	0x3d21423b	0.039369803
78	0xbe39cb0b	-0.18143861
79	0xbde89218	-0.1135599
80	0x3dde81b4	0.10864583
81	0x3dd23cb5	0.10265485
82	0x3e16b1c2	0.14716247
83	0xbdca7be8	-0.098869145
84	0xbd7a7673	-0.06114812
85	0x3c91c22c	0.017792784
86	0x3d3a6bd3	0.045512985
87	0xbd12a4ce	-0.0358017
88	0x3e2267ae	0.15859863
89	0xbde508d2	-0.11183323
90	0x3df92e69	0.12167055
91	0x3e1c7f3b	0.1528291
92	0xbd23d716	-0.040000044
93	0x3e2cc04a	0.16870227
94	0x3e3350ac	0.17511243
95	0xbdc8e219	-0.0980875
96	0xbe0fa728	-0.14028609
97	0x3e614c82	0.22001842
98	0xbe8d87a0	-0.27642536
99	0x3d87f8d5	0.06639258
100	0xbd6d4dca	-0.057935514
101	0xbe0bb0a0	-0.13641596
102	0x3e8882ea	0.2666238
103	0x3d2adb2f	0.041712936
104	0xbe042712	-0.12905529
105	0xbe984b1b	-0.297448
106	0x3d3c1944	0.045922533
107	0xbce7fc66	-0.028318595
108	0x3ede6181	0.43433765
109	0x3e0c4469	0.13697971
110	0x3e58f0ed	0.21185656
111	0x3e17635c	0.14783996
112	0x3e92511f	0.28577515
113	0x3d1bb41b	0.03801356
114	0x3d3f69e6	0.046731852
115	0xbe0a053e	-0.13478562
116	0x3dd01dae	0.10161911
117	0x3db960f0	0.090516925
118	0x3eac5089	0.33655193
119	0xbe62ef64	-0.22161633
120	0xbd93c3e6	-0.07215099
121	0x3ddfd140	0.10928583
122	0x3dfdea63	0.12398221
123	0x3d21e35c	0.039523467
124	0xbe21cf94	-0.15801841
125	0xbe80db44	-0.25167286
126	0x3d8b5441	0.068031795
127	0xbdccc984	-0.099993736
128	0x3e0e3929	0.13888992
129	0x3de75187	0.11294847
130	0x3e52b373	0.20576267
131	0x3e9b83bb	0.3037394
132	0xbc071d28	-0.0082466975
133	0x3e3d0dc0	0.18462276
134	0x3cf9520c	0.03043463
135	0xbd52bd6d	-0.05145018
136	0xbe85842c	-0.26077402
137	0xbbaa83cf	-0.005203701
138	0x3a0a012c	0.0005264457
139	0xbddd98e0	-0.10820174
140	0x3cb7e9ba	0.022450317
141	0xbd9becee	-0.0761355
142	0x3dea800d	0.11450205
143	0x3db1c917	0.08680933
144	0x3de9b9af	0.114123695
145	0xbd1319f5	-0.035913426
146	0x3e4cc755	0.19997914
147	0x3e768c0b	0.2407686
148	0xbd34c1ce	-0.04413014
149	0x3e6b7bca	0.2299644
150	0x3dd8bfd1	0.10583461
151	0xbda5f297	-0.08102911
152	0xbd1fe34b	-0.039035123
153	0x3d8e22f8	0.069402635
154	0x3d35b63e	0.044363253
155	0xbe3c9ef8	-0.18420017
156	0x3deec313	0.11658301
157	0x3d94bd58	0.07262677
158	0x3e5d7275	0.21625693
159	0x3de11c0b	0.10991677
160	0x3c661dd4	0.0140451975
161	0xbe73b18e	-0.237982
162	0xbe35a20c	-0.17737597
163	0x3c9a768f	0.018855361
164	0xbbb081ee	-0.0053865826
165	0xbe4241a6	-0.18970355
166	0xbe0a198c	-0.13486308
167	0xbe6765f3	-0.22597484
168	0x3e6a3185	0.22870453
169	0x3e30d52d	0.1726882
170	0xbe715a23	-0.2356954
171	0x3d0a7cfc	0.0338106
172	0x3d82ea37	0.06392329
173	0xbdcfa897	-0.10139578
174	0x3e447d16	0.19188341
175	0xbea53e05	-0.3227388
176	0x3e166681	0.1468754
177	0x3d130b9c	0.035899743
178	0xbddb1f2c	-0.10699305
179	0xbd82e46f	-0.063912265
180	0x3cbac23a	0.022797693
181	0xbe00b5af	-0.12569307
182	0xbe2f6ec6	-0.171321
183	0x3e29fe38	0.16600883
184	0xbc21a30f	-0.009865536
185	0xbd8ae0a5	-0.06781129
186	0x3ec56756	0.38555402
187	0x3da0e87f	0.07856845
188	0x3d7e4918	0.062081426
189	0x3d62dc48	0.055385858
190	0x3eb77f85	0.35839477
191	0xbbcc8386	-0.0062412648
192	0xbe136de2	-0.14397386
193	0x3e75e9ee	0.24015018
194	0x3c2fea44	0.010737006
195	0xbd5075d2	-0.050893612
196	0x3c43b96d	0.011946064
197	0x3de14434	0.10999337
198	0x3e847cc8	0.2587645
199	0x3e8639d8	0.26216006
200	0xbe44bf29	-0.19213547
201	0x3e5b3360	0.21406317
202	0xbd80dae4	-0.0629175
203	0x3dcbfdfb	0.09960552
204	0x3e3d6c78	0.18498409
205	0x3e472e5a	0.19451275
206	0x3c63a1bb	0.01389354
207	0x3ecd1a46	0.40059108
208	0x3da2ead9	0.0795495
209	0x3e5e3358	0.21699274
210	0xbe915bbb	-0.28390297
211	0x3e9cd2f3	0.3062969
212	0x3dd1efb6	0.10250799
213	0xbd0b3c87	-0.03399327
214	0x3e8bc2f4	0.27297175
215	0x3e73499b	0.23758547
216	0xbe05e7f1	-0.1307676
217	0x3ed479aa	0.41499072
218	0x3e3ada1f	0.18247269
219	0x3cf71dfb	0.030165663
220	0xbdf88c21	-0.121361025
221	0xbd351290	-0.044207156
222	0xbe8ef051	-0.27917722
223	0x3c416bfa	0.011805529
224	0x3d869870	0.06572044
225	0x3e9bc4a4	0.30423462
226	0x3da5e614	0.081005245
227	0x3ca15d91	0.019697936
228	0x3d0ead9f	0.034833547
229	0x3e41b79e	0.189177
230	0x3debf068	0.11520463
231	0x3d8d9e38	0.069149435
232	0xbe1be3ed	-0.15223666
233	0xbefe7633	-0.49699554
234	0x3db42192	0.087954655
235	0x3ba2fbc3	0.00497386
236	0xbda0bbfe	-0.07848357
237	0x3e5f3f60	0.2180152
238	0x3dbe16d3	0.09281697
239	0x3e298f35	0.16558535
240	0xbd80b221	-0.062839754
241	0x3d026d8a	0.031842746
242	0xbdba1bb2	-0.09087314
243	0xbd7721b3	-0.060334872
244	0xbdb12c14	-0.08650985
245	0x3dbd3165	0.09237937
246	0x3e26f92e	0.16305992
247	0x3c361717	0.0111139035
248	0x3d0ebc58	0.034847587
249	0x3e608120	0.21924257
250	0x3ea28873	0.31744727
251	0x3d953339	0.072851606
252	0x3e2161d6	0.15759978
253	0xbe6195b2	-0.2202976
254	0x3cba2e52	0.022727165
255	0x3dc2c6ee	0.09510599

actor_mean.0.bias f4 [64]
0	0xbd1fcc45	-0.039013166
1	0xbd7b1c06	-0.061306022
2	0xbce87626	-0.02837665
3	0xbd1e13bb	-0.038593035
4	0x3d0a0caa	0.033703484
5	0xbbe2fd5e	-0.0069271764
6	0x3d2d0271	0.042238656
7	0x3d15cc7e	0.036571972
8	0x3d9c6cf4	0.07637969
9	0x3d2f8dcf	0.04285985
10	0x3ba3e108	0.005001191
11	0x3d39048c	0.045170352
12	0xbc963cd6	-0.018339556
13	0x3cd7f3a5	0.026361296
14	0x3c8ea9ff	0.017415045
15	0x3c13ec17	0.009028456
16	0x3ca5e2e4	0.020249791
17	0xbd9d64b7	-0.076852255
18	0x3d17e598	0.037084192
19	0xbd5d433c	-0.054019198
20	0x3d2593bb	0.04042409
21	0xbcd70ba4	-0.026250668
22	0x3d1472e9	0.0362424
23	0x3b4ebeba	0.0031546787
24	0xbc60e4b8	-0.013726406
25	0x3bd9b5e2	0.0066439966
26	0x3d00fe67	0.031492617
27	0x3c2f677a	0.010705823
28	0x3ae2324e	0.0017257424
29	0xbd0e85c9	-0.034795556
30	0xbd457ee6	-0.048216723
31	0xbd06466b	-0.032782
32	0xbd64f12c	-0.055894062
33	0x3c055b75	0.008139481
34	0xbcc773be	-0.024347182
35	0x3ced0ae7	0.028935863
36	0x3cf7470e	0.030185249
37	0x3d08f530	0.033436954
38	0xbc69db2e	-0.014273448
39	0xbb917843	-0.004439385
40	0x3d2ff8ba	0.042961814
41	0x3d4430dd	0.047898162
42	0x3d10fb89	0.035396133
43	0xbdf8f38c	-0.12155828
44	0xbbc8a2a2	-0.006122903
45	0xbcdff4c0	-0.027338386
46	0xbbc8e0c5	-0.0061303102
47	0xbc99058a	-0.018679399
48	0xbcf91a5d	-0.030408079
49	0x3c297029	0.0103416825
50	0xbdb3c540	-0.08777857
51	0x3d6893c0	0.05678153
52	0x3c914c47	0.017736567
53	0xbbad19b5	-0.0052826055
54	0x3d27ded4	0.04098399
55	0xbd2010d2	-0.03907854
56	0x3d147215	0.03624161
57	0x3d206d01	0.039166454
58	0x3c104e4f	0.008807733
59	0x3cc99f96	0.02461223
60	0xbcaf2cfe	-0.021383759
61	0xbd9764d9	-0.07392282
62	0x3cd3eb1a	0.025868941
63	0xbc436e79	-0.011928194

actor_mean.2.weight f4 [64, 64]
0	0xbec558b5	-0.3854424
1	0x3df64281	0.12024403
2	0xbe2b1f85	-0.16711242
3	0x3e6b83cd	0.22999497
4	0xbd8738e3	-0.06602647
5	0xbd577789	-0.052604232
6	0xbe3a7dc1	-0.18212034
7	0x3c65ccdb	0.014025892
8	0x3e05c8a7	0.13064824
9	0x3def7de5	0.11693934
10	0x3e613b44	0.21995264
11	0xbe391534	-0.18074495
12	0x3e0fde75	0.14049704
13	0xbdbfb3e3	-0.093604825
14	0xbe5950bc	-0.21222204
15	0xbe6ef27f	-0.23334692
16	0x3da44317	0.08020609
17	0xbf182aa1	-0.59440047
18	0xbe1e7694	-0.15474921
19	0xbd217def	-0.03942674
20	0xbce192e6	-0.027535867
21	0x3e85fa5b	0.2616757
22	0xbdbb0aa9	-0.09132893
23	0xbd7bf4c8	-0.06151274
24	0xbe806a9d	-0.2508134
25	0x3e1e67e5	0.1546932
26	0xbd35b148	-0.04435852
27	0xbd181e55	-0.037138302
28	0xbcb74a74	-0.02237437
29	0x3da8e5e3	0.082469724
30	0xbda47dd2	-0.08031811
31	0xbd7be383	-0.06149627
32	0x3e30b021	0.17254688
33	0xbeace3e6	-0.33767623
34	0x3ed46c77	0.41489002
35	0x3decb8fa	0.11558719
36	0xbd76ecf9	-0.06028459
37	0xbcb79f93	-0.022414958
38	0x3d877ee0	0.06615996
39	0xbe185747	-0.14877044
40	0xbde0eb2d	-0.10982356
41	0x3c70fd09	0.014708766
42	0x3dfd9404	0.12381747
43	0x3d50c8ba	0.050972678
44	0xbd1e6409	-0.03866962
45	0x3e2ed487	0.1707326
46	0xbe6860a1	-0.22693111
47	0x3df445a1	0.11927343
48	0xbdaea222	-0.08527018
49	0x3e7e9894	0.24862891
50	0xbe7bcd58	-0.24590051
51	0xbc60162e	-0.013677163
52	0xbdbeac1a	-0.093101695
53	0xbda7ab46	-0.08186965
54	0x3e672aff	0.22574995
55	0x3e0bd9a3	0.1365724
56	0xbdaed494	-0.0853664
57	0x3eb5f7c6	0.355406
58	0x3c9ff85e	0.01952761
59	0x3e5678a5	0.2094446
60	0x3dfc0b74	0.12306872
61	0x3e93bb39	0.28853777
62	0xbd496243	-0.049165975
63	0x3b0d1be3	0.0021531514
64	0xbe27ba60	-0.1637969
65	0x3c932025	0.017959664
66	0x3e20f084	0.1571675
67	0xbec4032c	-0.3828367
68	0xbe88d2a0	-0.26723194
69	0xbdf1198e	-0.11772452
70	0x3e90302c	0.28161752
71	0xbd291668	-0.041281134
72	0x3d50b35c	0.0509523
73	0x3c1cd27c	0.009571668
74	0x3da14479	0.07874388
75	0x3e8fcdb1	0.28086618
76	0xbdb9f3f2	-0.09079732
77	0x3e1a9d8d	0.15099163
78	0xbc245815	-0.010030766
79	0x3db52079	0.08844084
80	0xbd7ebeae	-0.062193565
81	0xbe45d129	-0.1931807
82	0x3e84d44a	0.25943214
83	0x3e2f4a54	0.17118198
84	0xbbbf5445	-0.005838903
85	0x3e505d00	0.20347977
86	0x3e9daf71	0.30797914
87	0xbe3f46ac	-0.18679303
88	0xbe94ea37	-0.29084942
89	0xbeacd2d4	-0.337546
90	0x3e105d4e	0.14098093
91	0x3ec7b7c4	0.3900739
92	0x3e4512ab	0.19245403
93	0xbd97d563	-0.07413747
94	0xbebf513c	-0.37366664
95	0xbdb54a9f	-0.088521235
96	0x3cf9976b	0.03046771
97	0x3cd283bd	0.025697583
98	0x3e66df0b	0.22546022
99	0x3c3806f5	0.011232127
100	0x3d4d62c1	0.050143007
101	0xbe35d00a	-0.17755142
102	0xbe35aaf0	-0.17740989
103	0x3e28a3b4	0.16468698
104	0xbb0d4ddc	-0.00215613
105	0x3e8f4575	0.2798268
106	0x3c9508bf	0.018192647
107	0xbe24807a	-0.16064635
108	0x3e59ca26	0.2126852
109	0x3d92eedf	0.07174467
110	0x3cf2b53b	0.029627433
111	0xbdb801ac	-0.08984694
112	0x3d86a7ea	0.06574996
113	0x3e88b700	0.26702118
114	0xbc893e12	-0.01675323
115	0x3e7a6af8	0.24454868
116	0x3de63b2f	0.11241757
117	0x3d26158b	0.04054789
118	0xbe7d8ab6	-0.24759945
119	0xbe991d0e	-0.2990498
120	0x3d0871e9	0.03331176
121	0x3ee822f4	0.45339167
122	0xbd5828f2	-0.052773423
123	0x3e54b76d	0.20773096
124	0xbdb0ec9e	-0.08638881
125	0xbdd4cf5f	-0.103911154
126	0x3dcb062b	0.09913286
127	0xbdbfcad9	-0.09364862
128	0x3e49c0e7	0.19702493
129	0x3cb098b5	0.021557191
130	0x3da34c31	0.07973517
131	0x3cfb11cb	0.030648133
132	0xbdb1f7e8	-0.086898625
133	0x3e338284	0.17530257
134	0x3d2044b3	0.039128017
135	0x3dfc7c62	0.12328412
136	0xbe75b231	-0.23993756
137	0x3e82951b	0.25504383
138	0x3e84cd1c	0.25937736
139	0xbe66d8db	-0.22543661
140	0xbe6321ca	-0.22180858
141	0x3e803337	0.25039074
142	0x3e8a1629	0.26970032
143	0x3e6e0bbb	0.23246662
144	0xbd585d70	-0.052823484
145	0x3e41a817	0.18911777
146	0x3db01165	0.08597068
147	0x3e9f659e	0.31132215
148	0xbc74718f	-0.014919653
149	0x3d0a1a79	0.033716653
150	0xbda17ed9	-0.078855224
151	0x3df81054	0.12112489
152	0x3ca87a8c	0.020566247
153	0xbe631072	-0.22174242
154	0xbe7528f0	-0.23941398
155	0xbea60233	-0.32423553
156	0xbd791772	-0.060813375
157	0xbe9ee8ff	-0.31037137
158	0xbe2d2ae3	-0.16910891
159	0xbd821d68	-0.06353265
160	0x3db8154e	0.089884385
161	0xbe997394	-0.29970992
162	0xbcb50433	-0.022096729
163	0x3dabe28d	0.083928205
164	0x3e62d413	0.22151212
165	0x3da8566b	0.08219608
166	0xbed0f78e	-0.4081387
167	0xbeab152c	-0.3341459
168	0xbe40c069	-0.18823399
169	0x3e1424a5	0.14467104
170	0x3c758be2	0.014986964
171	0xba999f60	-0.0011720471
172	0xbde67534	-0.112528235
173	0xbd54d4e1	-0.05196083
174	0xbd75db34	-0.0600235
175	0xbea7f3d9	-0.32803228
176	0x3e10085e	0.14065692
177	0x3e38b9a2	0.18039563
178	0x3d954b0a	0.07289703
179	0xbe6b1ed5	-0.2296098
180	0xbe5d8c48	-0.21635544
181	0x3e7d8dcc	0.24761122
182	0x3d873047	0.06601005
183	0x3d8326db	0.064038955
184	0x3e5c235b	0.21497862
185	0xbd7e0c8c	-0.062023684
186	0x3c69893d	0.014253912
187	0xbdc24e08	-0.094875395
188	0x3dfc1fee	0.123107776
189	0x3ea56bbb	0.32308754
190	0xbdf8d255	-0.12149493
191	0x3e58f06b	0.21185462
192	0xbccfa9a1	-0.02534944
193	0x3e5f499c	0.21805423
194	0x3e0cca76	0.13749108
195	0x3e505d49	0.20348085
196	0x3ed135c3	0.4086133
197	0x3e380027	0.17968808
198	0x3e08c4ef	0.13356374
199	0x3e48f6f1	0.1962545
200	0x3d6ab073	0.05729718
201	0x3e8f8b3d	0.28035918
202	0xbe549303	-0.20759206
203	0x3d8dad88	0.06917864
204	0x3ddc1bf6	0.107475206
205	0x3ec37ec9	0.38182667
206	0x3df9b3a7	0.12192469
207	0x3d8af2f4	0.06784621
208	0xbdaccd27	-0.08437567
209	0xbe28302d	-0.16424628
210	0x3c266016	0.010154745
211	0xbe90c6e8	-0.28276753
212	0x3e534c99	0.20634688
213	0xbe544d69	-0.20732655
214	0x3de677fe	0.112533554
215	0x3d898f56	0.06716792
216	0xbdf53fda	-0.11975069
217	0xbe126bd3	-0.14298944
218	0x3bf65be3	0.007518278
219	0x3d49280a	0.04911045
220	0xbe3a0ff0	-0.18170142
221	0x3b9b3acb	0.0047372333
222	0xbe1e2119	-0.15442313
223	0xbe3982a8	-0.18116248
224	0x3d3b6ac5	0.04575612
225	0x3d928cc0	0.07155752
226	0x3e81325d	0.25233737
227	0x3e785216	0.24250063
228	0x3e870fed	0.26379338
229	0x3e43f3a2	0.19135907
230	0xbe8d964b	-0.27653727
231	0x3dcb72d6	0.099340126
232	0x3dea25e5	0.11433009
233	0xbe606804	-0.21914679
234	0x3eaedffd	0.34155264
235	0xbec050af	-0.37561557
236	0xbe00368e	-0.12520811
237	0x3bc6f1b9	0.006071296
238	0xbdbbebfa	-0.09175868
239	0x3d0fde46	0.035124086
240	0xbde6647e	-0.11249636
241	0xbe0226ce	-0.12710115
242	0x3d064dfd	0.03278922
243	0x3e30986e	0.17245647
244	0x3e068706	0.13137445
245	0xbe07df88	-0.13268864
246	0x3ca6445e	0.020296272
247	0x3e8e4be5	0.27792278
248	0x3b027f21	0.00199122
249	0xbd6bd7ae	-0.057578735
250	0x3d04b3d3	0.032398056
251	0x3eb72e75	0.3577763
252	0xbdf509b5	-0.11964742
253	0xbd043f00	-0.032286644
254	0x3e9585bc	0.29203594
255	0xbe2312ed	-0.15925188

actor_mean.2.bias f4 [64]
0	0x3c50ec20	0.012751609
1	0x3d88962d	0.06669269
2	0xbc5d26b5	-0.013497998
3	0xbbf0c37a	-0.0073475214
4	0x3b943b6c	0.004523685
5	0x3c8d7cd6	0.01727144
6	0xbc573605	-0.013135438
7	0xbd09fdb4	-0.033689216
8	0xbc774304	-0.015091661
9	0x3a06e40e	0.0005145677
10	0xbd554016	-0.05206307
11	0xbce0ff57	-0.027465506
12	0x3a0ecdcc	0.0005447536
13	0x3bb1d741	0.0054272716
14	0xbcc22b20	-0.023702204
15	0xbc8b80cb	-0.017029187
16	0xbc07c06a	-0.008285621
17	0xbd0f2463	-0.03494681
18	0xbc60b4a2	-0.013714941
19	0xbcf5cdbc	-0.030005328
20	0xbc024410	-0.007950798
21	0xbc40c41c	-0.011765506
22	0x3a6b7cf0	0.0008983156
23	0xbc9fa04f	-0.01948562
24	0x3c3a78ab	0.011381309
25	0x3ba9d8c5	0.0051833116
26	0x3c234044	0.009964053
27	0xbd356958	-0.044289917
28	0xbca81a38	-0.020520315
29	0x3c4877b6	0.012235573
30	0xbca833bb	-0.02053248
31	0x3d152467	0.03641167
32	0x3cb478a5	0.022030184
33	0xbc5e6dbf	-0.01357597
34	0xbca8b372	-0.020593379
35	0x3c0c951c	0.008580472
36	0x3c6e45fe	0.014543055
37	0x3bc27038	0.0059337877
38	0x3c857aa3	0.01629383
39	0x3c81fb33	0.015866851
40	0x3cb37909	0.0219083
41	0xbcc19dd9	-0.023634838
42	0xbb69cebc	-0.0035676202
43	0xbd075f68	-0.03304997
44	0xbcda06fd	-0.02661466
45	0x3c2d6400	0.010582924
46	0x3c2c42f0	0.010514006
47	0x3c2764ec	0.010216933
48	0x3bec1287	0.007204357
49	0x3bdb02f7	0.006683703
50	0xbbfe7db9	-0.007766452
51	0xbd394cac	-0.045239136
52	0x3c39ac8c	0.011332642
53	0x3c965af7	0.018353922
54	0x3bbb41b6	0.0057146205
55	0x3b8b089c	0.0042429697
56	0xbd022c70	-0.03178066
57	0xbce65fa2	-0.028121773
58	0xbba0bf57	-0.004905622
59	0x3c746d01	0.014918567
60	0xbc2e4820	-0.010637313
61	0x3c57c63c	0.013169821
62	0xbd563da0	-0.052304864
63	0x3d00cfd6	0.031448208

actor_mean.4.weight f4 [1, 64]
0	0x3d30f507	0.043202426
1	0x3dc44ed1	0.095853455
2	0xbd337ddf	-0.043821212
3	0x3d4c9b83	0.049952995
4	0xbd28fa05	-0.041254062
5	0x3c3506e0	0.011049002
6	0x3c9f1402	0.01941872
7	0x3c7591ac	0.014988344
8	0x3d29b893	0.04143579
9	0xbdc214a2	-0.09476592
10	0xbd43dae4	-0.047816172
11	0xbc8dcf44	-0.017310746
12	0xbbbdb172	-0.0057889754
13	0xbe0a6d2b	-0.13518207
14	0xbdc01a73	-0.09380045
15	0xbd6803b2	-0.05664415
16	0x3c6256f4	0.013814677
17	0xbcd23777	-0.025661213
18	0xbd0eb7da	-0.034843303
19	0xbd6dfbe9	-0.05810157
20	0xbd83f489	-0.06443126
21	0x3cf7730d	0.030206228
22	0xbd04c58e	-0.032414965
23	0xbd8550fd	-0.06509588
24	0xbd1e3815	-0.038627703
25	0x3d3cbff9	0.046081517
26	0xbd8e1398	-0.06937331
27	0xbd3ca149	-0.04605225
28	0xbc1cc426	-0.00956825
29	0xbab721c3	-0.0013971854
30	0x3cc82ddd	0.024435932
31	0x3c8fe21b	0.01756387
32	0x3d36ee33	0.04466076
33	0xbd6979e7	-0.05700102
34	0xbcefccc9	-0.029272454
35	0xbc0db319	-0.008648657
36	0x3c4e7660	0.012601465
37	0x3d884f25	0.066557206
38	0x3cb702d7	0.022340221
39	0x3d72c55b	0.059270244
40	0xbb27cede	-0.002560548
41	0x3d232b95	0.039836485
42	0xbcb8e5ab	-0.022570452
43	0x3cd50ebd	0.026008004
44	0xbd9d51b4	-0.07681599
45	0xbd124991	-0.03571469
46	0x3c17a547	0.009255714
47	0x3d00f4c3	0.031483423
48	0xbd4f08a1	-0.05054534
49	0xbb7bbca4	-0.0038412
50	0xbdba9cd4	-0.09111944
51	0xbdcf5f67	-0.101256184
52	0x3c6ac7f0	0.014329895
53	0xbd06f975	-0.032952745
54	0xbdd18b82	-0.10231687
55	0x3d6754ce	0.05647736
56	0xbd59ee27	-0.053205635
57	0x3c98fe05	0.018675813
58	0xbc8466ed	-0.01616236
59	0x3d6e8e61	0.05824125
60	0xbd84f2ba	-0.06491609
61	0xbd875482	-0.066079155
62	0xbd61e337	-0.05514833
63	0x3d50bd34	0.05096169

exp_avg f4 [64, 72]
0	0xb83004ce	-4.1966145e-05
1	0xb8499a7a	-4.8066002e-05
2	0xb8319aae	-4.2344145e-05
3	0xb8230697	-3.8868366e-05
4	0xb85112e0	-4.984706e-05
5	0xb809241d	-3.269698e-05
6	0xb8398d5c	-4.423909e-05
7	0xb83e68d9	-4.5397177e-05
8	0xb869c014	-5.5730416e-05
9	0xb8829281	-6.2261715e-05
10	0xb86673f5	-5.4944267e-05
11	0xb8517bb0	-4.9944676e-05
12	0xb83926b8	-4.4143497e-05
13	0xb7c27b51	-2.3184026e-05
14	0xb7f61110	-2.933343e-05
15	0xb7eb6619	-2.8061726e-05
16	0xb7ee2a3f	-2.8391483e-05
17	0xb8001092	-3.053301e-05
18	0xb8017267	-3.0862542e-05
19	0xb812313d	-3.485497e-05
20	0xb82d839d	-4.136899e-05
21	0xb79f8797	-1.9017416e-05
22	0xb62e6e98	-2.5992395e-06
23	0x36a3333c	4.863743e-06
24	0x3797fe84	1.811912e-05
25	0x37a522dd	1.9685767e-05
26	0x33c56ed8	9.19369e-08
27	0x3734cd0a	1.0776575e-05
28	0x3705141f	7.932103e-06
29	0x36fde546	7.5666785e-06
30	0xb603eacd	-1.9657193e-06
31	0xb7071905	-8.052452e-06
32	0xb7eb3ad6	-2.804158e-05
33	0xb6e7b2e3	-6.9051616e-06
34	0xb7bf0006	-2.2768985e-05
35	0x38013f0b	3.081471e-05
36	0x36ee5e3a	7.103922e-06
37	0xb7a268a5	-1.9360634e-05
38	0xb789597f	-1.6373348e-05
39	0xb76fd8ea	-1.4296014e-05
40	0xb7f2a396	-2.8924824e-05
41	0xb813ddba	-3.525403e-05
42	0xb82ea6b5	-4.164009e-05
43	0x37b8576a	2.1975215e-05
44	0x383b5b96	4.466957e-05
45	0x38518396	4.9952032e-05
46	0xb7487f3c	-1.1950553e-05
47	0x34ea64d3	4.3659256e-07
48	0xb7338771	-1.0700766e-05
49	0x36e7c38e	6.907102e-06
50	0xb5066e65	-5.0079535e-07
51	0xb72629e4	-9.904124e-06
52	0xb7453ba9	-1.1756006e-05
53	0xb72cd7fc	-1.0302287e-05
54	0x367307fd	3.6214471e-06
55	0xb6660b34	-3.4279192e-06
56	0xb77621c2	-1.46706025e-05
57	0xb7adce30	-2.071922e-05
58	0xb7c3d7d4	-2.3346314e-05
59	0xb77c0081	-1.5020488e-05
60	0xb6ee0703	-7.093769e-06
61	0xb75dcda3	-1.3220505e-05
62	0xb7f08a1a	-2.8674538e-05
63	0xb7d528cb	-2.5410574e-05
64	0xb7f1737d	-2.8783217e-05
65	0xb81e7bbd	-3.7785376e-05
66	0xb821d20f	-3.8581024e-05
67	0xb852b629	-5.023755e-05
68	0xb7e20ce8	-2.694731e-05
69	0xb772c68a	-1.447055e-05
70	0xb5e15e6f	-1.679129e-06
71	0xb6dd4ba0	-6.595117e-06
72	0xb82f84eb	-4.184704e-05
73	0xb83b2b1f	-4.4624434e-05
74	0xb8227e86	-3.8741644e-05
75	0xb8229306	-3.8760736e-05
76	0xb808cb0b	-3.2614025e-05
77	0xb8059bd4	-3.1854797e-05
78	0xb7f49e0d	-2.9160665e-05
79	0xb7ef983f	-2.8561915e-05
80	0xb75ef5ff	-1.3289507e-05
81	0xb7bcaab8	-2.2490844e-05
82	0xb803a55c	-3.1386837e-05
83	0xb80c7e3e	-3.3496173e-05
84	0xb80bfa6a	-3.33734e-05
85	0xb7d1b97d	-2.5001116e-05
86	0xb7c532af	-2.3507831e-05
87	0x35dae0fd	1.6307746e-06
88	0x361331e9	2.1933758e-06
89	0xb705b4df	-7.96953e-06
90	0xb5dc24e9	-1.640202e-06
91	0xb61a8759	-2.302657e-06
92	0xb7863c45	-1.600211e-05
93	0xb7029fc1	-7.785799e-06
94	0xb7b15840	-2.1141139e-05
95	0x374defcb	1.2274783e-05
96	0x37aff334	2.0974876e-05
97	0x37e1debc	2.6925809e-05
98	0xb5817fd3	-9.648451e-07
99	0xb76680cb	-1.3739055e-05
100	0xb7c12715	-2.3025592e-05
101	0xb822ca2f	-3.8812108e-05
102	0xb7ccea8b	-2.4427913e-05
103	0xb7f1d762	-2.8829734e-05
104	0x36c16be0	5.7644065e-06
105	0x380b1bd1	3.316609e-05
106	0x388abfdc	6.6160894e-05
107	0x388b3bee	6.639199e-05
108	0x38666490	5.492993e-05
109	0x383e0b3c	4.5309993e-05
110	0x38703e2c	5.727836e-05
111	0x38a66e36	7.936025e-05
112	0x381f5516	3.7987797e-05
113	0x379975ec	1.8293933e-05
114	0x378504ad	1.5857013e-05
115	0x3784c043	1.5825155e-05
116	0x370f0f5e	8.527042e-06
117	0x3712bc01	8.746051e-06
118	0xb5d260af	-1.5674358e-06
119	0xb786ffa1	-1.6093081e-05
120	0xb8002fa3	-3.0561943e-05
121	0xb78eb348	-1.7011203e-05
122	0xb61adc2b	-2.3075943e-06
123	0xb75d9414	-1.3207104e-05
124	0xb699501c	-4.5690813e-06
125	0xb79abd56	-1.8446397e-05
126	0xb7a1552d	-1.9232359e-05
127	0xb7ed4622	-2.828526e-05
128	0xb7f56bd6	-2.9256491e-05
129	0xb721d30c	-9.645486e-06
130	0x35cc63c0	1.5228215e-06
131	0x3703af4f	7.849026e-06
132	0xb6a31053	-4.859679e-06
133	0xb794deb4	-1.7746679e-05
134	0xb7a28586	-1.9374082e-05
135	0xb7479f8a	-1.189847e-05
136	0xb766ab6c	-1.3748981e-05
137	0xb7671295	-1.3772999e-05
138	0xb69001a1	-4.291724e-06
139	0xb6979b74	-4.518248e-06
140	0xb664cb8a	-3.4093123e-06
141	0xb5256c55	-6.1624934e-07
142	0xb6442199	-2.9225832e-06
143	0xb3ac053f	-8.0103284e-08
144	0x35ca3c3f	1.5067707e-06
145	0xb6969681	-4.4878693e-06
146	0xb5ab55e1	-1.2765487e-06
147	0xb6cc7580	-6.0933526e-06
148	0xb6e5f5c7	-6.853344e-06
149	0xb72f6583	-1.0454448e-05
150	0xb7244fe8	-9.793766e-06
151	0xb78832d7	-1.6236138e-05
152	0xb653228a	-3.1461554e-06
153	0xb756c742	-1.2801787e-05
154	0x3750d572	1.2447463e-05
155	0x36fa3181	7.4563436e-06
156	0x369f17f3	4.7413573e-06
157	0x3692d244	4.375617e-06
158	0x377a4270	1.491663e-05
159	0x3830edcd	4.218314e-05
160	0x385350ef	5.0381695e-05
161	0x380f61f7	3.4185094e-05
162	0x3882c412	6.235404e-05
163	0x3835456d	4.321842e-05
164	0x383e6c2b	4.540027e-05
165	0x3895f71c	7.1509014e-05
166	0x384cc214	4.881814e-05
167	0x383405bb	4.292068e-05
168	0x378b5c3c	1.6613041e-05
169	0x38331bc4	4.2702784e-05
170	0x3854742a	5.0652925e-05
171	0x37e71a4d	2.7549593e-05
172	0x37ca7b8d	2.413781e-05
173	0x3802cd26	3.1185475e-05
174	0x3721990b	9.631981e-06
175	0x370703d1	8.047516e-06
176	0xb6b59bdc	-5.4123648e-06
177	0xb7765661	-1.4682854e-05
178	0x37dbdb37	2.6208914e-05
179	0x3569a1e2	8.7034834e-07
180	0x36fd2356	7.544101e-06
181	0xb7d64752	-2.5543999e-05
182	0xb754c451	-1.2681893e-05
183	0xb72e79d4	-1.03995735e-05
184	0xb70b5964	-8.3058585e-06
185	0x36bf665a	5.704159e-06
186	0x37435f2b	1.1645064e-05
187	0x3791f697	1.7400174e-05
188	0x37c1a7f2	2.3085599e-05
189	0x37644b2f	1.3607364e-05
190	0x36c3959a	5.828869e-06
191	0x36cd06af	6.110254e-06
192	0xb5c74c5d	-1.484888e-06
193	0x3742b877	1.160625e-05
194	0x37e5983b	2.7369815e-05
195	0x3730b089	1.053152e-05
196	0x3762836a	1.3501247e-05
197	0x360ddce5	2.1139215e-06
198	0xb6c7a9d2	-5.950432e-06
199	0xb68df05b	-4.2301085e-06
200	0x37b65c8c	2.1739186e-05
201	0x37979612	1.8070485e-05
202	0x37b5a3af	2.1653103e-05
203	0x37f00fc4	2.8617571e-05
204	0x376b6eb0	1.4032863e-05
205	0x36bccb84	5.626529e-06
206	0x3729b62c	1.01156e-05
207	0x3728a3d6	1.0051726e-05
208	0x361780c6	2.257571e-06
209	0x336df80c	5.540646e-08
210	0xb6840152	-3.9340603e-06
211	0xb6c60145	-5.9010076e-06
212	0xb7209c85	-9.573186e-06
213	0xb743ee2c	-1.1678359e-05
214	0xb794a286	-1.7718656e-05
215	0xb7c5859a	-2.3546443e-05
216	0xb8598807	-5.1863517e-05
217	0xb82afe17	-4.0767798e-05
218	0x37fb0006	2.9921543e-05
219	0x3826051d	3.9582246e-05
220	0x37bdd498	2.2629552e-05
221	0x38334abf	4.274654e-05
222	0x38050817	3.1717205e-05
223	0x38691326	5.5569362e-05
224	0x385678a3	5.1133928e-05
225	0x37392e08	1.1037577e-05
226	0x380719a0	3.2210373e-05
227	0x38201b41	3.8172355e-05
228	0x383bdf6a	4.4792345e-05
229	0x386ac1bb	5.5970373e-05
230	0x3883322c	6.255912e-05
231	0x38ffd9c9	0.00012199913
232	0x38dd66cd	0.00010557249
233	0x388a8153	6.604441e-05
234	0x388fca7c	6.856487e-05
235	0x38a9f88e	8.104845e-05
236	0x3859b04a	5.1901014e-05
237	0x3894d2ea	7.096476e-05
238	0x3848d3a5	4.7880825e-05
239	0x381b72ad	3.706168e-05
240	0xb67887bf	-3.7033894e-06
241	0x379df78c	1.8831131e-05
242	0xb79d0906	-1.872006e-05
243	0xb84c77d8	-4.8749003e-05
244	0xb8815e01	-6.168709e-05
245	0xb8f5672c	-0.000117017276
246	0xb87e1556	-6.057819e-05
247	0xb836abf0	-4.355231e-05
248	0xb7a55b33	-1.9712e-05
249	0x384337d2	4.654361e-05
250	0x3806f322	3.2174525e-05
251	0x38676941	5.5172717e-05
252	0x385cfd26	5.268785e-05
253	0x3807424f	3.2248263e-05
254	0x37bea5f8	2.272705e-05
255	0x37998945	1.8302942e-05
