rl_planner/33_model.pt (torch, 239741 bytes, 36 tensors)

actor_logstd f4 [1, 15]
000000 92 30 85 bc 87 0b 1c bd 79 f3 5c bc 22 c9 1a bd
       -0.016258512 -0.03809693 -0.013485783 -0.03778947
000010 c0 04 3e bd f1 d1 47 bd 20 1d 2e bd 36 41 4f bd
       -0.04639125 -0.0487842 -0.042508245 -0.0505993
000020 bb 35 5c ba 6c fb 40 bd 89 75 ec bd 63 9b 3c bd
       -0.00084003404 -0.047114775 -0.115458556 -0.046046626
000030 ea e9 84 bd 9f 7e aa bc 91 23 05 bd
       -0.06489928 -0.02081233 -0.032504622

critic.0.weight f4 [64, 72]
000000 33 cf 16 3d b0 ab 06 be ad fe a5 bc f0 03 81 3e
       0.036818694 -0.13151431 -0.02026304 0.25198317
000010 72 90 25 bd 8c 5c 94 3d da 12 29 ba c0 07 a9 3d
       -0.040420957 0.072442144 -0.00064496475 0.08253431
000020 09 3b d9 bd 3d 45 cc 3c 7f 27 64 bd 22 ed d8 bc
       -0.10606963 0.02493536 -0.05570173 -0.026480261
000030 99 b0 69 3e 49 20 c9 bb 92 46 8a bd c7 a9 d0 bc
       0.22821273 -0.006137882 -0.067517415 -0.025471581
000040 79 cf 21 be a0 13 1f bd bc 9f 90 bc 75 51 62 bd
       -0.15801801 -0.038837075 -0.017654292 -0.055253465
000050 83 06 5b be 6f 95 67 be 2d e4 e5 bd a5 58 e3 bc
       -0.21389203 -0.22615598 -0.11225162 -0.02775223
000060 29 ae 01 3d f8 9d b6 be 92 1c ce be af d5 b8 be
       0.031660233 -0.35667396 -0.40256172 -0.36100528
000070 cc 90 3e be 88 2f c7 bd 70 08 51 be ed 4b 8c 3e
       -0.18609923 -0.09725863 -0.20413375 0.27401677
000080 1e b3 f0 3d bb d8 1a bd c8 93 34 be 7a 77 23 be
       0.11752914 -0.037804347 -0.17634499 -0.15963545
000090 d3 15 b2 bd 79 2d bc be ab 19 d0 bd 69 b7 95 be
       -0.08695569 -0.36753443 -0.10161146 -0.29241493
0000a0 7a 3f cd 3d 88 d3 12 be 7c 51 07 be b1 22 21 bd
       0.10021873 -0.14338505 -0.13214678 -0.039339725
0000b0 ad 0d 95 be bd 80 82 bc 06 14 21 be 4a e9 1b bd
       -0.29111996 -0.015930528 -0.15730295 -0.03806428
0000c0 81 26 5f be 47 24 08 3e b5 50 db be ca 43 a1 3d
       -0.21792032 0.13295089 -0.42835012 0.07874258
0000d0 9d bc e2 bd 62 8b c1 bd 68 47 89 bb 69 3c 78 bd
       -0.110711314 -0.09450413 -0.0041894205 -0.060604487
0000e0 8a 6b 96 be b7 54 03 3d bc 30 e6 bb 3e 83 63 be
       -0.2937892 0.032063212 -0.0070248526 -0.22218034
0000f0 90 6c 1a 3e 7f 1d f5 bd c3 33 dd be 1f fc cc be
       0.15080476 -0.119685166 -0.43203554 -0.40036103
000100 27 7b b3 bd 3d c4 35 bd 23 14 e9 bd c5 c1 09 be
       -0.08763724 -0.0443766 -0.11380794 -0.13452823
000110 9b a4 57 be b3 15 ae bd c3 72 9b bd 11 08 e8 3d
       -0.21058886 -0.085002325 -0.075902484 0.113296635
000120 6f 9d bf 3e 7f a3 f5 bd 7e dd 14 3d f0 46 80 be
       0.374248 -0.11994075 0.036344044 -0.2505412
000130 ee 2f 8e 3d 1d 1e de bd 59 f2 41 bc ba dc 2f be
       0.069427356 -0.108455874 -0.011837565 -0.17174044
000140 29 1d ef bd 05 72 02 be 7e 60 0f 3c ad 88 34 be
       -0.11675484 -0.12738807 0.008751033 -0.17630263
000150 aa cf 1f be a5 f5 30 3e e4 6d fa 3d 15 66 92 3e
       -0.15606561 0.17281206 0.12227991 0.28593507
000160 63 25 8c 3d 27 ba 9a bc 64 f2 9d 3d 27 5b 18 be
       0.068430685 -0.018887592 0.07712248 -0.14878522
000170 6c 84 e2 bd da 4e a7 be 85 89 41 be d8 c2 4a be
       -0.11060414 -0.32677346 -0.18900116 -0.1980089
000180 e2 61 b9 bd fb 3b a3 bc f2 e6 43 be d1 6f 95 3e
       -0.09051873 -0.019926062 -0.19131067 0.29186872
000190 9a e1 ac bd 79 39 43 3e ef 30 15 be 0f 7b eb 3d
       -0.084414676 0.19064893 -0.14569448 0.11498081
0001a0 b3 a8 c6 3d f8 e1 5a be b1 e6 4b 3e e8 ce a1 3d
       0.097001456 -0.21375263 0.1991222 0.07900792
0001b0 22 bd 82 3e 7a 59 75 3e 21 c1 32 3c 53 f0 68 bd
       0.25534922 0.23959914 0.010910303 -0.056869816
0001c0 6e 71 ae 3c 78 79 5c 3e 9c e5 e9 3d e2 15 58 bc
       0.021294322 0.21530712 0.11420748 -0.013188811
0001d0 ab 19 0a bd 44 51 9c bb 56 fd 32 bd 99 e7 8d be
       -0.033715885 -0.00477043 -0.04369863 -0.27715757
0001e0 48 fe 2a be 9e 50 9b 3c ff f9 34 be 1b ad c3 3c
       -0.16698563 0.01895934 -0.17673491 0.023886254
0001f0 9b 5a 83 3e 8c 1e 63 be 54 09 0b 3e 8f 21 9e bd
       0.25655064 -0.22179621 0.13577777 -0.077212445
000200 d2 9d 0a 3f 0c 2f 9a 3e e6 60 e9 bd 14 e4 26 3d
       0.54147065 0.3011402 -0.11395435 0.040744856
000210 bb 15 15 bd 0d 78 8e be f1 13 60 3d 37 4f a6 be
       -0.036397677 -0.27825966 0.054706518 -0.3248231
000220 33 3a 0d be 81 14 1a be f7 33 4d be f5 c0 2c 3e
       -0.13791732 -0.15046884 -0.20039354 0.16870482
000230 d8 d8 a0 3c f7 2b c8 bc ee d1 6d 3e ca dc 13 3e
       0.01963465 -0.024435027 0.23224613 0.14439693
000240 6e 67 50 3e 5a 85 1b bd e7 f8 33 3e 37 2c 0c 3c
       0.20351955 -0.03796897 0.17575417 0.0085554635
000250 e4 5a 85 be 63 a9 cf bd e9 e4 e4 3d 94 35 78 3d
       -0.26045907 -0.1013973 0.11176474 0.06059797
000260 08 f5 fd 3d e5 8f 1a be 73 aa d9 3d 4d e6 14 be
       0.124002516 -0.15093954 0.10628214 -0.14540978
000270 9c 28 1b be 3c 95 86 bd 3f 3e 71 be d8 7f dd bd
       -0.1515221 -0.06571433 -0.23558901 -0.108154
000280 4b fb 74 3e 71 cb ad be 83 98 0a bd e7 37 a0 3b
       0.23923986 -0.33944276 -0.033836853 0.0048894766
000290 ea d3 c9 bd 2a f4 f7 bc b1 55 be 3d f4 9d 98 3e
       -0.098548725 -0.030267794 0.09293688 0.2980801
0002a0 8c 57 9f be 5c 38 c1 3d 90 ed de 3d e1 34 bb bd
       -0.3112148 0.09434578 0.10885155 -0.09140945
0002b0 e8 5a 0d bd 78 4b 99 3e 34 39 8c 3e 31 1d 27 3e
       -0.034510523 0.2994039 0.27387393 0.1631973
0002c0 ac 49 cd bd c2 4a 49 3e ff 37 02 be 8a 19 d5 bd
       -0.100238174 0.19657424 -0.12716673 -0.10405262
0002d0 76 8c 28 bd 1c 14 bb 3d 40 84 82 3d ea 21 ba 3e
       -0.04114958 0.09134695 0.06372881 0.36354
0002e0 7d 9b 68 3e d0 bb 15 3e 0d fc 0a be 42 6f 83 be
       0.22715564 0.14622426 -0.13572712 -0.2567082
0002f0 9d fd 19 be 7c cd 0c bf 60 2e 15 3e b5 2d 6d be
       -0.15038152 -0.55001044 0.14568472 -0.23161967
000300 fc 91 f5 3d db 45 c8 bd 1c 67 70 bc d2 0e 3f 3e
       0.11990735 -0.09778949 -0.014673021 0.18657997
000310 a1 e7 2f 3e 8d 6d 41 be bc f9 e2 3d 0a 3e 26 be
       0.17178203 -0.18889447 0.11082789 -0.16234604
000320 5e e8 1e 3e 0f cb 11 3e fe 9a 5f 3e 3c af 72 3d
       0.15518329 0.14237617 0.21836469 0.059249148
000330 39 c3 b6 3e 5d 74 9e bc ce f2 a4 bd 07 1e 18 3e
       0.35695818 -0.019342596 -0.08054124 0.14855205
000340 77 4d ee bd 66 e6 8e bd c2 99 87 bd 10 c8 ea bd
       -0.11635869 -0.06977539 -0.06621124 -0.1146394
000350 e3 f2 f3 bd 4b 85 f8 3c dc 5f d7 bd 04 42 8f bc
       -0.11911561 0.030336997 -0.105163306 -0.017487533
000360 9b 4b a8 be f6 c8 92 3d 1b 8b de 3d 5c d1 05 be
       -0.32870182 0.071672365 0.10866376 -0.13068146
000370 58 d5 a5 bd 08 80 65 3e 7b dd 1d be b6 41 97 3b
       -0.08097333 0.22412121 -0.1541652 0.0046159877
000380 5e 5a cd 3d e2 d7 3f be d5 24 34 bd 8f 33 a1 bd
       0.10027002 -0.18734697 -0.04398044 -0.07871162
000390 86 31 07 3e dc 6c 12 3d c5 7f 30 bd 85 1d 97 3e
       0.13202485 0.035748348 -0.0430906 0.2951471
0003a0 24 1b 8d 3a 3c 66 48 3e 44 2e 5b be 0d c4 43 3e
       0.0010765535 0.1957025 -0.21404368 0.19117756
0003b0 c7 b4 ed 3d 7e ca 32 be 1d 60 8a be 3c 28 c6 bd
       0.11606746 -0.17460057 -0.27026454 -0.09675643
0003c0 17 4c 19 be 2a 03 a4 3d 83 53 23 bd 7c a7 11 bd
       -0.14970432 0.08008416 -0.039874565 -0.035560116
0003d0 b5 a3 13 3e 5b 70 37 be 8b d8 8c be 2b d1 b0 be
       0.14417918 -0.17913954 -0.2750896 -0.34534582
0003e0 16 b0 80 be f2 b4 a8 bd 5b 64 d7 bd 88 3f 42 bc
       -0.25134343 -0.082376376 -0.10517188 -0.011855967
0003f0 51 68 a6 bd 47 bd e3 3c 1e a7 ad be ed e7 27 bd
       -0.081253655 0.027800215 -0.33916563 -0.040992666

critic.0.bias f4 [64]
000000 2d ea 32 3e 82 64 16 3e 46 f8 6b 3e cd 76 b9 3e
       0.17472143 0.14686778 0.23043928 0.3622345
000010 44 d7 ff bd 72 d9 64 3e ec 91 1f be 01 5c 01 be
       -0.124922305 0.22348574 -0.15583009 -0.12632753
000020 1b 75 77 3d be ae d0 bd d7 3d 51 3e 67 49 1f be
       0.060414415 -0.101895794 0.20433746 -0.15555345
000030 06 a7 91 3e fa 83 cd bd ab 8e 0e bc 27 0a 47 3c
       0.2844774 -0.10034938 -0.008701007 0.012148417
000040 40 c8 b1 bc 25 ed 5b 3e 98 42 c2 bd 62 65 8e be
       -0.021701932 0.21477182 -0.09485358 -0.27811724
000050 71 fc 4b be 1f 8c 1e 3d 68 98 f0 3c 10 61 0e 3e
       -0.19920518 0.03870785 0.029369548 0.13904214
000060 d4 4c b4 3d 23 98 ce 3d 86 94 0a bd 99 60 d4 bd
       0.08803716 0.100876115 -0.03383305 -0.10369987
000070 a4 4c ba bd 91 fe fb 3e 2a cb e3 bd cf 46 6b 3d
       -0.09096649 0.49217656 -0.11122735 0.057440575
000080 1d 34 5c be fd 9c 63 3e 21 f1 88 3e 80 4a 66 bd
       -0.21504255 0.22227855 0.26746467 -0.056223392
000090 a5 06 a6 be 00 9c 86 bd fe 27 e8 3d f0 37 80 3d
       -0.32426944 -0.065727234 0.11335753 0.06260669
0000a0 05 a1 a3 3d 36 8c 36 3e 49 d5 92 3d eb be 87 3e
       0.079896964 0.17826924 0.07169587 0.26512846
0000b0 17 ee 4e 3e 14 3b ef bd 7a 9e ae bd a3 ca 32 3e
       0.20208012 -0.1168119 -0.08526321 0.17460112
0000c0 46 0e 7a bd d2 e9 19 3e e0 18 b4 bc 31 15 94 3e
       -0.06104877 0.15030602 -0.021984518 0.28922418
0000d0 92 44 31 be 2a e6 a7 3e c9 57 0c be db 31 97 be
       -0.17311314 0.3279279 -0.13705362 -0.29530224
0000e0 01 16 83 bd 82 3b 44 be 8c bd b3 bd ea fe 66 bc
       -0.06400681 -0.19163325 -0.087763876 -0.014098862
0000f0 68 f0 6b 3e 97 e1 cc bd f0 d4 24 3e 07 cf 24 3e
       0.23040926 -0.10003965 0.16096854 0.160946

critic.2.weight f4 [64, 64]
000000 68 a1 85 bc 42 29 c3 3c 36 fe ab 3d 5d 3c 71 be
       -0.016312316 0.023823384 0.08398096 -0.23558183
000010 5e 9c 0d 3e 13 14 d0 bc cb a9 2e be 30 66 f9 bd
       0.1382918 -0.025400197 -0.17056958 -0.12177694
000020 52 31 a0 3d ce f9 64 3d 12 39 a4 3e e1 fb 12 bc
       0.07821907 0.055902295 0.3207479 -0.008971185
000030 05 36 57 3e 59 e7 21 3e 6b 5a 77 be c7 e4 7a be
       0.210167 0.15810908 -0.24155585 -0.24501334
000040 88 40 20 3e f2 86 4e bd 80 ed 30 be f9 59 9d 3d
       0.15649617 -0.050421663 -0.17278099 0.076831765
000050 a6 bb d3 3d 72 2a 23 3e 24 ad 28 3e e1 63 39 3e
       0.103385255 0.1593416 0.16472298 0.18104507
000060 04 ea 66 bd 9b 2b e3 3e 3a ca 85 be 94 e5 a6 be
       -0.05637552 0.44369206 -0.2613085 -0.3259703
000070 7b 1b 06 3d b1 c8 b0 3e b5 4a 56 bd d9 35 3c be
       0.03274105 0.34528115 -0.05231734 -0.18379916
000080 0d 9e 0c bd e2 24 32 be 8f b6 0c be 9b 07 fc bc
       -0.034330416 -0.17396882 -0.13741516 -0.030765345
000090 8c a9 07 3f 41 1d 0c be ef 61 86 be a4 e6 1a be
       0.52993083 -0.13683034 -0.26246592 -0.15127045
0000a0 87 42 2e 3e ea 81 e9 3d 19 10 33 3e cb c8 23 be
       0.17017566 0.11401732 0.1748661 -0.15994565
0000b0 fd 99 0d be 62 54 1a be be 4e 09 be 49 e5 aa bd
       -0.13828273 -0.15071252 -0.13408944 -0.08344514
0000c0 cd 78 f5 3c 74 99 9b bd 40 56 46 3e 32 00 d6 3e
       0.029964829 -0.07597628 0.1936884 0.41797024
0000d0 d4 38 06 3e 04 4c 11 3e 87 9c 38 be 00 8e 54 bd
       0.13107616 0.14189154 -0.1802846 -0.051893234
0000e0 f4 6a 08 3f 79 2f 60 be fe 59 b7 be bc dd 97 3e
       0.532882 -0.2189311 -0.35810846 0.29661357
0000f0 c6 5a 2b bd bb 66 0d 3e 38 f9 71 be f6 11 b9 bd
       -0.041834615 0.1380872 -0.23630226 -0.09036629
000100 88 73 43 be 48 8f e8 bc 2b 8a b7 3d b2 0a 45 3e
       -0.1908704 -0.028388634 0.089619 0.19242361
000110 d0 cc 81 be 54 9f 4b 3d b1 5a 1d 3e 06 69 7a be
       -0.25351572 0.049712494 0.15366627 -0.24454126
000120 fc 48 68 3e ec fb 39 bd 2e 12 96 be ba a3 b6 3c
       0.22684091 -0.045406267 -0.29310745 0.022294868
000130 12 19 bd bd 4d 85 9a 3d 59 d5 d4 3c 31 78 0e 3e
       -0.092332974 0.07544956 0.025980638 0.13913037
000140 7b 45 4e bd a5 9b 39 be bf 14 85 bc eb 7b 8f 3d
       -0.05035923 -0.1812578 -0.016245244 0.07006057
000150 76 64 f7 3e d4 a2 05 be 10 35 bb bb 51 96 19 be
       0.48318833 -0.13050395 -0.0057131127 -0.14998747
000160 1a ff 95 be bb 5c 08 be 01 21 32 be 89 d9 8a 3b
       -0.2929619 -0.13316624 -0.17395402 0.004237358
000170 14 90 a8 3d 2b 58 89 bd 06 2d a6 be c1 1d 9f 3e
       0.08230606 -0.0670627 -0.32456225 0.31077388
000180 7b c0 4e 3d 5e 0b 1e 3e 80 0f fc ba 4d ab df 3d
       0.050476532 0.15434024 -0.0019230694 0.10921345
000190 6b 96 a7 3e 7d 8b b4 3d 32 0e ea bd 00 47 03 3e
       0.32731947 0.08815668 -0.11428489 0.12820053
0001a0 c9 87 03 bf b1 ea 7e 3d 92 88 ae 3e 44 f5 56 3e
       -0.51379067 0.062235538 0.3408857 0.20991999
0001b0 3f 53 38 3e 84 f6 26 be 19 56 63 3e 19 d5 bc 3e
       0.18000506 -0.16304976 0.22200812 0.3688133
0001c0 06 d2 bb 3d 58 21 f6 3c e3 7d a0 bc af d3 4e 3e
       0.09170918 0.030045196 -0.019591277 0.20197938
0001d0 0e 22 09 3e 71 72 28 3e 0e 32 ee bd 76 e7 07 3e
       0.13391897 0.16449906 -0.11630641 0.13271889
0001e0 eb 77 1b be ed 6a 5f bd 1b 0c e0 bd b3 7d 83 3d
       -0.15182464 -0.05454533 -0.10939809 0.064204596
0001f0 6f 95 85 bd 66 07 4b 3c 09 ca 6e 3e 06 34 87 3d
       -0.06522643 0.012391901 0.23319258 0.066017196
000200 98 bd 0c be 21 c1 d7 bd 73 2f 83 be a2 a5 00 be
       -0.137442 -0.10534883 -0.25622138 -0.12563184
000210 35 a5 5b 3e 5f f8 c6 3d 60 5a 98 be 44 4e 06 3d
       0.2144974 0.09715342 -0.2975645 0.032789484
000220 d5 f0 ca 3d 21 18 e6 3d 5e ca 3e be c2 46 00 3f
       0.09909216 0.11235071 -0.18631884 0.5010797
000230 f3 dd b5 3e b5 5e 85 bd 9b be 3d 3e 4f fd b7 3d
       0.35520896 -0.065122046 0.18529741 0.08983862
000240 93 c6 7a be 10 e3 b0 3e 0f f4 65 bc a7 c1 92 bd
       -0.24489813 0.34548235 -0.014035239 -0.071658425
000250 70 3f 0d be c8 f1 d9 3e 6f 61 37 3c d7 0b 0d bd
       -0.1379373 0.42567277 0.011192664 -0.03443512
000260 e8 55 48 3d 07 92 1d 3d 66 23 9c bd 88 5e 6e be
       0.04891005 0.03846934 -0.07623939 -0.23278248
000270 5b f4 25 be f9 9a 4e 3e c2 34 86 3d 1a 07 b5 3e
       -0.16206495 0.20176305 0.065530315 0.3535698
000280 0b f0 7d 3e 62 b0 e4 bc d8 77 9c be 81 f8 e0 be
       0.247986 -0.027916137 -0.30560184 -0.43939593
000290 9d 79 2d 3b ca 6c 51 3e 5a 48 ea 3d 18 7f de 3d
       0.0026470192 0.20451656 0.11439581 0.10864085
0002a0 99 a8 98 bd 34 38 b7 bc 8f 27 6d be 0a ee df bc
       -0.074540325 -0.022365667 -0.23159622 -0.027335186
0002b0 53 2a 9f bd 44 31 a4 be a9 18 2d bd 53 8f 3b be
       -0.077717446 -0.32068837 -0.042259846 -0.18316393
0002c0 d2 d0 99 bd e6 18 ca be b3 04 f2 3d b5 dd 9a bd
       -0.075105324 -0.3947212 0.118173026 -0.075618185
0002d0 86 b7 da bc 53 80 7a be e6 26 78 bd 4d cc 99 bd
       -0.026698839 -0.24463014 -0.06058397 -0.075096704
0002e0 6c 62 2d 3d 1b 51 1a 3e fc 70 8f be 5e cc bb 3d
       0.04233019 0.15070002 -0.28015888 0.09169839
0002f0 47 5c 1b 3e fe 91 29 bc c5 2c a0 3e f7 de 90 bd
       0.1517192 -0.010349749 0.31284156 -0.07073777
000300 06 47 42 bb b0 c3 86 be df 58 9a 3e 46 8a 9d 3c
       -0.0029644384 -0.26321173 0.30145928 0.019230973
000310 00 6f 1d be 07 49 0c 3e b3 30 9d bd 5a 2a 62 be
       -0.15374374 0.13699733 -0.07675304 -0.22086468
000320 f5 3a 3b 3e 88 31 37 be ec 7c 02 be 29 55 21 3b
       0.18284209 -0.17889988 -0.12742966 0.002461741
000330 32 fc f3 bd e2 39 e9 bc f8 46 3c bc 85 6e a8 3e
       -0.11913337 -0.028469983 -0.01149153 0.3289682
000340 c3 09 53 3e c8 f8 87 be e8 90 3a 3e 45 4d 96 3e
       0.20609193 -0.26556993 0.1821934 0.29355827
000350 37 3b c0 be e5 8d c7 3d 40 dc 9f bd ef 12 36 3e
       -0.37545177 0.09743861 -0.07805681 0.1778066
000360 fb 28 55 be e5 96 8e bd 6f 9b 1f be 58 5d 96 3d
       -0.20816414 -0.069623746 -0.15586637 0.07342023
000370 00 df 94 3e 59 5f 85 3d 8c 35 27 be a4 39 4b be
       0.29076385 0.06512327 -0.1632902 -0.19846207
000380 a1 45 15 be 3d 65 10 be 79 9e 58 be 45 84 3e bd
       -0.14577343 -0.1410112 -0.21154203 -0.04651286
000390 c8 01 19 be 00 a6 87 be 4d ec c2 bd 48 51 e9 bd
       -0.14942086 -0.26493835 -0.09517727 -0.11392456
0003a0 e8 5f 71 be 53 0f 23 3e f1 ec e0 bd 47 ac a9 3d
       -0.23571742 0.15923814 -0.10982693 0.082848124
0003b0 c0 5d 99 be 56 00 b8 3e 77 a0 5d bd b6 7c 1e be
       -0.29954338 0.35937756 -0.05410811 -0.15477261
0003c0 74 40 68 bd 4d 34 a9 bd 83 66 88 bd 0e f5 4a bd
       -0.056702092 -0.08261929 -0.066601776 -0.04955011
0003d0 32 34 b3 3d f7 b9 f8 be 90 b7 b0 be 90 a6 00 be
       0.0875019 -0.4857938 -0.34515047 -0.12563539
0003e0 ea a1 e9 bd 1f 02 e8 be 28 96 28 3d 05 ad 84 bd
       -0.11407836 -0.45314118 0.041158825 -0.06478313
0003f0 f2 4a f0 3e 8c d0 75 bd 1e 3d 33 bd 9f 30 38 be
       0.4693218 -0.06001334 -0.043759458 -0.17987297

critic.2.bias f4 [64]
000000 3c a1 8f 3e ca b6 fb bc c9 34 2d bd 63 af bd ba
       0.280527 -0.030726809 -0.042286668 -0.0014471825
000010 67 3f 19 be e6 d2 15 be d2 97 03 3e 7d 1d 63 bd
       -0.14965592 -0.14631233 0.12850884 -0.055448044
000020 7f b0 73 bc 64 81 18 3e ee 38 80 bb f8 5e 16 3e
       -0.014873623 0.14893109 -0.0039130365 0.14684665
000030 33 4a 1c 3c 16 f9 a6 3c 28 cb f5 3d 55 a7 1a be
       0.009539175 0.020382445 0.120016396 -0.15102895
000040 00 40 52 3e 6c bb 9c 3d 3a 3f c4 3d 7f 12 b7 bc
       0.20532227 0.076529354 0.09582372 -0.022347687
000050 33 c1 e8 3d 74 ec 7f bb 2d 11 59 bc c8 07 5a 3d
       0.11364975 -0.003905085 -0.013248724 0.053230077
000060 90 1c 98 3d 7f e3 83 be e9 0e f9 bd 92 ec a6 3d
       0.07427323 -0.25759503 -0.12161047 0.08150591
000070 78 ba 08 be af bf 46 3d d7 98 04 be 2c 9e 41 3d
       -0.13352382 0.048522647 -0.12948929 0.047269985
000080 4e 91 71 3e 76 89 a9 be 5d f9 bc bd 6b 9d fe 3c
       0.23590586 -0.33112687 -0.0922725 0.031080922
000090 db 03 c1 3d 15 e6 c0 bd b6 0d 8b 3e 5a 80 93 3b
       0.094245635 -0.09418885 0.27158898 0.0045013847
0000a0 1e ed 24 be 29 af 36 be 25 55 6c 3d c0 73 97 bd
       -0.16106078 -0.17840256 0.057698388 -0.073951244
0000b0 9c 5f 05 3e 76 85 cd bd 0d 6c 07 ba 62 56 93 be
       0.13024753 -0.10035221 -0.0005165942 -0.28776842
0000c0 2a 24 56 bd 74 50 8b be a4 03 c3 bd ea b2 81 3d
       -0.052280582 -0.27209818 -0.09522179 0.06332953
0000d0 69 47 10 be 3a 6e 46 be 2f a8 11 ba 1e 43 26 bd
       -0.14089741 -0.19377986 -0.00055563723 -0.04059135
0000e0 f4 5d ec 3d 64 fd 02 be 01 4c 9e 3d 0e fb 67 3d
       0.11541358 -0.12791973 0.0772934 0.05663591
0000f0 e7 1f ee bb 4a 02 97 3e bb 27 49 3e c0 de 31 3e
       -0.0072669866 0.29493934 0.19644062 0.17370129

critic.4.weight f4 [1, 64]
000000 48 5c 1f 3e c2 73 5c be a2 34 27 3e 0d cf 0f 3e
       0.15562546 -0.21528533 0.16328672 0.14043827
000010 d6 4f 51 be 10 68 46 be 60 52 e8 3d 9f ac 90 be
       -0.20440611 -0.19375634 0.11343837 -0.282567
000020 ea 8b cc bd 59 5e 40 3d 64 9f c6 3d 30 47 79 3e
       -0.09987624 0.046964977 0.0969837 0.24343562
000030 a9 c9 8a 3e bc 81 da 3d aa 4a bd 3d 2c 8d 7f be
       0.2710698 0.10669276 0.09242757 -0.24956197
000040 1b 30 48 3e c8 4a 57 3e 9e 92 a4 3d aa e0 ce bd
       0.19549601 0.2102462 0.080357775 -0.10101445
000050 a6 fc fe 3d bc 8d 60 3c 05 bc 2b 3b 73 0f 3d 3e
       0.124505326 0.013705667 0.0026204598 0.18462925
000060 7a f9 14 3e ae 3e 51 be e5 2f e1 bd d3 19 15 3e
       0.14548293 -0.20434067 -0.10995463 0.14560632
000070 2e a2 89 bd 32 34 11 be c7 f1 0b be 37 26 50 3e
       -0.067203864 -0.14180067 -0.1366645 0.20327078
000080 85 68 13 3e 2b 96 7d be a4 0c 68 be e5 f7 39 3e
       0.1439534 -0.24764316 -0.22661072 0.1816097
000090 d7 e5 77 3e 6d 48 1c be 71 d3 d3 3d 36 b2 9e 3e
       0.2420877 -0.15262003 0.103430636 0.3099534
0000a0 70 07 8c be 3e 52 e9 bd b7 d8 e4 bd 2a 4f 17 be
       -0.27349424 -0.113926396 -0.111741476 -0.14776292
0000b0 12 7e 22 3e fc a7 34 be 54 c0 9f 3e 51 93 4e be
       0.15868405 -0.17642206 0.31201422 -0.20173384
0000c0 44 54 31 be 16 17 1b be b0 37 1f be 79 16 91 3e
       -0.17317301 -0.15145525 -0.15548587 0.28337458
0000d0 58 cc 8a 3d dd b0 09 be e4 57 04 3e b2 57 99 bd
       0.06777257 -0.13446374 0.12924153 -0.0748743
0000e0 ae 86 52 3e 3b 7d 1c 3e a9 6a 58 3e 02 08 52 3e
       0.20559189 0.15282147 0.21134438 0.20510867
0000f0 14 18 2d 3e 81 be fa 3d b4 34 4e 3e 11 08 25 3e
       0.16903716 0.12243367 0.20137292 0.16116358

actor_mean.0.weight f4 [64, 72]
000000 7f 06 d4 3d 04 db 8b be 7e 0e 79 bd 38 af 50 3e
       0.103528015 -0.27315533 -0.060804836 0.2037934
000010 cf 65 d5 bc 54 61 27 be f5 14 44 be 60 63 17 be
       -0.026049523 -0.16345721 -0.1914862 -0.14784002
000020 d7 56 46 be fc df ca 3d 56 4a 82 3e 46 e3 1a 3e
       -0.19369064 0.09906003 0.2544734 0.1512576
000030 2c f8 86 3c 50 d3 8a 3d da d7 aa bd 71 19 5f be
       0.01647576 0.06778586 -0.08341952 -0.21787049
000040 6a 40 af 3e 77 a5 68 be 18 5c 51 3e ab 40 fb bd
       0.34228832 -0.2271937 0.20445287 -0.12268194
000050 f0 12 07 3e 60 be 12 bd ed 67 dc 3d 9c 41 9c 3d
       0.13190818 -0.035826087 0.1076201 0.076297015
000060 e9 81 2b be c6 da b4 be 9b c7 dd bb 6d e0 f1 3d
       -0.16748776 -0.3532316 -0.0067681796 0.11810384
000070 2d 4d 6d 3e 6a d1 1f 3e e1 78 63 be 7e f3 99 be
       0.23173971 0.15607229 -0.2221408 -0.30068582
000080 c3 4d 02 be 12 56 f4 3d 0f 4b 81 3e f4 91 2e be
       -0.12724976 0.11930479 0.25252578 -0.17047864
000090 96 9c b9 3c f3 98 5d be c1 e5 02 be 31 f2 f9 bc
       0.022657674 -0.21640377 -0.12782957 -0.030510994
0000a0 d5 33 d0 3d 1b 34 4a 3c 6c 6c 80 bd 47 40 33 3e
       0.10166136 0.0123415245 -0.0627068 0.17504989
0000b0 91 02 b2 3e 1d d3 bc bd bf 11 80 3e 91 86 db bd
       0.34767583 -0.09219954 0.2501354 -0.10719026
0000c0 5a 68 14 3e 40 5a 65 3e e5 6e ae 3d a7 5d 92 3d
       0.14492932 0.22397709 0.08517245 0.07146769
0000d0 da f2 33 be ab be 5b bd 77 35 b6 bd 2c 34 ad 3e
       -0.1757311 -0.053648632 -0.08896916 0.33828866
0000e0 d8 8a cd 3a 8c a0 64 bd 14 7b 69 bd 6f 49 11 3e
       0.0015681637 -0.055817172 -0.057002142 0.14188169
0000f0 c8 b0 e2 bd df 0e 7f bc 01 e4 2b 3e 73 0f 05 3e
       -0.110688746 -0.01556751 0.16786195 0.12994175
000100 8d 04 8e 3e 54 3a ca be 57 f5 65 be 04 ea ab bd
       0.27737847 -0.39497626 -0.22456871 -0.08394244
000110 d4 28 b8 3c 3b 9f b8 3c 30 82 ec bd 1b 88 b9 3c
       0.022480406 0.022536865 -0.11548269 0.022647908
000120 e3 f9 e0 3e b1 4c 26 bd 43 de 01 be 3c 54 e2 be
       0.43940648 -0.040600482 -0.12682442 -0.4420489
000130 56 db 89 3e e6 7e 01 3d 7b fd 54 be a3 fa 0b be
       0.26925153 0.03161516 -0.2079982 -0.13669829
000140 f6 06 b6 3d fe 97 70 3d bc 49 e3 3d 6b da dc bd
       0.088880464 0.0587387 0.11098048 -0.107838474
000150 4c 4d 82 bd 76 36 0b 3d 30 94 94 3d f7 ee 73 bc
       -0.063623995 0.033987485 0.07254827 -0.014888517
000160 26 10 1e 3e 46 57 91 bd ed 51 24 3e 55 de 07 3e
       0.15435848 -0.07096724 0.16046877 0.13268407
000170 d3 59 0e bd d2 64 3b 3e 0b 28 3b 3e 28 49 cb bd
       -0.03475363 0.18300179 0.18276994 -0.09926063
000180 46 3f 1f be f1 26 5a 3e 9b 40 95 be 3c a9 6e 3d
       -0.1555148 0.21303917 -0.29150853 0.058266863
000190 21 3d a7 bd 9e 03 28 be 17 c4 88 3e 51 ec c3 3c
       -0.08165956 -0.1640763 0.26712105 0.023916395
0001a0 6a b4 07 be 05 4f 9f be fd 81 a4 3d b9 e9 f4 bc
       -0.13252416 -0.31114975 0.08032606 -0.029896604
0001b0 1a 82 c8 3e f5 4e a1 3d 93 8c 24 3e ad 7a 91 3d
       0.3916176 0.07876388 0.1606925 0.07103477
0001c0 9e 9c 89 3e 9c 7c 32 bd 5b 6b 2b bc 45 0f 2e be
       0.26877302 -0.043575868 -0.010462607 -0.16998012
0001d0 1d 05 ba 3d 26 a2 d5 3d b9 76 a8 3e 30 18 53 be
       0.090830065 0.10431318 0.32903078 -0.20614696
0001e0 e7 d8 a4 bc af 2c d8 3d 73 72 e3 3d c8 a3 59 bb
       -0.020122958 0.10555398 0.11105814 -0.0033209193
0001f0 72 fe 57 be 96 81 9e be a8 b3 cf bc bb e2 4e be
       -0.21093157 -0.3095824 -0.025354221 -0.20203678
000200 4d 5b b1 3d 93 40 1f 3d 95 6a 11 3e f5 94 6d 3e
       0.08659992 0.038879942 0.14200814 0.23201354
000210 82 ec bb bd e1 97 1b 3e 17 2c d8 3c bf 6e ab bd
       -0.0917597 0.15194656 0.026388211 -0.083707325
000220 a4 22 b2 be 08 08 61 bd ac 13 8c bd c0 b4 07 be
       -0.34792054 -0.0549393 -0.068396896 -0.13252544
000230 5c c5 95 bc ab 73 10 be 47 fb 8c 3d 62 0d 22 3d
       -0.018282585 -0.14106624 0.06883865 0.039563544
000240 c7 33 07 3e 02 4d 19 bd 18 fe 4c 3e 4a 84 85 3e
       0.13203345 -0.037426956 0.20018804 0.2607749
000250 6e 37 0f bb d1 c6 88 3e e4 f6 cc 3d 13 ab e6 bd
       -0.0021853107 0.26714185 0.10008028 -0.112630986
000260 9c 1a 66 bd c7 3f 0b 3d a4 8e 39 bb 16 4b 68 be
       -0.05617772 0.03399637 -0.002831378 -0.22684893
000270 47 c9 a7 3d b9 10 f5 3c 60 65 7e 3e b7 7b 32 3e
       0.081926875 0.0299152 0.24843359 0.17430006
000280 90 20 5f 3d 3b 99 50 be 7d 1b 12 be 4d 42 af 3d
       0.054474413 -0.20370953 -0.14268298 0.08557568
000290 4d 4c 4f 3c 1d e8 19 be 79 80 fd bd 2e 88 76 be
       0.012652469 -0.1502995 -0.1237802 -0.24075386
0002a0 82 21 73 3e 17 a1 42 3e 4a 5e 77 be ce a5 cc 3b
       0.23743251 0.19006763 -0.24157062 0.0062453514
0002b0 24 6e 62 3d bf 77 d8 bd 00 89 34 3e 49 83 b3 be
       0.05528082 -0.10569715 0.17630386 -0.350611
0002c0 a3 08 0e 3e 88 f2 88 3b 1e c5 2a be 8b 64 bf bd
       0.13870482 0.0041793026 -0.16676757 -0.09345349
0002d0 c7 12 7e 3d 4b 00 89 bd a4 83 a5 bd 17 96 88 3e
       0.062029626 -0.06689509 -0.08081749 0.2667701
0002e0 e9 87 19 3d 14 34 c0 3c e2 60 ef 3e 78 cb f6 3d
       0.03748313 0.023462333 0.46753603 0.12050527
0002f0 a2 d5 41 3d ee 80 7c bc 28 11 c2 3e 85 9f 81 3c
       0.047322877 -0.015411599 0.37903714 0.015823135
000300 60 93 0b be 53 5a 76 3e 4d eb 79 3c 79 f8 dc bd
       -0.13630438 0.24057893 0.015253854 -0.1078958
000310 59 cf 27 bd a1 87 fa 3d 0c 5e 4a 3e ef 52 08 3e
       -0.040969227 0.122329004 0.19762439 0.13312887
000320 75 ab 64 be a9 66 30 3e 94 b6 3c be e1 02 ec bc
       -0.2233103 0.17226662 -0.18429023 -0.028809967
000330 20 7d 90 3d 4f 68 d3 3d 3b 4f e2 bd 32 6f ae 3e
       0.07055116 0.1032263 -0.11050268 0.3406921
000340 33 b1 a3 38 a3 15 28 3e 58 34 b1 be 1d 4d 9f 3e
       7.8054516e-05 0.16414504 -0.34610248 0.3111352
000350 b5 ac e5 3d e1 05 e2 bc 4a b7 8d 3e dd df 66 3e
       0.11214582 -0.027590694 0.276789 0.22546335
000360 51 c2 f5 bd 19 af d8 3e 47 a5 68 3e 1a d9 be 3c
       -0.119999535 0.4232109 0.22719298 0.023296881
000370 93 89 e0 bd 8b 12 56 bd 8a 65 88 be 83 7a 1d bd
       -0.1096374 -0.052263778 -0.26639968 -0.038446914
000380 31 dd 31 3c 43 0b 93 3e 29 40 aa 3d 49 ae c1 bb
       0.010855959 0.2871953 0.08313019 -0.005910669
000390 74 7e f4 3c 79 a0 80 3e 90 54 36 3e 36 41 f0 3d
       0.029845454 0.2512243 0.17805696 0.11731188
0003a0 1c b6 2d be 37 5d 0b bf 02 0d 3c 3d ca d4 1d bd
       -0.16964 -0.5443911 0.045910843 -0.03853301
0003b0 fc e0 b2 bd ee 72 61 3e 34 5e b2 3d 93 b6 16 3e
       -0.087343186 0.22016498 0.08709374 0.14718084
0003c0 12 5a 7c bd 72 26 10 3d 31 60 cf bd ae 81 80 bd
       -0.061609335 0.035192914 -0.10125769 -0.062747344
0003d0 6f 54 db bd 4d 2d b3 3d 5a 61 03 3e f0 2d ae bc
       -0.10709464 0.08748875 0.12830105 -0.02126214
0003e0 31 af 0f bd c1 6e 4f 3e bb dd 9b 3e 61 95 82 3d
       -0.035079185 0.20257093 0.30442604 0.06376148
0003f0 5c ff 2c 3e 40 f0 34 be 37 2e e6 3c d8 f3 c5 3d
       0.16894287 -0.17669773 0.028098209 0.0966565

actor_mean.0.bias f4 [64]
000000 d8 0d 7d 3b 58 1c b0 3c c0 0b 0b b9 f0 1a 4c 3d
       0.0038612988 0.02149789 -0.0001326045 0.049830377
000010 16 4d 2b bd a2 88 04 3c 82 9e fa 3c a6 0f 87 3d
       -0.04182156 0.008089216 0.03059316 0.065947816
000020 ca da d6 bc 0b 9c b0 bb 9d 61 2f 3c 65 54 cc 3c
       -0.026227374 -0.0053896955 0.010704425 0.024942586
000030 d2 3b d6 3c e2 1a 7b 3c 36 e3 bf bc 95 f3 4b 3d
       0.026151571 0.015326234 -0.023423772 0.049792845
000040 88 c2 c0 3c 64 8e e6 3a 32 c9 c9 3c af 63 69 bd
       0.02353026 0.0017590043 0.02463207 -0.05697983
000050 fb 9c cb b8 d4 91 39 3c 67 9a a7 bc 86 b8 c1 3c
       -9.709034e-05 0.011326272 -0.020459367 0.023647558
000060 e1 d4 7e bb 01 33 3e bc 09 c6 4b bc 17 ba b9 3b
       -0.003888421 -0.01160884 -0.012437352 0.0056679356
000070 dd d0 90 bd a3 00 6b 3b cd b8 53 3c c3 c7 f6 bc
       -0.070710875 0.0035858534 0.012922478 -0.03012455
000080 e0 49 f0 bc fa a1 d0 bc 32 8d 2c bd 0f 06 07 bd
       -0.029332101 -0.025467861 -0.04212684 -0.032964762
000090 6d 93 de 3c 4b 8b a3 3c f1 aa 68 bc 0f b0 75 bd
       0.027169907 0.019963881 -0.014200912 -0.059982356
0000a0 d4 d1 42 3d 57 13 0e 3d 29 5d 7a 3d 4c 79 f6 3c
       0.04756339 0.034686413 0.061124 0.030087136
0000b0 ca 4a 8e 3c 9f a5 b4 3b 52 0c 8f 3b 1c 0b 63 bd
       0.017369647 0.0055129076 0.0043654824 -0.055430517
0000c0 43 f9 06 3c 18 13 1a bd f5 90 96 3a b6 0a 6c 3c
       0.00823814 -0.037615865 0.0011487292 0.014406851
0000d0 d5 07 0a bc 77 91 80 bd 29 09 93 bc fd 7a 2c bc
       -0.008424719 -0.06277745 -0.017948704 -0.01052737
0000e0 5f 6e 4f bd db e6 fb 3b a5 a0 f6 bc e9 54 67 bc
       -0.050642367 0.007687432 -0.030105898 -0.014119365
0000f0 a1 a5 72 3c 22 01 78 3c f9 47 cc b9 ba e2 b2 bc
       0.014809997 0.015136989 -0.00038963536 -0.021836627

actor_mean.2.weight f4 [64, 64]
000000 42 29 9d be 16 33 22 3e fb 8a 65 be 1d 21 76 3e
       -0.3069554 0.158398 -0.22416298 0.24036069
000010 23 72 16 be 3a cb 6c bd 20 fc 8e be 43 47 50 3d
       -0.14691977 -0.057811 -0.2792673 0.05084921
000020 40 90 32 3e 17 20 38 3e 85 16 a9 3e c6 4d 50 be
       0.1743784 0.17980991 0.33024994 -0.20342168
000030 d0 2e be 3d dc a2 cc bd 68 80 1b be 68 09 64 be
       0.092862725 -0.099920005 -0.15185702 -0.22269213
000040 ad 82 6c 3c 9d e4 08 bf 82 d7 79 be 11 4a 73 bb
       0.014435452 -0.53473836 -0.24398616 -0.0037123004
000050 9f ed 9a bc 10 5e 9a 3e 87 be f3 bd 5a 12 24 3d
       -0.018912135 0.3014989 -0.119015746 0.040056564
000060 b9 b2 3f be 66 2a 52 3e 9f 06 a2 bd 04 f9 d7 bc
       -0.18720521 0.20523986 -0.07911419 -0.026363857
000070 f4 ac 2a 3c 8b 43 01 3e 87 62 0a bd 7a 1e 9c bd
       0.010417212 0.12623422 -0.03378537 -0.076230004
000080 97 1f 54 3e 04 f0 b1 be 1d f7 b5 3e a2 04 f9 3d
       0.20715176 -0.3475343 0.35540095 0.12159087
000090 0c 5c 84 bd a0 af 8f bb 22 e9 fb 3d 69 49 07 be
       -0.06462869 -0.00438495 0.12300326 -0.13211598
0000a0 95 65 1e be ba 09 9a 3c a9 6f 0f 3e 39 64 2b 3d
       -0.15468438 0.018803466 0.14007439 0.041843627
0000b0 9d dd 62 bc e8 98 20 3e 17 3a 34 be c6 9f b3 3d
       -0.013846782 0.15683329 -0.17600285 0.08770709
0000c0 20 94 ad bd 0d fa 2e 3e d0 05 6c be a0 3d 19 bd
       -0.08475518 0.17087574 -0.23049092 -0.037412286
0000d0 41 2e ed bd ef dd d6 bd 4e e4 7d 3e f0 2e d1 3d
       -0.11581088 -0.10491549 0.24794123 0.10214031
0000e0 38 c8 33 bd 25 14 d9 3e b6 ec 65 bc c4 6c 8a 3e
       -0.043892115 0.42398182 -0.014033487 0.27036107
0000f0 dc 3f 26 3d d3 b0 a1 3e 79 f2 8c bd 19 9b 15 3d
       0.040588245 0.3158022 -0.068821855 0.036524866
000100 ee 1c b3 bd e7 0c d5 3d 2f 59 29 3e a8 d8 bc be
       -0.08745752 0.104028516 0.16537927 -0.36884046
000110 d1 a9 af be 97 98 ef bd 4a 67 4e 3e 1d 38 aa bd
       -0.34309247 -0.11699026 0.20156589 -0.08311484
000120 11 e1 a6 3d 3b 12 02 bc ef 81 b4 3d 38 ac 87 3e
       0.08148397 -0.007938917 0.08813845 0.2649858
000130 7c 7f a1 bd c5 94 03 3e 49 28 84 3c da 6d 0c 3e
       -0.07885644 0.1284972 0.01613249 0.1371378
000140 b7 31 31 be 3d 2f e5 bd 51 05 81 3e 33 d5 22 3e
       -0.17304121 -0.111906506 0.2519937 0.15901642
000150 9c ad 5a bd 07 02 57 3e 89 20 92 3e b9 2c 1e be
       -0.053388223 0.20996867 0.28540447 -0.15446748
000160 5e 58 98 be de ef c2 be 23 45 17 3e 7f 7a c8 3e
       -0.2975492 -0.3807363 0.14772467 0.39155957
000170 5f cb 5d 3e 47 15 8e bd b0 2b bd be b6 1e c0 bd
       0.21659611 -0.06937652 -0.36947393 -0.09380858
000180 12 dc b6 3d aa c9 5e 3d 2c df 30 3e d1 82 dc bc
       0.08928694 0.05439154 0.17272633 -0.026917847
000190 28 30 87 3d b0 07 1b be a2 3f ab bd a6 71 3e 3e
       0.06600982 -0.15139651 -0.08361746 0.18598041
0001a0 c6 e8 81 bd e7 0d 47 3e 29 74 25 3d 68 62 bb bd
       -0.06343226 0.19438897 0.040393982 -0.09149629
0001b0 d3 9a 5a 3e 62 33 57 3d 90 34 02 3e d6 c2 10 be
       0.21348123 0.052539237 0.12715364 -0.14136824
0001c0 ca b6 d5 3d 91 fe 61 3e 35 ba 76 bd 04 89 6e 3e
       0.10435255 0.22069766 -0.060236175 0.23294455
0001d0 db 6a 15 3e d4 9b c2 bb 09 d9 9b be 02 92 9b be
       0.14591543 -0.0059389863 -0.30439022 -0.30384833
0001e0 65 48 8f 3c 23 52 f2 3e 7f 37 bc bc 57 13 36 3e
       0.017490575 0.4732829 -0.022975681 0.17780815
0001f0 40 34 4d be b5 95 77 bd bd 02 8c 3d 3a 87 9f bd
       -0.20039463 -0.060445506 0.0683646 -0.07789464
000200 ac cc 5d 3e 4c bd 5f 3c 02 98 d8 3d d4 e4 aa 3c
       0.21660107 0.013655972 0.10575868 0.020861067
000210 81 e0 36 bd e6 4f 3f 3e c4 c3 a8 3d 53 03 fd 3d
       -0.044647697 0.18682823 0.08240464 0.1235415
000220 30 d1 a2 be 46 7f 84 3e 1d c1 47 3e 1b 06 4d be
       -0.31800222 0.25878352 0.1950726 -0.2002186
000230 1b d6 81 be 36 e2 82 3e e3 66 ad 3e 69 8d 25 3e
       -0.25358662 0.2556321 0.3386756 0.16167225
000240 aa e1 bb bd 71 7e 28 3d bd 9f e7 3d f3 70 ae 3e
       -0.091739014 0.04113621 0.113097645 0.34070548
000250 4c 3d e6 bd 6c bb 8a 3c 9d 16 bf bd d6 52 d0 3d
       -0.1124216 0.016935073 -0.09330485 0.1017205
000260 a4 45 4d 3d 64 72 2b be df 9b 56 be 4f 7e 90 be
       0.050115243 -0.16742855 -0.20957898 -0.28221366
000270 f7 d8 ae bd de da c3 be 60 da 8a be 15 7f b8 bd
       -0.085374765 -0.3825292 -0.27119732 -0.09008614
000280 13 d9 ed 3d 4c 0b bd be 88 ab 09 3d e8 28 e2 3d
       0.11613669 -0.3692268 0.03361085 0.110429585
000290 9b 0f 44 3e 0b 50 ba bb f8 eb cb be 62 1d a7 be
       0.19146578 -0.0056858114 -0.39828467 -0.32639605
0002a0 19 3d 1b be 3e 0f 34 3e 2b 8b 2b bb 36 a3 15 3d
       -0.15160026 0.1758394 -0.002617548 0.036532603
0002b0 a6 e8 6b bd ef 35 c0 bc 16 09 8b bd ea 74 76 be
       -0.057594918 -0.023463218 -0.067888424 -0.24068037
0002c0 b8 2a 1e 3e ba 20 3e 3e 0f 12 7d bc d8 36 45 be
       0.15445983 0.18567172 -0.0154462 -0.19259202
0002d0 85 e2 58 be 2e c4 8a 3e 48 2d 86 3d 4c 36 cc 3d
       -0.2118016 0.27102798 0.065516055 0.09971294
0002e0 9a 4a 56 3e 87 ed 87 bd 81 1d 6e 3d cb 71 e3 bd
       0.20926896 -0.066371016 0.058133606 -0.11105689
0002f0 ca b5 19 3e a7 30 51 3e c5 c5 ff bd db 81 47 3e
       0.15010753 0.20428716 -0.124888934 0.1948313
000300 28 a0 9d bc 61 b0 53 3e 87 fe 32 3e c5 ad 82 3e
       -0.019241408 0.20672752 0.17479907 0.255232
000310 5c 5c c5 3e 1c 66 47 3e 30 f1 aa 3d 2f e9 6e 3e
       0.38547027 0.19472545 0.08346784 0.2333114
000320 a8 da 01 3d c6 ad 87 3e 76 fd 26 be 89 f0 87 3d
       0.031702667 0.26499766 -0.16307625 0.06637675
000330 d7 ab da 3d a6 bd d0 3e 53 ab 00 3e ea 09 9d 3d
       0.10677307 0.4076969 0.12565355 0.076679066
000340 02 24 07 be 7f a1 19 be 4a a6 76 bd 06 ce 99 be
       -0.1319733 -0.15003012 -0.06021718 -0.30039996
000350 52 c6 4b 3e dc 6f 5c be 30 d6 ea 3d f6 87 ac 3d
       0.19899872 -0.21527046 0.11466634 0.0842437
000360 a7 5e 46 bd 80 92 37 be a4 2e 85 ba 77 73 07 3d
       -0.04843011 -0.17926979 -0.0010160995 0.0330691
000370 9b 1c 43 be 8a c5 02 3e 1d 12 3c be c8 0c 2e be
       -0.19053881 0.12770668 -0.18366285 -0.16997063
000380 81 1e 8c 3d d8 01 9e 3d e2 bc 9f 3e 2a 55 83 3e
       0.06841756 0.077151954 0.31198794 0.25650913
000390 b4 07 7a 3e 30 09 51 3e 78 07 86 be 59 3f c8 3d
       0.24417001 0.20413661 -0.26177573 0.097777076
0003a0 68 78 25 3d 6f 24 8b be 8e c0 99 3e 40 88 a3 be
       0.04039803 -0.27176234 0.3002972 -0.31939888
0003b0 d4 d3 da bd c6 72 4a 3d e4 7e 8e bd 81 66 23 3d
       -0.10684934 0.049425863 -0.06957796 0.039892677
0003c0 4c 98 e7 bd 35 ac e5 bd a0 f9 69 3d 17 80 69 3e
       -0.11308345 -0.112144865 0.057122827 0.22802769
0003d0 d1 1c 33 3d 96 54 2e be 0f 71 a8 3b 9d 66 83 3e
       0.043728653 -0.17024454 0.0051404308 0.25664225
0003e0 45 e0 18 bd 95 b4 98 bd d8 07 ce 3d d4 20 d1 3e
       -0.037323255 -0.07456318 0.1006009 0.40845358
0003f0 ea fc 76 be 5d 85 00 bc b2 a4 4f 3e f9 58 26 be
       -0.24119917 -0.007844296 0.2027767 -0.16244878

actor_mean.2.bias f4 [64]
000000 e5 ad a6 bb 42 0e b0 3c 92 2a 20 3d 79 ff 08 3d
       -0.005086648 0.021491174 0.0391031 0.033446763
000010 bd eb 16 3d 85 4b 75 bc 8a ec de 3b 63 b3 a5 bc
       0.03684591 -0.014971619 0.0068031 -0.02022714
000020 34 81 e6 3b 94 09 f9 bc 32 1f cb bb e3 a8 00 3d
       0.007034445 -0.030400075 -0.006198787 0.031411063
000030 7a 34 03 3d e0 51 ac 3a 58 e3 d6 ba 29 3d 63 bd
       0.032032467 0.0013146959 -0.0016394658 -0.05547825
000040 8f e7 3d bd 72 ed dc 3c 69 22 01 3d 93 5f d3 3b
       -0.04636341 0.026968691 0.031526957 0.0064506023
000050 cb 0c 53 3c e3 0f d1 bc f1 cf 38 3c e4 ec 6c 3b
       0.012881468 -0.02552027 0.011280046 0.003615194
000060 1e 87 a1 3c 64 1f f8 bc ee ee 1c 3c ed be 4f bd
       0.01971775 -0.030288406 0.00957845 -0.05071919
000070 c3 52 b1 bc 43 a1 bf bc 6a ec fb 3c 96 d0 e0 3c
       -0.02164591 -0.023392325 0.03075238 0.027443212
000080 37 c1 29 bd 96 ce 56 3c 1b 1a 85 bc 87 14 98 bc
       -0.04144403 0.013110777 -0.0162478 -0.018564476
000090 cf a9 d8 bc 31 ea 41 bc f5 6e 90 bc d8 7d 74 39
       -0.026448159 -0.011835621 -0.017631033 0.00023316534
0000a0 d6 c9 9e 3b 0f 35 f2 3c 0b b8 83 3d 6b 57 27 3c
       0.004845838 0.029566316 0.06431588 0.010213713
0000b0 1e 02 f9 3b c5 b7 d7 3c 27 f5 49 bd 4b 0a 9a bc
       0.0075991293 0.026332745 -0.04930606 -0.018803736
0000c0 36 57 a8 bc 56 4f 3a b9 37 05 86 3c 0f 2d e5 bc
       -0.020549398 -0.00017767897 0.016359909 -0.027975587
0000d0 62 cc 71 3c c7 c8 04 bd 97 9f 93 bc 33 69 37 3a
       0.014758201 -0.03241804 -0.018020434 0.0006996572
0000e0 a4 fb c2 bb f9 1e da bc ca 0f 49 3d 79 56 93 3c
       -0.005950408 -0.026626097 0.049087323 0.01798557
0000f0 9c de 10 bc 2e 86 1d bc 3d 14 51 bc 21 9a bf 3c
       -0.008842137 -0.00961451 -0.012761173 0.023388924

actor_mean.4.weight f4 [15, 64]
000000 c1 f8 4b 3d 31 99 21 bd 80 62 f0 bc 28 d1 57 3c
       0.049797777 -0.039452735 -0.029343843 0.013172425
000010 0c d5 37 3d 2f 71 cd 3c 41 c6 ff 3c 55 59 d2 3b
       0.04488091 0.025078384 0.031222465 0.0064193406
000020 3c 6e d4 bc 43 b4 d5 bd de 12 25 bc fe 79 9c 3c
       -0.02593147 -0.10434773 -0.010075299 0.01910114
000030 7c 69 81 3d 6a f2 b6 bc 3f 45 97 bc 88 c1 1b bd
       0.06318948 -0.022332389 -0.018465636 -0.038026363
000040 ee c8 43 bb f9 17 c3 3a 96 22 b0 bc a7 a7 14 bb
       -0.0029874402 0.0014884464 -0.021500867 -0.0022682936
000050 a4 6a c6 3d 9d 71 79 3d 9c d3 21 3d 56 83 98 bc
       0.09688309 0.060899366 0.039508447 -0.018617313
000060 74 9c b7 bc 95 a0 b3 bc a5 74 5f bd ed 36 a4 3c
       -0.02241347 -0.021927157 -0.0545546 0.020045722
000070 f4 be 47 bd 3d 97 de 3c d7 63 e9 3c 52 ff d2 bc
       -0.04876609 0.027171725 0.02848999 -0.025756512
000080 cd 28 be bc 6f ad 5e bc 4e ed 9e bd 52 51 32 3c
       -0.023212815 -0.0135911545 -0.07760106 0.010883646
000090 58 7a f3 bc 35 55 06 3d b9 00 a0 3c d0 59 07 bc
       -0.029721424 0.032796104 0.019531595 -0.008261159
0000a0 a4 c0 97 bd c6 be 41 3d cf 6a d4 3b 24 bc 95 bd
       -0.0740979 0.047301076 0.006482459 -0.073112756
0000b0 4b fe a6 bd ab a2 13 3d ed 22 62 bc 01 4f c0 3b
       -0.08153971 0.036043804 -0.013802272 0.005868793
0000c0 cf dd 62 bc 7c 4e 62 bb 3c bb 92 ba 60 9f 34 bc
       -0.013846829 -0.0034531644 -0.0011194716 -0.011024326
0000d0 69 b2 8c bc 01 21 8d 3c f1 a4 5e bd 60 af 20 3d
       -0.017174916 0.017227652 -0.05435652 0.03922975
0000e0 2f 5f 2f bd fb cc 35 3d 1a 69 7f 3d 9d 61 e8 3c
       -0.042815384 0.044384938 0.062356092 0.028366858
0000f0 cc 83 63 bc 1b 93 93 3b 54 41 f1 bc f3 e2 3b 3c
       -0.013886403 0.0045036203 -0.029450096 0.011467683
000100 c3 dc 30 bc 9d dd b4 bb 94 b5 0a bc f0 8a 97 bc
       -0.010794821 -0.0055195824 -0.008466143 -0.018498868
000110 cb 12 63 bb 98 98 75 3c b8 98 1d bc 89 bf 98 bc
       -0.0034648653 0.0149899945 -0.0096189305 -0.018646019
000120 47 c9 3b 3d 10 32 e4 3c ed a8 f0 bc e4 45 cf 3b
       0.04584625 0.027855903 -0.029377425 0.0063254703
000130 5f 24 86 3c e8 53 5a 3a 65 2f a5 bc dd ba 5e bc
       0.016374765 0.0008328543 -0.020164201 -0.013594356
000140 ea 14 71 3b 81 85 5e bd 42 0e 17 bb a3 53 c5 bb
       0.0036786147 -0.054326538 -0.002304927 -0.006021933
000150 54 68 d5 bb dd bb 09 bc 7b e0 47 3d 12 8f 3f 3b
       -0.006512681 -0.0084066065 0.048798066 0.0029229564
000160 bd 93 dc bb 75 0e 53 bd 9a 7c 0d 3c 07 c4 49 bd
       -0.006731479 -0.05152746 0.008635664 -0.049259212
000170 ea de 7d b9 2c f7 67 bd ee 73 f9 3c f2 e7 82 bd
       -0.00024211002 -0.056632206 0.030450787 -0.06391896
000180 ae ed 0d bc c8 e0 0f bd 5f 72 53 3d 65 4b 5a bd
       -0.008662624 -0.035126477 0.051622745 -0.053294558
000190 b5 5a 3c 3c 8d 9b 36 3c 07 09 86 bd 8e 00 be bc
       0.011496236 0.011145485 -0.065446906 -0.023193624
0001a0 1a 79 a3 3b 71 de 8e bc 10 a1 f9 bc d2 f3 18 3d
       0.0049888017 -0.017440053 -0.030472308 0.0373419
0001b0 72 46 eb bc 10 70 ca 3c 0d fa 87 bc f0 93 ed 3b
       -0.028720114 0.024711639 -0.016598726 0.0072503015
0001c0 7b 1f 35 3d e7 67 79 bc 58 70 f2 bc 62 ba 86 bd
       0.044219475 -0.015222526 -0.029594585 -0.065785185
0001d0 d3 9f b8 3b 7b 39 bf 3b a4 6e df 3c 36 38 a5 3c
       0.005634287 0.0058357096 0.027274437 0.020168405
0001e0 f1 e1 80 3d 44 b4 4f bc b2 7d 98 3b 7c 90 8d 3b
       0.06293095 -0.012677256 0.004653656 0.0043202024
0001f0 9a b4 f0 3b c2 c7 84 ba de 1d 1e bd 81 92 37 bd
       0.007345748 -0.0010130333 -0.038602702 -0.04481745
000200 29 0c b7 3b c1 7d 4f bd 38 2e 9f bb bf c8 2b 3d
       0.0055861664 -0.050657038 -0.0048578046 0.041939493
000210 9d cb 2e 3c fe 4c 45 3d 46 ff ee bc ca b9 49 bd
       0.010668662 0.04816913 -0.029174458 -0.049249448
000220 5e 15 08 3b 8b a6 9f bc 40 49 c3 bc 31 ee a5 bc
       0.002076469 -0.019488594 -0.02383864 -0.02025518
000230 4d 96 b6 bc c5 cf d7 3c 1b 2f 4b 3d 2a 98 04 bd
       -0.022288466 0.02634419 0.04960547 -0.032371677
000240 03 f7 40 3d c1 23 b7 bc f9 6d f7 bb d9 9b dd bc
       0.04711057 -0.022355916 -0.0075509516 -0.027051853
000250 b9 13 2e 3d 9d e9 12 bd 4b 85 c5 3b 07 fa a5 bc
       0.042499278 -0.035867322 0.0060278527 -0.020260824
000260 e6 a2 08 3c eb ed c0 3b 2a 13 34 3d ef 11 00 bd
       0.008339619 0.005887737 0.04396359 -0.031267103
000270 83 f8 9b 3d 16 13 0b bd 19 e4 f4 3c 22 76 b1 bc
       0.07615759 -0.03395375 0.029893922 -0.021662775
000280 95 fd 92 3c 6e 90 b9 3b 78 ad 02 3d 68 0d 07 3d
       0.017943183 0.0056629693 0.031903714 0.03297177
000290 8a 27 31 3d 27 0f b7 bc 71 57 85 3b c7 eb 17 bd
       0.043250598 -0.022346092 0.0040692617 -0.03709009
0002a0 f3 ae 90 bc 9c 48 82 3c 43 58 ce 3b 4f 18 b4 bd
       -0.017661547 0.015903763 0.0062971427 -0.08793699
0002b0 a2 00 e9 ba 29 0b 1f 3b 0c d8 9f bb 21 cc ad 3b
       -0.0017776678 0.0024268127 -0.0048780497 0.005303875
0002c0 08 7a 0a 3d ce aa a3 bd a6 35 dc 3b 71 f5 dc 3b
       0.033807784 -0.07991563 0.0067202626 0.006743126
0002d0 54 ff 46 bb ea e3 d0 39 f1 1b b9 bc 5b e8 8a 3c
       -0.003036459 0.0003984266 -0.022596331 0.016956499
0002e0 b2 4d e2 3c d6 4c 8c 3c b8 9a 40 bc b5 cf f6 3c
       0.027624939 0.017126482 -0.011755638 0.03012834
0002f0 3f e1 31 3d 7e 63 97 3c 81 64 c3 39 8a 7f 19 3d
       0.043427702 0.018480059 0.0003726818 0.037475146
000300 21 32 55 3b 84 c6 5f b9 33 a9 64 3d a1 a4 4b 3d
       0.00325311 -0.0002134089 0.055825423 0.04971755
000310 ec 99 32 3d 4d a9 ff 3c ca 0c 22 3b a4 bc 06 bd
       0.043603823 0.031208659 0.002472686 -0.032894745
000320 b6 c6 ec 3c 9d df 36 3d 35 49 37 bc d0 42 6f 3c
       0.028903347 0.044646848 -0.0111868875 0.014603332
000330 99 39 fe 3c 1c 27 8e 3d e7 27 ff bc 58 01 8a bc
       0.031033324 0.06941053 -0.031146957 -0.016846344
000340 56 8e 80 3d 5f 89 39 3c 68 ce f4 bc a5 47 54 3c
       0.062771484 0.011324256 -0.029883578 0.0129565345
000350 78 fa 24 bb ff d2 7d 3c c9 61 44 3b 9e b3 1f 3d
       -0.0025173705 0.0154922 0.002996551 0.038989656
000360 f3 1e 17 3d 63 9c 48 bd a3 c3 85 bc ff 6d 8e 3d
       0.03689475 -0.048977267 -0.016328638 0.06954574
000370 69 b8 f0 3c 6b c7 33 3c 08 82 9d bc d2 4e 33 bc
       0.029384809 0.010972838 -0.019227043 -0.010944085
000380 40 90 8a bb ab 16 05 3c 52 a9 fa bc c6 11 2f 3d
       -0.0042286217 0.00812308 -0.030598316 0.04274156
000390 09 8a 87 3c 34 ea 3a bd 52 d9 92 bc 33 8a 8d 3c
       0.016545312 -0.04563351 -0.017925892 0.017277813
0003a0 88 96 b1 3b 61 a1 48 3d 27 88 d5 3c b7 ca 83 bc
       0.005419556 0.048982028 0.026065899 -0.016087873
0003b0 c5 c0 10 3c aa 0a 1a bd 23 83 03 bd 08 58 59 bd
       0.008835022 -0.037607826 -0.032107484 -0.05306247
0003c0 17 0d 12 3d b9 08 46 bd 36 b8 0d bc 52 e1 2b 3d
       0.035657015 -0.048348162 -0.008649876 0.04196293
0003d0 b4 7e d8 bc 82 22 6c 39 72 6c f2 bc d3 23 e5 bc
       -0.026427604 0.00022519569 -0.029592726 -0.027971184
0003e0 7e b6 3c bc 01 be d4 bc 5d cc ad 3c c9 f5 95 3c
       -0.011518119 -0.025969507 0.021215612 0.018305676
0003f0 e3 1d 84 3d d5 34 4d 3d f0 b7 2e 3d 32 d4 ca 39
       0.06451013 0.050099213 0.042655885 0.0003868654

actor_mean.4.bias f4 [15]
000000 4a f1 60 3d 60 f5 ac ba d6 32 57 3c d4 3c f0 3b
       0.05491761 -0.0013195686 0.013134679 0.00733147
000010 1a 69 77 bc 77 60 88 bc 03 ff 03 3b f9 13 e0 3c
       -0.015100742 -0.01664756 0.0020141013 0.027353274
000020 3c 24 f5 3b 9b 44 9f 3c ce 45 54 bc 0d 57 48 3c
       0.007481126 0.019441893 -0.012956096 0.012227786
000030 91 ee 60 3c b0 ad 6d 3c 47 be 05 3c
       0.013728754 0.014506742 0.008163041

exp_avg f4 [1, 15]
000000 d1 92 89 3b c8 2f 3a 3c 2b b2 37 3b df c8 13 3c
       0.00419841 0.011363931 0.002802978 0.009020059
000010 ba 32 c7 bb 33 ad 6a ba f1 f5 4d 3c 8a e6 5b ba
       -0.006079045 -0.00089522003 0.012570844 -0.000838854
000020 96 1e d2 3b 35 db f8 3b 70 16 3b 3c bf 34 ae 3a
       0.0064123375 0.007594491 0.011418924 0.0013290866
000030 1d d2 8a 3b c4 8e 6a 3a 63 c4 34 3b
       0.0042364732 0.00089476653 0.0027582876

exp_avg_sq f4 [1, 15]
000000 88 02 53 3a a2 db 6f 3a 9f 26 58 3a 58 8e 55 3a
       0.00080493884 0.00091498543 0.0008245501 0.0008146516
000010 5a d1 51 3a 95 e5 57 3a 42 9a 62 3a 6f b0 48 3a
       0.0008003913 0.00082358095 0.0008644202 0.0007655685
000020 b9 25 6b 3a 70 cb 6f 3a f5 48 53 3a d4 c4 66 3a
       0.00089701597 0.0009147441 0.00080598827 0.00088031334
000030 3d fa 60 3a 16 e7 63 3a c9 18 6c 3a
       0.000858221 0.0008693797 0.0009006379
