rl_planner/min_lidar_30_model.pt (torch, 228989 bytes, 30 tensors)

critic.0.weight f4 [64, 72]
00000000: 1ef0 6e3c 1e25 17be 9130 253d f2f3 2a3e
00000010: c77f b9bd fed9 9a3d 04e3 e83d 2ca5 e73d
00000020: c0ea e2bd 91fb 9d3d 6ac8 a73c a33a b53d
00000030: 6823 b33e e66a ea3d fa16 2f3d 89c7 c73c
00000040: 537a fcbd 2770 81bc 1ff3 dc3c 3039 523c
00000050: e736 79be 2221 46be 198f 07bd 4fcb 50bd
00000060: a5ee 0fbd eb5d ddbe c01d d8be 0800 c3be
00000070: ea66 5ebe 88c1 1abe d56a 25be b34f 6b3e
00000080: bc21 803d 1191 2e3d a266 ddbd 131d a0bd
00000090: 32f1 a73a bea1 acbe 2701 25bd afd2 65be
000000a0: df55 fa3d 80df 4fbe 224a 1ebd 013a 983c
000000b0: a02a 8dbe 6d01 9c3d 1938 1dbe be6e c03b
000000c0: 107d 50be 76eb 393e 8e41 efbe 8eba be3d
000000d0: 4eb9 abbd 6e2a 48bd 79d5 e2bb a379 c2bc
000000e0: 7f2a 94be 378f 363d 4bfd 813d ffc7 36be
000000f0: 83d2 1a3e bdc8 c3bd 728f cabe 950f 8cbe
00000100: b2df 623c 0123 8a3d 7cab 21bb 20e9 64bd
00000110: ed11 2ebe c417 7ebc 4711 6cbd 4c89 383e
00000120: d73a bd3e 942d a7bd 3c6c 7d3d 1db9 3ebe
00000130: 70c2 043e 64cc e0bd 82bb d43b dc64 4dbe
00000140: a028 21be 148e 37be 1836 63bc 5078 48be
00000150: 6f4a 69be 9acf 843d 7055 6d3d f1c4 8d3e
00000160: bad7 c13d 0cfa 6a3c 240f d33d 11eb 1fbe
00000170: 5d8e 2abe d5da bdbe 17a6 34be da20 4abe
00000180: 9702 c0bd 880e 9dbc 508b 82be 3647 6c3e
00000190: 164f c7bd cb8f 5b3e f686 e9bd 3a8d 173e
000001a0: 7146 623e 5d94 f8bd 196a 323e 837a 48bc
000001b0: 9fa2 883e 3dd0 2e3e 18aa d1bd 7b8e 32be
000001c0: 7ec2 7bbd c044 c83d 7c8a 173d e06e 97bd
000001d0: d6b4 9dbd 2266 12be aa41 1ebe e455 bdbe
000001e0: 2eee 4dbe ac66 1a3d ea26 2dbe 5e55 663d
000001f0: 91ed 9b3e a83a 38be ab5d 3a3e e3b7 b1bd
00000200: 13f7 fa3e 34dd a33e 343d 0dbe f1da 313d
00000210: c287 cebd 2c23 7fbe 64e7 833c de85 bebe
00000220: 31b0 49be 99ca 7dbe 0e00 91be 9d49 a03d
00000230: 4800 9dbd 5611 b8bd fc8a 423e ca26 fb3d
00000240: b579 403e 07e1 2ebd 4e8f 3f3e 6b10 ba3a
00000250: 50be 2bbe 8e7d 7ebc ea70 3f3e d615 e23d
00000260: 9d33 5c3e cb00 95bd 40fd 133e 4b4d 7cbd
00000270: deea c4bd f81b 83bd 41a3 82be b85c cdbd
00000280: 5f69 963e 541e 8abe 1e0e a73c e977 a73d
00000290: 3e85 38bd e220 4bbd 76b7 903d 084b 9f3e
000002a0: 7ad9 99be f361 073e 157c 223e 9b99 eebc
000002b0: d1ed 4b3d 77d0 a63e 1321 a33e 394e 7f3e
000002c0: c616 103d 5c93 963e 6e49 79bd ebec 99bd
000002d0: 78a1 9cbd 2b9a 953d 57cf 9c3d d57a b43e
000002e0: 303a 3c3e 3df4 073e c7f4 eabd 4c5b f1bd
000002f0: ea4f dabd a241 f8be c833 8d3e 8994 38be
00000300: d92f 263e 84a1 903c 8f81 4b3d 9d3a 7b3e
00000310: a46b 713e 4bd8 06be 0c60 303e 5ad0 f3bd
00000320: 3e5d 0e3e fd6a 323e f7fd 483e 9a73 b13c
00000330: 7717 b43e 6dbe 5e3d d754 90bc e031 a33d
00000340: b314 cbbd d7fc a6bc 4237 03bd ea24 8fbd
00000350: 8fd2 e0bd 0d2e 2d3d bffa 07be 4e78 8cbd
00000360: d195 91be cba9 0f3e ecaf 2b3e 95f5 afbd
00000370: de8f 46bd 455c 553e b482 b5bd 6fd6 d23c
00000380: 4958 d73d 3ec4 14be 3e9c c03b 6dc8 84bd
00000390: 95bb 0d3e 79c8 d83c 2f3f 1abd 10d8 953e
000003a0: 9b0b 813d b3db 5e3e 542c 4dbe 2fd8 603e
000003b0: 96b6 8e3d 9e59 6abe 261c 94be aac9 1ebe
000003c0: 6ebe 6abe 3367 d33d 6f02 01bd 21e8 b3bd
000003d0: f8ae d03d b08e 51be b057 aabe dde2 9ebe
000003e0: bc87 e2bc 2965 7e3d 31d1 813b 1b8a 003d
000003f0: 6836 493c f126 cb3d 1e61 81be 13a0 753d
0.014583616 -0.14760253 0.04032952 0.1669462 -0.09057575 0.0756111 0.11371425 0.11310801
-0.11079931 0.07713998 0.020481307 0.08849075 0.3498795 0.114461705 0.04274652 0.024387138
-0.12328019 -0.015800549 0.026971398 0.012831017 -0.2433735 -0.19348577 -0.033095453 -0.05097514
-0.0351397 -0.43235716 -0.42210197 -0.3808596 -0.21718946 -0.15112889 -0.16154034 0.22979622
0.06256434 0.042618815 -0.10810591 -0.078180455 0.0012812971 -0.3371715 -0.040284302 -0.2244365
0.1222341 -0.20300102 -0.038644917 0.018582346 -0.27571583 0.076174594 -0.15353431 0.0058725765
-0.20360208 0.18156227 -0.46729702 0.09312926 -0.083849534 -0.04886859 -0.0069224206 -0.023739642
-0.28938672 0.044570174 0.0634714 -0.1784973 0.15119366 -0.09559772 -0.39562565 -0.27355638
0.013847278 0.06744958 -0.0024668863 -0.055886388 -0.16999026 -0.015508596 -0.057633664 0.18021125
0.36958954 -0.0816299 0.0618708 -0.18625303 0.12964797 -0.109764844 0.0064920792 -0.20058006
-0.15738153 -0.17925292 -0.013867877 -0.19577146 -0.227823 0.06484909 0.057942808 0.27689317
0.09464975 0.014341842 0.10305622 -0.15617014 -0.1665587 -0.37081018 -0.17641483 -0.19739094
-0.09375494 -0.019171968 -0.25496912 0.2307404 -0.09731881 0.21441571 -0.11402695 0.14799967
0.22097184 -0.12137673 0.17423286 -0.01223624 0.2668657 0.17071624 -0.10237521 -0.17437164
-0.06146478 0.09778738 0.036997303 -0.073941946 -0.07700507 -0.14296773 -0.15454736 -0.36979592
-0.2011039 0.03769557 -0.16909376 0.056233756 0.30454686 -0.17991126 0.18199794 -0.08677652
0.49016628 0.32004702 -0.13792878 0.04342169 -0.100844875 -0.24915761 0.016101547 -0.37211508
-0.19696118 -0.24784316 -0.28320354 0.078265406 -0.07666069 -0.089876816 0.18998331 0.12263258
0.18796428 -0.04269507 0.1870701 0.0014195567 -0.16771817 -0.015532864 0.18695417 0.11039321
0.21504064 -0.07275542 0.14452076 -0.06159715 -0.0961511 -0.06401819 -0.25515178 -0.1002745
0.29377267 -0.26976264 0.020392474 0.08177168 -0.045048945 -0.049591906 0.070662424 0.31111932
-0.30048734 0.13220958 0.15867646 -0.02912598 0.049787346 0.3258092 0.3186117 0.24932183
0.03517797 0.294093 -0.060861044 -0.07515892 -0.07647985 0.07304796 0.076567344 0.35249963
0.18381572 0.13276763 -0.11472469 -0.117849916 -0.10659774 -0.48487574 0.27578568 -0.18025412
0.1622919 0.017655142 0.049684104 0.24534078 0.23576218 -0.13168447 0.17224139 -0.11904974
0.13902757 0.17423625 0.1962813 0.021661568 0.35174152 0.054380823 -0.01761858 0.07968497
-0.099160574 -0.020384235 -0.03203512 -0.06989463 -0.10977661 0.042280246 -0.13279246 -0.06858884
-0.28434613 0.14029615 0.16766328 -0.08591763 -0.048477046 0.2083598 -0.0886282 0.025737016
0.10514886 -0.14527985 0.0058780005 -0.06483541 0.13841088 0.02646278 -0.037657913 0.29266405
0.06301042 0.21763496 -0.20036441 0.21957467 0.06968419 -0.22885749 -0.28927726 -0.15506616
-0.22924206 0.10322418 -0.03149646 -0.087845095 0.10189623 -0.20464587 -0.33270025 -0.31032458
-0.027652614 0.062108193 0.003961705 0.031381708 0.012281038 0.09919537 -0.25269407 0.05996711

critic.0.bias f4 [64]
00000000: 4ec9 753e b494 893e 592d ca3e 4a3d a83e
00000010: 682d 69be 3e0b 503e bf87 043f 3db4 63be
00000020: 9978 9ebd a345 3a3e 9257 a73e a099 88be
00000030: 90e5 8c3e 0ae0 b83e b6ee 333d d284 133d
00000040: de53 8f3e ce4b 783e 8c6f a3be a449 9fbe
00000050: 7347 4c3e 23be 843e 6a2f 7dbe 7677 4abe
00000060: d655 c83e dc80 923e a72d 48be 44a8 d33e
00000070: 6bab 80be 915c bc3e 2730 b93e b0be 003e
00000080: c216 77be 28c6 6b3d e8cf 883e d781 e8bd
00000090: 2f8e c6be 35a6 4ebe 581f c3be b9da 7cbe
000000a0: 7f3b d1be 5f9a a03d 0099 fb3d 1e49 203e
000000b0: 2eb4 a83e 90a6 4e3e d126 9cbd c9d7 ed3e
000000c0: 627b cbbd 32a1 cbbc 94d1 533e 7a9d 713e
000000d0: 5a08 70be f9c9 503e 6f6c 0dbd b522 83be
000000e0: ccf7 043e 65cd b1be 03f9 83be 2501 c9be
000000f0: 9ef9 483e 7c0a 92be f650 c43e 528b 703e
0.24002573 0.26871264 0.39487723 0.3285926 -0.22771227 0.20316789 0.5176963 -0.22236724
-0.07737846 0.18190627 0.32683998 -0.26679707 0.27518892 0.36108428 0.043928824 0.03601534
0.27993673 0.24247667 -0.3192104 -0.3111087 0.1994913 0.25926313 -0.24725118 -0.19772133
0.39127988 0.28613937 -0.19548665 0.41339314 -0.25130782 0.36789373 0.3616955 0.12572742
-0.24129775 0.057562023 0.2672112 -0.1135289 -0.38780352 -0.2018059 -0.3810985 -0.24692811
-0.40865704 0.07841944 0.12285042 0.15652892 0.32949966 0.20180726 -0.07624591 0.46453694
-0.09935643 -0.024857137 0.20685416 0.23595229 -0.23440686 0.20389546 -0.03452724 -0.25612417
0.12985152 -0.34727016 -0.25775918 -0.39258686 0.19626471 -0.28523624 0.38343018 0.23490646

critic.2.weight f4 [64, 64]
00000000: 9534 b8bd d156 273e a015 2abc 7e68 45be
00000010: e83b ee3d 4747 febc 3add f4bd 29f9 e6bc
00000020: c969 2abc 7d63 2ebe d10f ae3e 906f 973d
00000030: 8bbe 023d 1790 4e3e ce3e 58be e82f aebd
00000040: f07f e33b 946f 6dbd 50eb 29be 1278 b03c
00000050: 4ba4 7e3c c0b5 023e 09a3 1a3e e5f1 a63d
00000060: 24b1 99bd c703 ba3e eb6b 30be 817a 56be
00000070: e2e7 963c 3a8a 7c3e ca0a a2bd 1380 cabd
00000080: 1185 0e3e 81ac 2ebe 1356 b8bd bebf d9bc
00000090: 72a5 1a3f 036e a9bd 976c 8d3b 8134 e13b
000000a0: d6c2 ef3d 8039 e23d 5ed7 a1bd 41c7 17be
000000b0: af5e bcbd a6ca 2abe 5390 553d b3b0 13be
000000c0: 2716 163e 477e cfbb 95d8 e13d bf3e 103f
000000d0: 9c0f 4b3e 0e71 033d 1c0a 92be 6ea9 84bd
000000e0: bbfc d33e e1cb 6abe c0bb 27be c030 6d3e
000000f0: 0189 b4bd 866d 993d 400f bbbd 72b2 9dbd
00000100: 8047 2ebe 2281 8ebb a7e3 ca3d 96c4 4a3e
00000110: bd5a 7cbe 00bc e93d 3e6e 033e cba6 79be
00000120: 17da 4a3e 82ed cebc f094 aebe 6448 163d
00000130: 291e abbd 42d5 953c 1a7f 3e3d 71aa de3d
00000140: 6c9d afbd bfc9 32be 2496 19bd fc8c ce3d
00000150: 4842 e33e 23d9 28be 90c1 933b b152 8abd
00000160: bd61 b9be 10a2 36be 105a febd d2f0 debd
00000170: 2e87 643d b72f 75bd 6df8 b2be d31c ab3e
00000180: d224 9c3d c294 613e 2e61 f3bc b0f0 c23d
00000190: afd7 bb3e 4742 a73d 6b93 e13c fbff eb3d
000001a0: e275 e7be edb2 9c3d 2e1f a23e bc79 4f3e
000001b0: 90cc 133e b129 2dbe 6338 6a3e 0daa aa3e
000001c0: 11bb ab3d 9a97 ec3d 0a98 0a3c 45d7 5a3e
000001d0: 4e78 ec3d fcbe 053e d4d3 f1bd 9d9f 123e
000001e0: 6298 31be 665c c93a ceda a2bd f1da 863d
000001f0: 6fe7 afbd 2a92 453d 1b56 403e 9def c3bb
00000200: 05d9 38be b957 89bd 60da 92be 6154 cabd
00000210: 2e65 6d3e 6cab c13c 3db0 69be 3b27 5d3c
00000220: 927e ef3d 0805 9b3c 980d 67be 0a30 063f
00000230: 07e2 433e fe99 27bc d10a cd3d a4bc 4e3e
00000240: 45c9 acbe 3147 a13e 1952 66bd f18a a9bd
00000250: 700e 1bbe c99e ad3e 87bd a4bd d565 60bd
00000260: 75ca b83b 5e11 b93c a0c9 febd 7a59 a4bd
00000270: 69f7 f2bd 9882 053e 8178 5dbc 30cd 723e
00000280: b907 743e a38c 3abd d4bd b9be 1dad a9be
00000290: 55de f2bb f9b1 c93d 68fa 403d f223 093e
000002a0: 768b 4abc c9e4 38bd 0ab4 4bbe a829 c9bd
000002b0: 6f85 7cbd 61bc a9be 3fd8 2f3c 061e eabd
000002c0: 28c8 adbd c8df cabe 72b9 873d 8398 ccbc
000002d0: be03 77bc 3877 61be 1ca4 1bbd 97d2 47bd
000002e0: 2f8c 77bc 568e 683d 798c a4be 34d3 0a3e
000002f0: 7174 ea3d 190f 3ebd 67e8 a73e 51d8 fdbb
00000300: 9d54 92bb 546f 9dbd 9834 be3d 784f 7ebb
00000310: df92 1dbe ee89 073e b729 d03d 104c 24be
00000320: 3e10 453e f878 01be 1a00 24be f347 5abd
00000330: d944 1ebd 7c4f 9cbd 0cf5 32bd ea85 e93d
00000340: 4e92 263e f9e7 6bbe b7e7 ff3d db48 883e
00000350: 2864 a4be 8d38 c03d bd24 3bbd b5fb 333e
00000360: 627d 5abe 6f54 4bbe a9af 15bd 21d5 55bd
00000370: 6a27 713e 99d1 1f3e 83c0 71be 0593 a8bd
00000380: 551e edbd befa afbe bac9 34be c45b b33d
00000390: f3d0 88be 9a97 a3be b089 1bbe 859e 27bd
000003a0: bbc9 40be 1b66 db3e 3768 8fbd 9dcd f93d
000003b0: 8230 93be 3833 c83e 2185 a8bd 387f 01be
000003c0: 215b 5b3c 6953 04be 9287 073d 0bc1 ffbd
000003d0: c8f6 2fbc 420b bfbe 8dea 8cbe 06d6 26be
000003e0: cb43 11be a8d7 b1be 61b5 8ebd a3d0 56bd
000003f0: 0e46 d33e fd6c 313d 47ed b7bd d754 b3be
-0.08994404 0.16341712 -0.010381132 -0.19278142 0.1163252 -0.031039847 -0.11956258 -0.02819498
-0.010401198 -0.1703014 0.33996442 0.07394326 0.031919997 0.20172153 -0.21117708 -0.08505231
0.0069427416 -0.057967737 -0.16593671 0.021541629 0.0155421 0.12764645 0.15101255 0.081516065
-0.0750449 0.36331007 -0.17228667 -0.20945169 0.018421117 0.24662104 -0.07912214 -0.098877095
0.13917948 -0.17057993 -0.09000792 -0.026580688 0.604087 -0.08272936 0.0043159234 0.006872714
0.11707084 0.110461235 -0.07902406 -0.14822103 -0.09197747 -0.16678867 0.05213959 -0.14422874
0.14656888 -0.006332192 0.11027638 0.5634574 0.19830173 0.03209024 -0.28523338 -0.06477629
0.41403756 -0.22929336 -0.16380215 0.23163128 -0.08815194 0.07491593 -0.09133768 -0.07700051
-0.17019463 -0.00434889 0.099067025 0.19801554 -0.24643989 0.11412811 0.12835023 -0.24380033
0.19809757 -0.025259737 -0.34098005 0.03669013 -0.08355362 0.018290166 0.046507932 0.10872353
-0.08574948 -0.17459773 -0.0374967 0.100854844 0.44386506 -0.16489081 0.0045091584 -0.067540534
-0.3620738 -0.1783526 -0.12419522 -0.108857766 0.05579298 -0.059859958 -0.3495516 0.3342043
0.076242104 0.22029403 -0.029709425 0.09518564 0.3668799 0.08166938 0.027536115 0.11523434
-0.45207125 0.07651315 0.31664413 0.20261282 0.14433503 -0.16910435 0.22873072 0.33332863
0.083852895 0.11552353 0.0084591005 0.21371181 0.11546384 0.13061136 -0.11807981 0.143187
-0.17343286 0.001536262 -0.0795189 0.065847285 -0.08589064 0.048235096 0.18782847 -0.005979492
-0.18051536 -0.06706185 -0.28682232 -0.09879375 0.23183128 0.02364131 -0.22821136 0.013498123
0.11694063 0.018923298 -0.2256378 0.5241705 0.19129191 -0.010229586 0.10011829 0.20189148
-0.33747306 0.31499627 -0.05623064 -0.08278454 -0.15142226 0.33910206 -0.08043962 -0.054784615
0.005639369 0.02259129 -0.12440801 -0.08024879 -0.11863596 0.13038099 -0.0135175 0.23711085
0.23831071 -0.045544278 -0.3627764 -0.33139887 -0.007411758 0.09848399 0.047113806 0.13392618
-0.012362352 -0.04514006 -0.19892898 -0.098223984 -0.06165069 -0.33151534 0.010732709 -0.11431508
-0.084854424 -0.39623857 0.06627168 -0.024975067 -0.015076576 -0.22018135 -0.037998304 -0.04878482
-0.015109106 0.056776367 -0.32138422 0.1355713 0.11447991 -0.046401117 0.32794496 -0.007746734
-0.004465653 -0.0768725 0.09287375 -0.0038804691 -0.15388058 0.1323621 0.101642065 -0.1604464
0.19244477 -0.12643802 -0.16015664 -0.053291272 -0.038639877 -0.07632348 -0.043690726 0.11402495
0.16266748 -0.2303771 0.12495368 0.26618084 -0.32107663 0.09385786 -0.045689333 0.17576487
-0.21336892 -0.19856428 -0.036544476 -0.05220521 0.23550192 0.15607299 -0.23608594 -0.08231167
-0.11578051 -0.3437099 -0.17655078 0.08757737 -0.26721916 -0.319516 -0.15189242 -0.04092266
-0.18826954 0.42851338 -0.07002299 0.12197421 -0.28747946 0.39101577 -0.08228517 -0.12646186
0.013388426 -0.12922443 0.033088274 -0.12487992 -0.01073999 -0.37313277 -0.27522698 -0.16292581
-0.14186017 -0.34734845 -0.06968189 -0.052445065 0.41264385 0.04331683 -0.08980804 -0.35025665

critic.2.bias f4 [64]
00000000: ad2b 6fbe 19ed 18be 79ff 3a3d 9af9 3bbd
00000010: 4ac5 c7bd 978a 72be 025b 2d3e 1f33 84be
00000020: 8c7a 16be bf7d ae3e 49e8 223d 5374 523e
00000030: bb49 1f3e e4bf 513e a7c1 4c3e 5d45 94be
00000040: 9541 9c3e 33c7 c33d cf2e 4b3e c4af 6abe
00000050: 81bc 433e 4d04 083e ef5e 4abd 048d 1c3e
00000060: d3bb 0d3e a4d9 06be d29f 39be 5d4a b33c
00000070: 4354 c9bd afd8 35bd 6757 8fbe 938d cc3d
00000080: add1 d53c 820d cdbe f566 26be c392 c93d
00000090: ec04 ac3e 0f6d a6be 19b7 9d3e 61e4 9a3d
000000a0: 003f 5abe 6553 5fbe ca6a e3bd dfb6 8bbe
000000b0: 09bd 373e caec 46be 9328 5e3d 6cd4 2fbe
000000c0: fc9a 67be 1d47 4ebe 20eb 89be db86 ab3e
000000d0: 1c92 4e3e 0b60 0ebe 4675 083e bb61 eabd
000000e0: 3310 0d3e 863c 163d daca 313e 803d 5f3e
000000f0: 7549 003e 0386 4e3e 5925 863d 8057 de3d
-0.23356505 -0.14934196 0.045653794 -0.045892335 -0.09754427 -0.2368568 0.16929248 -0.25820252
-0.14695185 0.34080312 0.039772306 0.20552187 0.1555547 0.20483357 0.19995748 -0.2895917
0.30518785 0.095594786 0.19842075 -0.22918612 0.19114877 0.1328289 -0.049406942 0.15288168
0.1384118 -0.13168961 -0.18127373 0.021886045 -0.09830525 -0.0443961 -0.2799637 0.09987941
0.026100958 -0.40049368 -0.16250212 0.09842446 0.33597505 -0.3250508 0.30803755 0.07563091
-0.21313095 -0.21809156 -0.11104353 -0.27287957 0.17943205 -0.19426265 0.054237913 -0.17170876
-0.22617716 -0.20144315 -0.269372 0.33501324 0.20172924 -0.13903825 0.13325986 -0.11444422
0.13775711 0.036678813 0.17362538 0.21800804 0.12528022 0.20168309 0.06550092 0.10856533

critic.4.weight f4 [1, 64]
00000000: c7ff 8cbd 7b85 69be 8b47 bd3d f560 87bd
00000010: 2a65 80be baf9 7fbe 25ff 233e c34b cbbe
00000020: 275e 3abe b9a4 073e 8342 2f3e 9824 5b3e
00000030: 06db a13e bb8f 0e3e 3281 063e 3168 98be
00000040: 7c11 853e 9211 7d3e 1278 fc3d 741b 0abe
00000050: 4198 023e ac5c 683d a840 cfbc f55e 2b3e
00000060: 4e93 143e 0794 0ebe 4c14 03be 3915 033e
00000070: f552 42bd 41fd 07be d5b2 18be 486f 353e
00000080: 0b57 243e d8c2 9abe baee 67be 0e78 2e3e
00000090: 5e24 8a3e 7b07 81be 8b71 dc3d ff88 ac3e
000000a0: 2f11 65be 5a3c 06be 3419 dfbd 2d5e 5bbe
000000b0: a14f 3a3e 407b 07be 92ed 933e 7095 31be
000000c0: 6150 44be 28ec debd 122c 1fbe 43b1 d93e
000000d0: cc53 bb3d 5535 abbd e6c9 0f3e 54a4 c4bd
000000e0: b11e 503e 3d44 e23d ba7e 6c3e 68ee 803e
000000f0: fa5f fd3d e94e 0a3e 4b54 6a3e 3677 013e
-0.06884723 -0.22804825 0.09242161 -0.0661029 -0.25077182 -0.24997607 0.16015299 -0.3970624
-0.18199979 0.1324643 0.17115216 0.21400678 0.31612414 0.13922016 0.13135222 -0.29766992
0.25989902 0.24713734 0.12327589 -0.13487035 0.12753393 0.056729004 -0.025299385 0.16735442
0.14509317 -0.13923655 -0.12800711 0.12801065 -0.047442395 -0.13280202 -0.14911969 0.17718232
0.1604883 -0.3022678 -0.2264966 0.17037985 0.2698087 -0.2520102 0.10763844 0.3369827
-0.22369836 -0.1310896 -0.10893479 -0.21422644 0.18194439 -0.1323061 0.2889219 -0.17342162
-0.19171287 -0.10884887 -0.15544155 0.42518052 0.09146842 -0.08359782 0.14041862 -0.096016556
0.20324208 0.11048172 0.23095217 0.2518189 0.12371822 0.13506664 0.22883718 0.12643132

actor_mean.0.weight f4 [64, 72]
00000000: 4886 1e3e f724 6abe 3618 4bbd 0ff2 513e
00000010: a4a8 c83c 27ee 19be d83b 16be b453 03be
00000020: 019d 34be a35e d63d 9136 893e 232a 233e
00000030: bc80 063d febc 863d c00b 95bd c7e5 6fbe
00000040: b448 a33e 0401 73be 4123 4c3e 3832 22be
00000050: 705d e73d 92e6 14bd 6d5b b43d d767 6e3d
00000060: 60e9 44be f5bc c0be 2fd5 31bc aa8a fa3d
00000070: ba61 613e 99ea 183e 1eb9 55be 5c50 89be
00000080: 1296 73bd ddd3 3b3e d0bc b93e fdbe 8ebd
00000090: f811 f83d 8998 d6bd 5649 bdbd 4198 483c
000000a0: af7d 7f3d 630e d9bc af22 e0bd 8c06 273e
000000b0: 7f3c a73e c64a 6abd e5f7 983e fe60 16bd
000000c0: 1c7b 563e 2fba 943e c7b2 123e 73cb d23d
000000d0: e4f1 15be 0d68 87bc fddc 33bd e97c 933e
000000e0: fe3f 9dbd e471 dcbd 9aa9 c8bd 8727 c23d
000000f0: f4a1 22be d072 2ebd b744 433e c66e f73d
00000100: 413a 9a3e ca00 c3be 8ab0 67be 7440 b5bd
00000110: adf2 d63c 5fb9 603d 5ec2 cbbd 19f7 483c
00000120: 0340 ff3e dfe5 4dbc 1190 abbd b2b6 d6be
00000130: 6d02 943e d7fc 863d eddb 1bbe 8360 f7bd
00000140: a9dc cb3d 4a93 b63d 497e e83d 6009 bfbd
00000150: 2501 a1bd d40f 04bc ec83 0c3c fa43 70bd
00000160: bae5 e93d 5de2 fbbd cf65 c23d a071 093e
00000170: 2e21 79bc 342c 353e 0769 463e 19cc a8bd
00000180: 9c18 0dbe 3e38 723e 40ba 75be 57f5 de3d
00000190: ac03 41bc 7dfd c7bd 6e81 a03e 5378 f33d
000001a0: dcc4 04bd ee75 82be dfe9 c13d 8f25 77bc
000001b0: f0c2 ce3e 7174 ed3d aab6 553e 10ef c33d
000001c0: 7c06 853e 7373 8d3c 982f 22bd 2e7d 55be
000001d0: c36b bf3c a980 8f3d 1f04 a03e a0d9 34be
000001e0: b5b5 66bd 1488 c13d 5e1b c73d a68f 8fbb
000001f0: edee 48be e878 88be b67a 8d3c 7bb9 30be
00000200: 5728 3c3d 1cab 333d 1021 0d3e 7273 713e
00000210: a475 a6bd 4b76 1a3e 6721 293c e479 90bd
00000220: 144d b1be 4616 a1bd 7a80 c0bd a716 49be
00000230: d362 8abb a91a e9bd a524 c43d 2266 973d
00000240: 557c 1d3e c968 09bd c90e 553e 33dc 6f3e
00000250: 50c9 a7bc ab61 823e abe3 063e e093 adbd
00000260: 1b00 31bc eee2 a13d c374 1f3d d6cf 5ebe
00000270: 48d6 983d b800 133c c37c 4c3e 8da0 da3d
00000280: c0b3 b53c 5931 6ebe 376b 30be ac5a d83b
00000290: f68a a5bc abbc 3ebe bf2a e3bd f132 60be
000002a0: 0634 5a3e 9d24 273e 1d16 73be 40c5 2aba
000002b0: 0858 403d 1a5e e8bd 8446 333e b648 a2be
000002c0: b6a9 f73d cdec 1dbd af28 24be 9b4d 2cbe
000002d0: b4bc e9bd 86a0 64be c2c2 74be f2e6 fa3d
000002e0: 6810 8dbd b38c 31bd cdc6 b93e ea29 bc3d
000002f0: 2a69 193e fb9c b03d 527a c13e e1b8 703c
00000300: 8ae2 09be 6cba 8b3e 3a15 83bc 45c9 a2bd
00000310: 7437 16bd 98d4 0d3e 5f0b 753e 0f05 463e
00000320: e1d0 4dbe e3b2 7b3e 930f 5ebd dd4a 8c3d
00000330: 8b64 173e 7786 373e 76fa 733b 8fa9 c93e
00000340: 3786 903d 23fa 613e 61b5 95be 11dd 8d3e
00000350: e591 c83d 8740 0bbd 7eae 9a3e 1c39 783e
00000360: 136a 07be 3657 d53e 4171 283e 7078 903b
00000370: a043 1cbe 70ee 8cbd ea6a 9cbe 883d 82bd
00000380: 16b4 133d df6f 823e bef2 093d c9ea 0cbd
00000390: 1092 e93b ff73 3f3e c2c6 943d fb9d 603d
000003a0: 9f0c 2fbe 63e0 ffbe 2fc4 d63d 43e3 913c
000003b0: 90fd b7bd 5aa6 533e 3f38 b93d 89e1 203e
000003c0: 8579 92bd 2f47 063d 600f 9fbd 641d 20bd
000003d0: 5816 b4bd dd1e a73d 57ba 303e e267 263b
000003e0: bf4a f73c 308e 693e 6fb0 963e c9f1 a63d
000003f0: b6c2 273e a3f1 5ebe adbc 623d 1da6 c83d
0.15480912 -0.22865663 -0.049583636 0.20502494 0.024494477 -0.15032254 -0.14671266 -0.12824899
-0.17638017 0.10467269 0.26799443 0.15934043 0.032837614 0.06579016 -0.07277632 -0.23427497
0.31891406 -0.23730856 0.19935323 -0.1583947 0.11297119 -0.0363527 0.088065006 0.0582045
-0.1922965 -0.37644163 -0.01085405 0.12233479 0.22009936 0.14933242 -0.20871398 -0.26819122
-0.05946929 0.18342538 0.36276865 -0.06970022 0.12112802 -0.104783125 -0.09242503 0.012243331
0.06237572 -0.026496118 -0.10944115 0.16311091 0.32663342 -0.057200216 0.2987663 -0.036713593
0.209454 0.29048297 0.1432601 0.10292711 -0.14643055 -0.016529107 -0.043911923 0.28806236
-0.07678221 -0.107639104 -0.09797974 0.094801955 -0.15882093 -0.042589962 0.19069181 0.12081675
0.3012257 -0.3808654 -0.22625938 -0.08850184 0.026238764 0.054864284 -0.09949182 0.012265944
0.49853525 -0.012567013 -0.08377088 -0.4193626 0.289081 0.06591194 -0.15220614 -0.12078955
0.09954197 0.08914812 0.11352212 -0.0932796 -0.078615464 -0.008060414 0.0085763745 -0.058658578
0.1142077 -0.12299035 0.09492075 0.13422251 -0.015205665 0.17692643 0.19376002 -0.082420535
-0.13778919 0.23654267 -0.2399683 0.108866386 -0.011780661 -0.09765146 0.31348747 0.118881844
-0.032414302 -0.25480598 0.094684355 -0.015084638 0.403831 0.11594475 0.20870462 0.09567082
0.2598151 0.017266965 -0.03959617 -0.20848534 0.023366814 0.07006962 0.31253144 -0.17661142
-0.056325633 0.09449783 0.09722017 -0.004381138 -0.19622393 -0.26654744 0.017270427 -0.17258255
0.04593691 0.043864354 0.13782144 0.23579195 -0.08127907 0.15084188 0.010322905 -0.07054499
-0.34629118 -0.078655764 -0.09399505 -0.19637547 -0.0042232065 -0.11382038 0.09577302 0.07392527
0.1537946 -0.033547197 0.20806421 0.23423843 -0.020481735 0.2546514 0.13172786 -0.084754705
-0.010803248 0.079046115 0.038929712 -0.2175897 0.07462746 0.008972339 0.19969468 0.10675154
0.022180438 -0.23261012 -0.17228399 0.006602606 -0.020207863 -0.18626659 -0.110921375 -0.21894433
0.21308908 0.1632256 -0.23738904 -0.0006514378 0.046958953 -0.113460734 0.17507368 -0.316961
0.12092917 -0.03855591 -0.16031145 -0.16826479 -0.114129454 -0.2232686 -0.23902419 0.122510806
-0.06887895 -0.04334707 0.36284485 0.09187682 0.14981523 0.08623692 0.37788635 0.014692516
-0.13465324 0.27290666 -0.016001333 -0.07948545 -0.036673978 0.1385063 0.23930119 0.19337867
-0.20099212 0.24579959 -0.05421407 0.068502165 0.14784448 0.17922388 0.0037228144 0.39387175
0.070568494 0.22068076 -0.29239944 0.27707723 0.09793452 -0.033997085 0.30211252 0.24240535
-0.13224058 0.416681 0.16449453 0.0044088885 -0.15260172 -0.06881416 -0.3055032 -0.063593924
0.036060415 0.25475976 0.033678763 -0.034403596 0.0071280077 0.18696593 0.072644725 0.054838162
-0.17094658 -0.4997588 0.10486638 0.017808562 -0.0898391 0.20668927 0.09043931 0.15711035
-0.07152084 0.03278273 -0.077666044 -0.03909053 -0.08793324 0.081601836 0.17258583 0.0025391509
0.030187009 0.22808146 0.29431483 0.081515856 0.1638287 -0.21771865 0.055355716 0.097973086

actor_mean.0.bias f4 [64]
00000000: b183 49bb 26dc 5ebd cf0b 7fbd eed7 313c
00000010: 0dd2 4dbd 46ca e23b 9937 e13c 5a4d 793c
00000020: 4f48 c7bd d211 8a3c f9f9 4dbd a6ac 29bc
00000030: 1d2d f33c c6ea a2bd 423e 963d 74f8 4e3c
00000040: e18e f0bb 681c d6bd ea63 be3b 137c 5bbd
00000050: 6968 25bd 6ac9 713d 3e72 9a3c fbd1 9ebc
00000060: b399 eebb 0ae7 85bd 2074 ee3c 7999 f63c
00000070: 8462 93bc 7811 323d 5884 58bd 8568 87bd
00000080: d5f3 dcbd df86 dd3c 72dd 0ebd 78c1 ccbd
00000090: 8cae 8c3d 3d3a 1d3d a06d 6dbc 3321 cd3c
000000a0: 08d9 033e d6f9 6a3d b4e1 d5bc c943 9dbd
000000b0: 546d 163d 19ce 1b3d 21e6 0f3c c479 9a3c
000000c0: 40c5 45bd 7478 a63d a03a 1a3d 89e0 cabc
000000d0: e415 abbc 258b d0bd b053 d43d 84d9 273d
000000e0: 07e9 0cbd 6b14 373d 4d0d ecbd df1c 30bb
000000f0: a70c cdbc e864 48bd 5539 9fbd 450c 983c
-0.003074866 -0.05440917 -0.06226712 0.010854704 -0.05024915 0.0069210855 0.027492331 0.015216196
-0.09730589 0.0168542 -0.05028722 -0.010356104 0.029684598 -0.07954936 0.073360935 0.012632478
-0.0073412512 -0.10454637 0.0058102505 -0.053585123 -0.040382776 0.059029974 0.018853303 -0.019387236
-0.007281506 -0.06538208 0.029108107 0.030102478 -0.017991312 0.04347369 -0.052860588 -0.066117324
-0.10788695 0.02704185 -0.034879155 -0.09997839 0.0686923 0.03838562 -0.014491469 0.025040245
0.1287576 0.05736717 -0.0261086 -0.076789446 0.036725357 0.038038347 0.008782894 0.01885689
-0.048283815 0.08128443 0.037653565 -0.02476527 -0.020884462 -0.1018279 0.103675246 0.040978923
-0.03440192 0.044697206 -0.115259744 -0.0026872677 -0.025030447 -0.048924357 -0.07774607 0.018560538

actor_mean.2.weight f4 [64, 64]
00000000: 5857 c2be 13f3 fa3d 252f 67be ca28 813e
00000010: b786 dcbd 7f10 acbd 2e35 49be 20ee 6d3d
00000020: d91d 143e 2249 e73d 97f9 783e d2a5 21be
00000030: e0de d03d 4112 79bd 2d58 45be 49a6 32be
00000040: cb44 823d 9df6 0cbf c082 67be 0b71 e5bc
00000050: 9530 0cbd 7c56 b93e eaac 82bd 5c71 33bd
00000060: 023f 85be 9f72 363e c6ed cfbd 6431 18bd
00000070: 5cf2 42bd ac0a 313e abff a9bd 188d 98bc
00000080: 2d0c 383e 73da a5be adf3 d53e 6e0e 9b3d
00000090: 1d14 71bd 842c 6139 280b d93d 08c1 12be
000000a0: 86db 9bbd c94c 393d e8ec 033e d262 873d
000000b0: db19 773b fbbb 553e 0f6a 07be 5434 ce3d
000000c0: 37a5 adbd 669a 723e bee4 4fbe d3a0 6ebc
000000d0: b87e 46be 7d64 a0bd 518b 723e 87ae ca3d
000000e0: b6f3 95bd 9a58 ea3e 0221 333b dd77 893e
000000f0: 7899 f73d addb af3e e404 3dbd 54f4 553c
00000100: b24b 1dbe d37d 693d 502f 2e3e a5a5 cbbe
00000110: 5d6f 85be 137c d4bd 20ca 8c3e 0dbc 8c3c
00000120: 47f5 b23c 45fe 62bd 8141 a43d ce3b 933e
00000130: 56d1 a7bd bcd3 1a3e f319 5bbc 01d5 e93d
00000140: 4f10 debd dd09 4cbe 0bd6 803e 122d 283e
00000150: 8acb 27bd 4e53 7e3e 0f36 a73e 5953 49be
00000160: c593 9cbe c96e 8ebe f534 d33d 05ab ca3e
00000170: 81db 143e 9b72 00bd 2af6 bbbe 58b1 81bd
00000180: c874 4e3d f3f5 8b3d 3a84 803e 1881 18bd
00000190: 398d ac3d fe8f 2fbe 0a67 02be 4ec9 073e
000001a0: 5fe5 623c 6dd7 823e 1778 bc3c ee34 e5bd
000001b0: f20c 593e 5c7a 8b3d 6ba5 a43d c322 b8bd
000001c0: 6f0b 533d d1b2 5c3e 0bfb 40bc 1686 8d3e
000001d0: bcf4 433d 457a 293d eb3b 90be 52a5 9abe
000001e0: f69d e03c a39e fc3e ca8c 33bd 7341 503e
000001f0: b43f babd 829b c3bd 2e96 893d b960 2abd
00000200: a566 483e 67b2 053d 980f 993d 9ba8 b0bc
00000210: 619b ccbd e78e 123e 1552 573d 1321 563d
00000220: 8965 8abe 851b 8d3e dc0f 603e d265 93be
00000230: f9e4 74be d1bc 883e 2350 a43e b93c 303e
00000240: cd67 8ebd c9f7 e43d be40 5a3d 2b97 aa3e
00000250: 5375 94bc 35ad c3bc 247b 21be d3dd b83d
00000260: f43a a13c de45 68be e995 7abe de44 cebe
00000270: c223 4a3c 180c bcbe 1b2e 3cbe bbd5 7abd
00000280: 75dc 773d 953d b2be b0c6 07bd 883a bc3d
00000290: d073 0f3e 75c9 323d 88e3 d7be 64a9 89be
000002a0: fa83 35be a31d eb3d 1fdc 31bc 066d 36bc
000002b0: bc87 dbbd 6f99 96bd 4c80 6ebd d163 a6be
000002c0: 3df4 0b3e 1163 573e 7830 aa3c 5b71 6dbe
000002d0: 5165 42be b4ca 853e 44ff d33d 93c6 fe3d
000002e0: 1bac 4f3e 4563 8fbd e4ae 0b3d a242 d5bd
000002f0: b026 e23d 032f 863e 0745 03be 9dd7 193e
00000300: 3e0b 5cbb 074d 623e 62ec 0f3e e3eb 423e
00000310: 0ba0 cf3e 798a 3a3e e60c c83d d8fb 733e
00000320: 154f c13d 9cf4 8f3e e7fb 3abe 8baa e03c
00000330: 86ca 9e3d 2576 ad3e d8b2 da3d 10f9 fd3d
00000340: f285 08be 1baa cbbd 96c8 953c 06f5 8dbe
00000350: 5820 383e 6183 41be a228 213e da54 a63d
00000360: a73b dfbd a544 b0bd ca5a 2e3c cea5 ea3c
00000370: d9af 5bbe df85 a03c 8a97 06be 4b6c 43be
00000380: b63a f53d 7415 173e a672 7b3e d400 633e
00000390: 54ac 9a3e 3455 6f3e e949 95be af20 9a3d
000003a0: 9215 c53d 9e6b 53be 872f ab3e 3507 bebe
000003b0: a13b 08be 1ecc d23c 60a1 5ebd 5c24 cc39
000003c0: c1c7 bebd 78bd 28be 0335 8b3d fac4 493e
000003d0: d0b0 473d f5d3 03be e18e 21bc 3bea 793e
000003e0: cf3b 8e3c 36de 4bbd 47c8 533d 5a87 b53e
000003f0: 218b 37be 9b55 083d ece2 953e 7acb 38be
-0.37957263 0.12253394 -0.22576578 0.25226432 -0.10767882 -0.08401584 -0.19649193 0.05808842
0.14464511 0.11293246 0.24313961 -0.15785912 0.1019876 -0.060808424 -0.19271918 -0.17446245
0.063607775 -0.550638 -0.22608471 -0.028008005 -0.03422602 0.36198795 -0.06380637 -0.04380928
-0.26024634 0.17817162 -0.101527736 -0.037156478 -0.047594413 0.17289227 -0.08300718 -0.018621966
0.17973395 -0.32393226 0.41787472 0.075711116 -0.058857072 0.00021474255 0.10597831 -0.14331448
-0.0761023 0.045239244 0.12883341 0.06610645 0.003770462 0.2087249 -0.13224052 0.100685745
-0.08478778 0.23691711 -0.20302102 -0.014564711 -0.19384277 -0.078316666 0.23685957 0.0989657
-0.07321875 0.45770723 0.0027332907 0.2684926 0.12089819 0.34347287 -0.046147242 0.013058741
-0.15360907 0.05700476 0.17010236 -0.39774814 -0.26061526 -0.10375228 0.2749796 0.017179513
0.021845473 -0.05541827 0.080203064 0.28756565 -0.081942245 0.15119833 -0.013372886 0.114175804
-0.10842954 -0.19925638 0.25163302 0.16423443 -0.040965594 0.24836466 0.3265843 -0.19660701
-0.3058149 -0.27818897 0.10312835 0.39583603 0.14536859 -0.031359296 -0.36711246 -0.06332654
0.05040434 0.068340205 0.2510088 -0.03723249 0.084253736 -0.17144772 -0.12734619 0.13260385
0.013848632 0.25554982 0.023006482 -0.11191736 0.21196344 0.068104476 0.080393635 -0.08991005
0.051524576 0.21552588 -0.011778603 0.27641362 0.04784082 0.04137637 -0.28170714 -0.30204254
0.027419072 0.4933978 -0.04383544 0.20337467 -0.09094182 -0.09551145 0.067180976 -0.04159615
0.19570406 0.03264084 0.074736774 -0.021564772 -0.09990574 0.14312325 0.052568514 0.052277636
-0.2703059 0.27560058 0.2188105 -0.2878862 -0.23915471 0.26706555 0.3209239 0.17210664
-0.06953392 0.11180074 0.0532844 0.33318457 -0.01812235 -0.023886302 -0.1576963 0.090266846
0.019681431 -0.22682902 -0.24471249 -0.40286916 0.012337627 -0.36727977 -0.18376963 -0.061238986
0.06051298 -0.34812608 -0.033148468 0.091908514 0.14009023 0.043649156 -0.4216578 -0.26887047
-0.17726126 0.11480262 -0.010855704 -0.011134392 -0.10719249 -0.07353484 -0.058227822 -0.3249803
0.13667388 0.21033885 0.020775065 -0.23187773 -0.18983962 0.26131213 0.103514224 0.12440219
0.20280497 -0.07001356 0.034102336 -0.104131 0.11042535 0.26207742 -0.128193 0.15023656
-0.0033576037 0.22099696 0.14055017 0.19035296 0.4055179 0.18216886 0.09768085 0.2382654
0.09438912 0.2811631 -0.18260156 0.027425071 0.07753472 0.338792 0.10678643 0.124010205
-0.13332346 -0.099445544 0.018284123 -0.27726 0.17981088 -0.18897773 0.15738156 0.08121653
-0.1090005 -0.08606843 0.010641763 0.028643515 -0.214538 0.019595085 -0.13143745 -0.19084279
0.11974089 0.14754277 0.24555454 0.22168285 0.302096 0.23372346 -0.2915795 0.07525765
0.09623255 -0.20646521 0.33434698 -0.37114874 -0.13303997 0.025732096 -0.054353118 0.00038937002
-0.09315444 -0.16478527 0.067972206 0.19704047 0.048752606 -0.12873824 -0.009860725 0.24405758
0.017362503 -0.049772464 0.05170467 0.35454828 -0.17924167 0.033284765 0.2927469 -0.1804637

actor_mean.2.bias f4 [64]
00000000: b992 293d 3c22 423d f29f f0bc a3b1 3fbd
00000010: f1e7 ff3c bc30 ce3c 9330 6bbd 5661 53bd
00000020: 366c 8239 b713 1db9 1ab7 37bd 926f 1abc
00000030: 2bfe 86bd 0702 23bc d67f 9abc 4602 b03c
00000040: 1d6a 4e3c e0e2 593d 7bde abbc 3fec adbd
00000050: 1c63 013c 2db0 653c 2b59 e63c b85f c23b
00000060: f04b 023d ec48 103d 0a46 293c 332d b1bd
00000070: d154 dabd c771 c8bc 3654 8cbb f830 853c
00000080: 4245 a13d a282 873b e612 a1bb b7f3 163c
00000090: cce9 a53c 1424 1dbd d5d9 08bd 7249 a03c
000000a0: 1eae ca3b 0283 17bb 639c 933d 68af 4d3c
000000b0: a8c9 90bd 0119 83bc 8c9a a7bc 724c 433c
000000c0: 24b0 373b 7eba 58bd eca0 ebbc 5e85 bdbc
000000d0: 9667 803d 8160 20bd 9815 dcbc fcb5 36bd
000000e0: e755 adba 344e 653c f8d2 14bd d55d 513c
000000f0: 7020 453c dad5 9b3c 65fd b8bd cfd5 7f3d
0.04139969 0.04739593 -0.029373143 -0.046800267 0.031238528 0.025169723 -0.05741937 -0.0516065
0.00024876156 -0.00014980031 -0.044852354 -0.0094260145 -0.065914474 -0.009949214 -0.018859785 0.021485459
0.012598542 0.05319488 -0.02098011 -0.08492326 0.007897165 0.014019054 0.02811869 0.0059318207
0.0318107 0.035225794 0.01033164 -0.08651199 -0.10660709 -0.024468316 -0.0042824997 0.016258702
0.07874538 0.0041354457 -0.004915583 0.00921338 0.020253085 -0.038364485 -0.033410866 0.019566271
0.006185307 -0.0023118858 0.07207563 0.012554027 -0.07069713 -0.016003134 -0.020459436 0.011920081
0.0028028572 -0.052912228 -0.028763257 -0.023134883 0.062697574 -0.039154533 -0.026865765 -0.044607148
-0.0013224453 0.013995696 -0.036334008 0.012778719 0.0120316595 0.01902287 -0.09032706 0.062459763

actor_mean.4.weight f4 [1, 64]
00000000: a0cb 853d be2c dd3d 5b38 97bd 5f70 113d
00000010: d84f 36bd d8de d93c 298c 433d 4f68 7cbd
00000020: 8b1e d5bc 8c95 a3bd c4b0 9dbd e054 cbbc
00000030: 575b 35bd dde9 c3bd 3ec9 37bd 40cd f6bc
00000040: 4972 143d 949d 8b3b 72df ee3b 6c4f 23bd
00000050: c677 5fbb 233a 613d de6d 63bc 7aeb 20bc
00000060: 77f5 f33c 768c 133d 36dd 0ebd 3289 dfb9
00000070: 6591 8bbd c264 c83c 939f b43d 26fc b53b
00000080: 0b1d 543d 9ce3 1cbd e31b 7dbc eb3c 08bd
00000090: 1168 35bd 56b1 7b3d aeeb 933d 7ac9 573d
000000a0: 7d5a f83c 2c27 9e3d d212 ce3c 3337 e6bb
000000b0: e250 a3bd 753b e5bc 4808 f03c be96 f4bc
000000c0: 7f8b 18bd 179a 0abd 2ccf 45bd ac6b c7bd
000000d0: 34ad ba3c 2cb1 f2bc c74f 67bd 66e4 9a3c
000000e0: a561 2dbd daff 9cbc 8a46 0d3b ecfb ce3d
000000f0: dda9 d7bc 062c aabd a454 b1bd 83b8 863d
0.06532979 0.107995495 -0.07383796 0.035507556 -0.04450974 0.026595518 0.04774109 -0.061622914
-0.02601554 -0.07987508 -0.07699731 -0.024820745 -0.04427656 -0.0956609 -0.044869654 -0.030127168
0.036241803 0.004260728 0.0072898204 -0.039870664 -0.003409849 0.054987084 -0.013881175 -0.009821767
0.029780133 0.036022626 -0.034878932 -0.00042636093 -0.06814841 0.024462108 0.08819499 0.00555374
0.05178551 -0.038303003 -0.015448543 -0.03326122 -0.0442887 0.061448418 0.07222687 0.052682377
0.030316586 0.07722315 0.025155459 -0.007025623 -0.079744115 -0.027982453 0.029300824 -0.029857036
-0.03724241 -0.033838358 -0.048293278 -0.09737334 0.022787668 -0.029625498 -0.056472566 0.018907737
-0.04232945 -0.019164968 0.0021556937 0.10106644 -0.026326114 -0.08309178 -0.08658722 0.065781616

exp_avg f4 [64, 72]
00000000: a127 b038 a524 c738 8e22 e438 ab39 0739
00000010: b037 c438 8ed0 ec38 d791 f738 e942 2539
00000020: 81ea 0739 61d3 1338 4754 5238 b7ff 8238
00000030: 6d37 ad38 d464 7e38 b55b 5438 9e64 5338
00000040: bd26 2238 1add 0a38 f728 f237 b461 e737
00000050: 1e46 a5b6 50ff 12b7 2b79 ccb5 24e9 95b7
00000060: ec78 05b8 ef04 33b8 5a20 91b8 b0b9 c2b8
00000070: fa2e b0b8 504e e5b7 7c1d fcb7 ddee 16b8
00000080: 7507 a7b7 46f6 4c38 6a57 1a38 e0e0 0138
00000090: 10e8 6637 2261 d038 fade c538 20bf 2638
000000a0: 1554 6137 070f 6a38 b959 7d38 c5e1 9c38
000000b0: 15aa c838 29bd bb38 4aef c638 ea2c 1139
000000c0: 32a0 3539 ce3f 4339 e86f 4a39 a7e9 1a39
000000d0: 3e38 3239 0174 c338 c063 8438 fa6b c137
000000e0: f7d1 38b4 28aa 0b37 01f1 7437 4144 0137
000000f0: 4231 2a38 7320 ed37 da24 4d37 7885 b137
00000100: 2577 8cb6 f62a b2b7 aee7 14b8 8668 9db7
00000110: 2b08 f7b7 b4d4 80b8 0e5f 82b8 5b9b 8cb8
00000120: 1f94 8c36 90bc aa36 d962 9a36 f0f1 9035
00000130: 733b f936 b8eb 8c37 0a50 9b37 d60d f837
00000140: 2fbe 0438 43b2 e737 bff6 5a37 9a82 70b7
00000150: 46f6 d3b7 4623 22b8 2dde 5db8 d122 37b8
00000160: e739 34b8 abf7 32b8 5042 fab7 c1b9 06b8
00000170: 9a18 24b8 b68a e6b7 73d1 e4b7 2aee 98b7
00000180: 1f55 f2b7 c87d 2ab8 738b ce37 0f12 db37
00000190: b7f5 cc36 153e bf37 2ac6 4737 ab50 7a37
000001a0: 22f1 2b38 a270 9237 9043 8db7 79a3 3bb8
000001b0: 8e01 0fb8 f76e b1b7 19a2 d337 296b 7eb6
000001c0: 741f 1838 b186 3538 c981 4b38 ac43 d3b3
000001d0: c2d9 e737 3420 4938 23ac 1eb7 db3b b2b7
000001e0: 82f8 beb7 244b 64b7 4043 83b7 2c2d d0b7
000001f0: 8ed1 0f36 6382 3eb6 fc1e 8737 354a f736
00000200: 604f ed37 e1a5 2b37 0ff2 ce37 5610 e837
00000210: 0c72 1138 71ee c337 4f7f 8237 8c3b 9335
00000220: ed05 bdb6 5444 d0b6 5ccd 6db6 e165 76b6
00000230: a06c 85b5 2b5f b1b6 13bd 40b7 d5ae 16b7
00000240: a34e 8f37 9b2e 4c38 a1ab 7b38 b33a a938
00000250: 542a ad38 dbf3 f238 9fc5 d938 4098 db38
00000260: efc2 7338 1b4e 9138 b65d 6438 c66c 7138
00000270: 23ed 9638 3b04 e237 49c3 2636 e4ba ff37
00000280: 6930 a237 14ad 6b37 52b2 9d38 a21f be38
00000290: cecc e237 1e63 4038 def0 6f38 8088 ca37
000002a0: 34fb 3536 b183 1238 acbf 0f38 4dd6 a3b7
000002b0: 0e1a ac37 318c 7d38 379f 1a38 dea2 1238
000002c0: 9225 a037 7954 5938 98d8 fd36 05f5 6ab8
000002d0: 96fc 1ab8 20e9 1938 7022 8c37 5648 45b8
000002e0: 80e3 8db8 01ee ddb8 9726 8ab8 2964 3fb8
000002f0: 3aa8 0038 0af2 48b7 4de8 1bb8 25ca 2937
00000300: 4287 ae37 8aaa 88b7 7da1 0bb7 5f91 aeb7
00000310: 6581 56b6 05a0 19b7 68fc 3f35 456f 23b7
00000320: 04e7 0737 113c be37 68f4 8937 5055 ee37
00000330: 5a4d 0138 e147 9e37 58e7 9737 9fa2 0538
00000340: 1af0 d935 06b3 80b7 c1c4 e636 2c39 1837
00000350: 71fe f8b7 7157 5cb8 d577 d4b8 7e63 b8b8
00000360: 8e7e 5838 3b0f 4e38 8d9a 0839 c3bb 0b39
00000370: 6f30 e438 13ac 1839 986a a438 f060 0039
00000380: 482c f038 ec18 d338 8593 3939 63f8 0339
00000390: ea4b 1639 195f 1c39 3e32 d738 1c8d 4039
000003a0: ff8a a038 12f3 3337 7280 6d38 bbe1 b9b7
000003b0: 3c69 55b8 454f 2ab8 1451 d3b8 55b0 05b9
000003c0: 81e6 44b9 94cd 1eb9 38c4 f9b7 3927 29b9
000003d0: 8939 20b9 43b5 29b7 2569 39b8 0d4f b5b8
000003e0: 307c 6fb8 bf31 5037 d26f 6a37 bcd9 2f38
000003f0: ffc0 4938 fc0c 6fb8 1dd6 d0b8 d418 b4b8
8.3997154e-05 9.495885e-05 0.000108783235 0.00012896086 9.356381e-05 0.00011292203 0.000118050426 0.00015760552
0.00012961963 3.5244393e-05 5.014639e-05 6.246514e-05 8.259607e-05 6.0652223e-05 5.0630148e-05 5.0400027e-05
3.8659888e-05 3.310768e-05 2.8867724e-05 2.7582842e-05 -4.925546e-06 -8.761723e-06 -1.5234449e-06 -1.7870749e-05
-3.182229e-05 -4.268152e-05 -6.920165e-05 -9.285228e-05 -8.401084e-05 -2.7335394e-05 -3.005447e-05 -3.5985246e-05
-1.9911424e-05 4.886675e-05 3.6797872e-05 3.0965428e-05 1.37631e-05 9.936305e-05 9.435225e-05 3.9755483e-05
1.3430622e-05 5.5803943e-05 6.040346e-05 7.4807125e-05 9.5684234e-05 8.952089e-05 9.485947e-05 0.0001384501
0.00017321183 0.00018620418 0.0001930591 0.00014773627 0.00016996355 9.319932e-05 6.3128304e-05 2.3057673e-05
-1.721272e-07 8.324663e-06 1.4599646e-05 7.704891e-06 4.0577033e-05 2.8267712e-05 1.2227532e-05 2.1162195e-05
-4.1861954e-06 -2.1239259e-05 -3.550172e-05 -1.8764531e-05 -2.9448498e-05 -6.143135e-05 -6.2165884e-05 -6.7046574e-05
4.1895687e-06 5.0883464e-06 4.601065e-06 1.0799249e-06 7.427699e-06 1.6799066e-05 1.8514711e-05 2.9570347e-05
3.1648375e-05 2.7620355e-05 1.3051263e-05 -1.4335523e-05 -2.526784e-05 -3.865666e-05 -5.2897423e-05 -4.3663025e-05
-4.296927e-05 -4.2669166e-05 -2.9833202e-05 -3.2121086e-05 -3.912356e-05 -2.7482729e-05 -2.727725e-05 -1.8230716e-05
-2.8888286e-05 -4.06483e-05 2.462205e-05 2.6115244e-05 6.1082787e-06 2.2797884e-05 1.1907463e-05 1.4919943e-05
4.099415e-05 1.7457005e-05 -1.6839971e-05 -4.473652e-05 -3.4095305e-05 -2.1151716e-05 2.5228643e-05 -3.7911325e-06
3.6268917e-05 4.3279204e-05 4.8519843e-05 -9.8377626e-08 2.7638747e-05 4.7952126e-05 -9.457613e-06 -2.1247126e-05
-2.2765485e-05 -1.3607354e-05 -1.5647733e-05 -2.4816567e-05 2.1430637e-06 -2.8388101e-06 1.6107682e-05 7.3698125e-06
2.8289563e-05 1.0231016e-05 2.4669831e-05 2.7664162e-05 3.467691e-05 2.3356844e-05 1.555649e-05 1.0969684e-06
-5.633329e-06 -6.2068375e-06 -3.5435287e-06 -3.6716158e-06 -9.940886e-07 -5.28609e-06 -1.1488114e-05 -8.981403e-06
1.7083546e-05 4.8680795e-05 6.0002905e-05 8.0694816e-05 8.257167e-05 0.00011584881 0.00010384176 0.000104710925
5.811726e-05 6.928687e-05 5.444671e-05 5.756018e-05 7.1967275e-05 2.694327e-05 2.4849599e-06 3.0485397e-05
1.9334448e-05 1.4047389e-05 7.519558e-05 9.065798e-05 2.7036669e-05 4.5868677e-05 5.7206365e-05 2.414384e-05
2.7117321e-06 3.493176e-05 3.4272365e-05 -1.9530906e-05 2.051613e-05 6.0450464e-05 3.686474e-05 3.4960794e-05
1.9090981e-05 5.1815503e-05 7.5652024e-06 -5.601814e-05 -3.69517e-05 3.6695157e-05 1.6705337e-05 -4.7035828e-05
-6.765779e-05 -0.00010582433 -6.587541e-05 -4.563123e-05 3.067425e-05 -1.1977283e-05 -3.7171227e-05 1.012025e-05
2.08054e-05 -1.6291877e-05 -8.322645e-06 -2.081011e-05 -3.1963802e-06 -9.156768e-06 7.1520344e-07 -9.741464e-06
8.100415e-06 2.2677736e-05 1.6445483e-05 2.8411538e-05 3.0828036e-05 1.8868539e-05 1.810833e-05 3.1861124e-05
1.6237639e-06 -1.5342153e-05 6.8774393e-06 9.073217e-06 -2.9682387e-05 -5.2533524e-05 -0.00010131268 -8.7923356e-05
5.1616276e-05 4.912841e-05 0.00013027545 0.0001332602 0.00010880909 0.00014559952 7.839984e-05 0.00012243143
0.0001145234 0.00010065906 0.0001769793 0.00012585665 0.00014333395 0.00014912746 0.00010261357 0.00018363114
7.6552846e-05 1.0725826e-05 5.6624827e-05 -2.2158833e-05 -5.0881164e-05 -4.0604984e-05 -0.00010076366 -0.00012749557
-0.00018777886 -0.00015144638 -2.9774485e-05 -0.00016131708 -0.00015280223 -1.0115388e-05 -4.420536e-05 -8.645477e-05
-5.70977e-05 1.24093485e-05 1.3973522e-05 4.1926032e-05 4.8101876e-05 -5.6994133e-05 -9.9580946e-05 -8.5876934e-05

exp_avg_sq f4 [64, 72]
00000000: f3e6 7333 53d5 7c33 3521 8533 857b 8a33
00000010: 2246 5933 bce3 5a33 8218 5c33 4384 8b33
00000020: 6210 a733 556e 9a33 ff75 9433 2f8a 9a33
00000030: 1270 ad33 358d a933 de8f a333 f21e 9f33
00000040: fd7a 9f33 3ff6 9533 4ac6 8533 ff89 7033
00000050: 31a0 5133 940c 3333 03b6 1833 4d40 0033
00000060: d3f1 f132 5a55 d632 ba3a c232 1bf7 c232
00000070: 27a8 c532 2ab5 ce32 1d63 e132 9b28 0b33
00000080: d1e1 5c33 465c a933 6716 e633 beef 0634
00000090: 19e5 ef33 0103 ce33 07e1 a333 1c13 6733
000000a0: 009b 2d33 44ff 2b33 87a3 5833 41eb 8533
000000b0: bb83 8f33 38b9 9733 1ff4 9b33 55f8 ab33
000000c0: 76bb bb33 8c94 d133 520a d833 ac0e d533
000000d0: 1028 c533 b3fc ab33 eb3d 9d33 9f99 9833
000000e0: 87b6 9c33 e47a 9433 4e81 8a33 3627 7b33
000000f0: 8894 4a33 f4b6 2233 92d0 1433 24ef 2433
00000100: 7b41 3433 b40c 5033 4686 4433 adef 2f33
00000110: 91c5 0633 8bad 2633 f193 6b33 5c63 8b33
00000120: adf5 0132 308e 0132 1e39 0432 e7f0 0532
00000130: 8779 0032 5a72 ee31 e750 ee31 ec5d e131
00000140: 85a2 e331 606d f731 f9d4 0c32 6c46 1832
00000150: 379e 4f32 a099 6932 6f84 9d32 a00d 9532
00000160: 9592 7d32 9674 5a32 772c 3132 83f8 1832
00000170: aac9 0732 07d6 f531 cbec f031 5ba8 0c32
00000180: c44c 4132 10df 7b32 42c7 6632 348c 6f32
00000190: 6bc5 7c32 b8aa 9a32 f4e5 9032 9e14 8832
000001a0: 5434 9c32 0f8e a732 053c ac32 79bd b732
000001b0: fef6 be32 46c5 a032 6da0 8c32 aa91 8e32
000001c0: 157f aa32 56ae cc32 4267 b532 6f98 8f32
000001d0: c343 5432 10b9 1932 4663 0232 34b1 e631
000001e0: 3a00 0232 bcf2 2632 3135 3d32 bbee 5632
000001f0: d2a6 6632 c081 6632 9794 4432 9fdd 3632
00000200: c7d6 4d32 3361 0032 e3c0 0d32 99fe 1232
00000210: 788e 2632 e510 d431 3a74 5031 67de 2431
00000220: af29 2331 060e 2731 9c64 3c31 08ab 6a31
00000230: 6be5 9a31 4497 ea31 53c6 2f32 5d10 5a32
00000240: b106 9233 3cff a133 9445 b533 2afb d033
00000250: a57a ee33 e0a7 f533 0f71 0334 f5d3 1234
00000260: be7d 3b34 a4e9 5c34 db34 9034 d6c3 a234
00000270: 2bb4 bc34 6b6c d034 63a4 df34 67f7 cf34
00000280: 119a d134 fb0f e434 3baf f834 f682 1035
00000290: 02fc 3435 b50f 3f35 a6a8 2e35 4518 1535
000002a0: f520 f134 5350 b734 e69b 4834 7073 8f33
000002b0: 6c02 2633 35d4 4733 859a 6033 83d9 7933
000002c0: fd00 7933 3451 8d33 dfe7 9a33 7ab1 ae33
000002d0: 430a d733 211f df33 7228 ad33 be29 8a33
000002e0: 3e37 6333 b348 4033 e62b 1133 a0c7 fb32
000002f0: 2d9f ff32 cfd9 3e33 5a2e ab33 c7cf ac33
00000300: 7a11 c433 f76b f233 446d f433 6336 ee33
00000310: 227f fb33 c704 fb33 e800 0b34 0237 d033
00000320: 1174 ae33 8e9e 8733 2028 3f33 ab32 0a33
00000330: fc0c d332 cd4a cf32 05a9 df32 ec54 ef32
00000340: 08ce 0833 f07b 2d33 3593 3333 a658 4833
00000350: ca6f 8133 678c a433 e290 f633 0787 0534
00000360: 1b38 3f34 31ce 3134 b12d 1e34 2c22 1734
00000370: a25c 0b34 7a28 0034 d1e1 1034 ce66 1534
00000380: 69b9 1f34 e254 5f34 fd28 5434 4221 5334
00000390: e09f 3134 50f8 3034 b7bf 3434 ed25 3c34
000003a0: 7a5a 7e34 88fe 8b34 1416 8a34 e7a1 9934
000003b0: b1c5 9834 f0b4 8134 55ea 6834 be58 5134
000003c0: a26b 3534 084c 0e34 070b c533 5ee1 ac33
000003d0: d8be b633 f9fd bc33 b34b b633 f30c 1234
000003e0: 077e 3934 40a6 7a34 5af4 9634 9598 9734
000003f0: a0e7 9834 0066 8a34 5a34 5a34 b269 1334
5.6787893e-08 5.886734e-08 6.1993354e-08 6.448594e-08 5.0588035e-08 5.0964204e-08 5.124503e-08 6.49675e-08
7.7795235e-08 7.191253e-08 6.9132504e-08 7.196319e-08 8.076326e-08 7.895361e-08 7.616448e-08 7.4096434e-08
7.426386e-08 6.983145e-08 6.229364e-08 5.600486e-08 4.8807298e-08 4.1688125e-08 3.5555797e-08 2.9860804e-08
2.8166061e-08 2.4951692e-08 2.2611278e-08 2.2696943e-08 2.3010285e-08 2.406394e-08 2.6238519e-08 3.240039e-08
5.142812e-08 7.88646e-08 1.07142846e-07 1.256694e-07 1.11709774e-07 9.593169e-08 7.631211e-08 5.380126e-08
4.0420673e-08 4.0046203e-08 5.0440146e-08 6.2360876e-08 6.682918e-08 7.0651765e-08 7.262155e-08 8.007979e-08
8.741965e-08 9.7593414e-08 1.0060161e-07 9.921254e-08 9.180815e-08 8.008774e-08 7.322145e-08 7.105995e-08
7.2975176e-08 6.914141e-08 6.449646e-08 5.8476154e-08 4.716688e-08 3.788496e-08 3.464863e-08 3.8401723e-08
4.196907e-08 4.8440327e-08 4.5756927e-08 4.0963346e-08 3.1378992e-08 3.8807723e-08 5.4849753e-08 6.490765e-08
7.5646485e-09 7.541118e-09 7.696398e-09 7.796394e-09 7.478213e-09 6.939712e-09 6.935909e-09 6.5590395e-09
6.625046e-09 7.2010806e-09 8.197497e-09 8.8635765e-09 1.208496e-08 1.3597315e-08 1.833743e-08 1.7352079e-08
1.4759867e-08 1.2715779e-08 1.0312866e-08 8.9040695e-09 7.903887e-09 7.1547706e-09 7.0118396e-09 8.187352e-09
1.1251533e-08 1.4660841e-08 1.3433068e-08 1.39435095e-08 1.4713218e-08 1.8005593e-08 1.6868377e-08 1.584186e-08
1.8184586e-08 1.950596e-08 2.0050729e-08 2.1390166e-08 2.223123e-08 1.8716161e-08 1.6371098e-08 1.6597216e-08
1.9848395e-08 2.3828004e-08 2.111813e-08 1.671671e-08 1.2355431e-08 8.9478505e-09 7.589568e-09 6.7140267e-09
7.567047e-09 9.717663e-09 1.1013342e-08 1.25107205e-08 1.3425693e-08 1.3417264e-08 1.1442487e-08 1.0644185e-08
1.1981405e-08 7.472681e-09 8.2511376e-09 8.556207e-09 9.694865e-09 6.1719327e-09 3.033405e-09 2.3991562e-09
2.3743316e-09 2.430967e-09 2.741479e-09 3.4148702e-09 4.5080717e-09 6.8274932e-09 1.0231434e-08 1.2692991e-08
6.799872e-08 7.5435736e-08 8.4411255e-08 9.731441e-08 1.11050475e-07 1.1439238e-07 1.2241456e-07 1.3674419e-07
1.7461477e-07 2.0574095e-07 2.6860548e-07 3.031734e-07 3.5148818e-07 3.8821904e-07 4.1656594e-07 3.8736763e-07
3.9041382e-07 4.2479937e-07 4.6321097e-07 5.3834754e-07 6.7421945e-07 7.11759e-07 6.5065467e-07 5.554214e-07
4.4913727e-07 3.414485e-07 1.8683167e-07 6.6799544e-08 3.865209e-08 4.65263e-08 5.22946e-08 5.8172656e-08
5.797573e-08 6.580595e-08 7.213361e-08 8.134789e-08 1.0013584e-07 1.0389909e-07 8.063297e-08 6.4337186e-08
5.29028e-08 4.4769603e-08 3.380037e-08 2.9311025e-08 2.9758292e-08 4.4435918e-08 7.971239e-08 8.0471686e-08
9.13014e-08 1.1288642e-07 1.1382011e-07 1.10926315e-07 1.17112236e-07 1.1688967e-07 1.2945713e-07 9.6957606e-08
8.123619e-08 6.315268e-08 4.4507146e-08 3.217671e-08 2.4569538e-08 2.4131987e-08 2.6037478e-08 2.786188e-08
3.1852352e-08 4.0392422e-08 4.181057e-08 4.6646754e-08 6.027365e-08 7.662384e-08 1.1481622e-07 1.2435713e-07
1.7808672e-07 1.6559422e-07 1.4731519e-07 1.4075403e-07 1.2979083e-07 1.1935654e-07 1.3493197e-07 1.3914106e-07
1.4875481e-07 2.0799374e-07 1.975895e-07 1.9663005e-07 1.6542572e-07 1.6481613e-07 1.6833552e-07 1.7522662e-07
2.3688509e-07 2.6075963e-07 2.5720567e-07 2.861627e-07 2.8456046e-07 2.4159772e-07 2.1691933e-07 1.9496926e-07
1.6896095e-07 1.325244e-07 9.175533e-08 8.050368e-08 8.50975e-08 8.8006296e-08 8.488805e-08 1.360202e-07
1.7275316e-07 2.3343546e-07 2.8117466e-07 2.823696e-07 2.8480736e-07 2.5778718e-07 2.0321878e-07 1.3728894e-07

exp_avg f4 [64]
00000000: 3e16 0338 35ff b6b7 d388 6eb9 5589 76b9
00000010: 8f92 5739 c546 5eb9 b320 eeb8 e3b9 b338
00000020: b6a0 d138 9727 87b9 982c f2b8 4ec4 3639
00000030: f2ab 3fb8 6bf3 8fb8 5ed4 9d37 3de3 bc38
00000040: 54e6 62b8 7e50 c737 627d 4e39 dc34 3339
00000050: 3766 5cb7 1b42 4fb9 d256 a238 3ada d8b6
00000060: da4a 69b9 796f 3fb8 aa93 c437 b613 71b9
00000070: 9df4 d538 dc39 efb8 c268 d9b8 c4e1 7eb7
00000080: 14cc 6137 deb4 1b39 9d96 5db8 b83f b938
00000090: 9c63 5f37 eeff 4e38 2d59 cb38 7f5e 33b7
000000a0: f58e e938 4965 61b8 14ad 7939 1243 3338
000000b0: 6d20 8ab9 57f3 33b9 af34 b238 163f 29b9
000000c0: 5adb 0638 5124 9938 cd4e ae37 d3b6 3eb9
000000d0: 475c d738 903b 1bb9 931d abb8 2817 6d38
000000e0: fb1d 7b39 9afd 5139 c951 2d39 cbd6 af39
000000f0: 67fa 1c37 4e35 eb38 7ff7 56b9 0305 19b9
3.125355e-05 -2.181493e-05 -0.0002274842 -0.00023511548 0.00020558595 -0.00021197934 -0.00011354815 8.570009e-05
9.995831e-05 -0.00025778703 -0.000115477655 0.00017430002 -4.5698085e-05 -6.8641115e-05 1.881475e-05 9.006865e-05
-5.409711e-05 2.376013e-05 0.000196924 0.00017090462 -1.3136821e-05 -0.00019765685 7.7409335e-05 -6.4627066e-06
-0.00022248496 -4.5641766e-05 2.3433782e-05 -0.00022990894 0.00010202194 -0.00011407185 -0.00010366879 -1.5192145e-05
1.3458561e-05 0.0001484933 -5.2830776e-05 8.833356e-05 1.3315028e-05 4.935258e-05 9.6964046e-05 -1.0691233e-05
0.000111369336 -5.373851e-05 0.00023810967 4.273939e-05 -0.0002634557 -0.00017161421 8.4975145e-05 -0.00016140597
3.2152377e-05 7.302373e-05 2.077911e-05 -0.0001818792 0.00010269187 -0.0001480414 -8.159424e-05 5.652677e-05
0.00023948394 0.00020026267 0.00016529033 0.00033538634 9.356626e-06 0.00011215602 -0.0002050083 -0.00014593084
