rl_planner/ppo_with_noise/noise_reward_564.pt (torch, 231269 bytes, 30 tensors)

critic.0.weight f4 [64, 72]
-0.024367783 -0.15583284 0.013645745 0.13804017 -0.06957631 0.043554127 0.02671099 0.08153331
-0.12212496 0.039348666 -0.08353941 0.012762699 0.21193354 0.043644663 0.03190845 0.010786299
-0.085522555 -0.010658226 0.0614755 0.0023046518 -0.18556894 -0.12805481 0.065948494 -0.04213097
0.11354261 -0.20707823 -0.2471691 -0.25793192 -0.12209821 -0.18326369 -0.3259977 0.20128334
-0.01884854 -0.00441868 -0.2001728 -0.1391469 -0.0368776 -0.28687656 0.05146034 -0.15942757
0.12194773 -0.25667813 -0.18390225 -0.034828845 -0.33235642 0.07384209 -0.087390006 0.05734316
-0.09450633 0.26309016 -0.40034848 0.09734224 -0.11739221 -0.06185824 0.0033103987 -0.034959264
-0.36425054 0.009358887 0.09225669 -0.17368796 0.13504976 -0.053604245 -0.30536798 -0.18900776
0.096289955 0.08540496 0.03855251 0.027493274 -0.14659128 0.09998992 0.00029659222 0.16528146
0.38548526 -0.0011518227 0.033489324 -0.116897084 0.09880287 -0.09634425 0.045153327 -0.12091769
-0.12441769 -0.15413933 -0.093019195 -0.20941119 -0.20781654 0.06762855 0.09299683 0.27833378
0.07649836 -0.076023765 0.014000413 -0.2054286 -0.13829033 -0.2776269 -0.104786724 -0.16766673
-0.10283879 0.02297606 -0.21152103 0.28354296 -0.048658676 0.19225526 -0.14049692 0.14475614
0.25505432 -0.1706867 0.122062325 0.009384558 0.23199928 0.119961426 -0.06187095 -0.10695459
-0.020672526 0.13703886 0.054451343 -0.006472326 -0.05846297 -0.010533795 -0.007420079 -0.23066191
-0.042322427 0.1318291 -0.06312228 0.10111446 0.2527165 -0.23217547 0.06333276 -0.1288045
0.37003672 0.21874675 -0.2114628 -0.06662502 -0.2033652 -0.33486778 -0.09765068 -0.4815915
-0.25828522 -0.31239775 -0.35035816 0.010544522 -0.10609383 -0.050819963 0.18103112 0.078578874
0.14016172 -0.09109102 0.17819475 -0.03988834 -0.23485638 -0.10070895 0.115096144 0.074573815
0.14215678 -0.06512872 0.1210007 -0.08081679 -0.069017045 -0.02809723 -0.21399742 -0.09788925
0.28239337 -0.24790026 0.03734292 0.07803912 -0.029938756 -0.02505059 0.05548371 0.26699987
-0.30159152 0.15392761 0.13856177 -0.09880728 -0.058925834 0.26222074 0.07926873 0.018162116
-0.15015413 0.25154117 -0.07422383 -0.12352133 -0.027915012 0.11057777 0.0613877 0.2552533
0.11477192 0.08357193 -0.17312305 -0.13512811 -0.09051156 -0.46417546 0.24691366 -0.1681115
0.1736013 -0.00019992498 0.04092625 0.27174157 0.20514841 -0.13349344 0.15532023 -0.08758939
0.18757531 0.13092156 0.11118926 -0.06209891 0.22562748 0.0017279121 0.006754485 0.05116599
-0.16005696 -0.18328843 -0.093499854 -0.058327798 -0.14608668 -0.037489038 -0.09782821 -0.03703736
-0.26097178 0.16560988 0.18467979 -0.016440898 0.06888941 0.26196712 -0.09806779 0.08074608
0.17474093 -0.15976098 0.11527417 0.14197719 0.19406612 0.17550835 0.09383466 0.31636578
0.05489359 0.22906432 -0.15062194 0.21388547 0.09556272 -0.1754019 -0.17375973 -0.07339402
-0.17992698 0.15698493 -0.017209403 -0.0054430384 0.23447706 -0.18505114 -0.33359802 -0.40090758
-0.11686177 0.052956358 0.07679794 0.046051726 -0.027811887 -0.015459544 -0.32041854 -0.039986406
00000000: f29e c7bc a592 1fbe 6792 5f3c 675a 0d3e
00000010: 067e 8ebd d065 323d 02d1 da3c f0fa a63d
00000020: a71c fabd 112c 213d b616 abbd a41a 513c
00000030: 1b05 593e bfc4 323d 6fb2 023d 04b9 303c
00000040: 7326 afbd d79f 2ebc bccd 7b3d a409 173b
00000050: c905 3ebe cd20 03be 0110 873d 8691 2cbd
00000060: 0789 e83d 510c 54be e619 7dbe a70f 84be
00000070: a00e fabd 7aa9 3bbe 2ce9 a6be 381d 4e3e
00000080: 4168 9abc 93ca 90bb 19fa 4cbe 867c 0ebe
00000090: f70c 17bd 7ce1 92be 14c8 523d fb40 23be
000000a0: bbbf f93d 516b 83be df50 3cbe b1a8 0ebd
000000b0: 9f2a aabe 863a 973d 88f9 b2bd a9e0 6a3d
000000c0: 898c c1bd c1b3 863e 7afa ccbe 5e5b c73d
000000d0: 546b f0bd 115f 7dbd 46f3 583b 7231 0fbd
000000e0: 0c7f babe 0456 193c 13f1 bc3d 42db 31be
000000f0: 7c4a 0a3e 2090 5bbd 3159 9cbe 408b 41be
00000100: ab33 c53d cce8 ae3d 3de9 1d3d 9339 e13c
00000110: 061c 16be 84c7 cc3d ef7f 9b39 8b3f 293e
00000120: 535e c53e c2f8 96ba 1a2c 093d bd67 efbd
00000130: 2959 ca3d 2250 c5bd b2f2 383d b2a3 f7bd
00000140: b4ce febd b3d6 1dbe d980 bebd e36f 56be
00000150: dccd 54be d680 8a3d 1f75 be3d c481 8e3e
00000160: 2cab 9c3d 59b2 9bbd fd61 653c e05b 52be
00000170: fb9b 0dbe 1d25 8ebe 6c9a d6bd d4b0 2bbe
00000180: 259d d2bd 4a38 bc3c f898 58be 8b2c 913e
00000190: 524e 47bd 90de 443e 6dde 0fbe f43a 143e
000001a0: 7b96 823e 7fc8 2ebe d0fb f93d b0c1 193c
000001b0: 3891 6d3e 56ae f53d 656c 7dbd 020b dbbd
000001c0: 6e59 a9bc ea53 0c3e 5f08 5f3d ce15 d4bb
000001d0: de76 6fbd f095 2cbc 2224 f3bb a332 6cbe
000001e0: 485a 2dbd 35fe 063e 4146 81bd 1915 cf3d
000001f0: 0f64 813e 68bf 6dbe 9bb4 813d 54e5 03be
00000200: 7475 bd3e 26ff 5f3e b489 58be b372 88bd
00000210: f83e 50be ca73 abbe 14fd c7bd 2993 f6be
00000220: f63d 84be 99f2 9fbe 2562 b3be eec2 2c3c
00000230: b947 d9bd 9828 50bd 3960 393e f6ed a03d
00000240: 8e86 0f3e ee8d babd af78 363e f561 23bd
00000250: 317e 70be 7e40 cebd 87b7 eb3d 28ba 983d
00000260: 8c91 113e 3562 85bd 37cf f73d 4683 a5bd
00000270: cf58 8dbd 292c e6bc 2422 5bbe 297a c8bd
00000280: dd95 903e 91d9 7dbe e4f4 183d f9d2 9f3d
00000290: 1f42 f5bc e536 cdbc e342 633d 35b4 883e
000002a0: 346a 9abe 339f 1d3e 23e3 0d3e 795b cabd
000002b0: 375c 71bd cc41 863e a557 a23d b8c8 943c
000002c0: 01c2 19be 01ca 803e aa02 98bd c0f8 fcbd
000002d0: 06ae e4bc 9976 e23d ab71 7b3d 8fb0 823e
000002e0: 8a0d eb3d c327 ab3d 2b47 31be 065f 0abe
000002f0: 205e b9bd 68a8 edbe efd6 7c3e 6c25 2cbe
00000300: 8ac4 313e f4a2 51b9 49a2 273d b621 8b3e
00000310: 6d12 523e 81b2 08be 440c 1f3e 1162 b3bd
00000320: be13 403e 4d10 063e 32b7 e33d 6d5b 7ebd
00000330: e40a 673e 1c7b e23a ba54 dd3b 6e93 513d
00000340: f9e5 23be f6af 3bbe da7c bfbd 21e9 6ebd
00000350: bf97 15be 1b8e 19bd 285a c8bd 7db4 17bd
00000360: 189e 85be a395 293e b31c 3d3e 10af 86bc
00000370: e415 8d3d 8e20 863e c4d7 c8bd 335e a53d
00000380: 49ef 323e 6298 23be dd14 ec3d 7862 113e
00000390: 45b9 463e 76b8 333e 632c c03d b2fa a13e
000003a0: 1ad8 603d d68f 6a3e a33c 1abe cb04 5b3e
000003b0: 63b6 c33d 8e9c 33be 12ee 31be 9b4f 96bd
000003c0: c73e 38be a8c0 203e bcfa 8cbc 845b b2bb
000003d0: c11a 703e 0c7e 3dbe 5ccd aabe c243 cdbe
000003e0: 3955 efbd c4e8 583d 3d48 9d3d bca0 3c3d
000003f0: c1d5 e3bc 074a 7dbc e60d a4be c9c8 23bd

critic.0.bias f4 [64]
0.39527434 0.2609699 0.46734762 -0.18006653 -0.3071644 0.24800831 0.57634205 -0.2553731
-0.17971154 -0.06375011 0.33678547 -0.22303694 0.4262638 -0.061157126 0.1914052 -0.18882267
0.32429665 0.29322705 0.08723268 -0.31384912 -0.1537903 0.4403795 -0.24520223 0.4548726
0.38224494 0.29574576 -0.2011376 0.23403448 -0.21069075 0.43935135 0.29455864 0.22788744
-0.38363326 0.20989041 0.33367372 -0.2626413 -0.2017063 -0.2501938 -0.35392746 -0.2161834
-0.4450788 0.14821373 -0.22486454 0.32727957 0.38298213 0.20134121 -0.2330209 0.48361436
-0.20488599 0.013548261 0.15244688 0.27909246 -0.24328028 -0.11752621 0.27792752 -0.2390643
0.05236575 -0.3653134 -0.27376842 -0.43866146 0.2487647 -0.29515854 0.31850395 0.25269285
00000000: 6661 ca3e d99d 853e 3048 ef3e 5c63 38be
00000010: a744 9dbe e4f5 7d3e 278b 133f 43c0 82be
00000020: 4d06 38be 6b8f 82bd 256f ac3e cc63 64be
00000030: 403f da3e e57f 7abd baff 433e bb5a 41be
00000040: 360a a63e db21 963e 0ca7 b23d d5b0 a0be
00000050: 347b 1dbe 6c79 e13e 4b16 7bbe 10e5 e83e
00000060: 9cb5 c33e fd6b 973e 04f7 4dbe bca6 6f3e
00000070: 51bf 57be a9f2 e03e 64d0 963e 535b 693e
00000080: 946b c4be 83ed 563e 48d7 aa3e ec78 86be
00000090: 198c 4ebe 6719 80be fb35 b5be 2e5f 5dbe
000000a0: 5ee1 e3be 57c5 173e e442 66be 3091 a73e
000000b0: 3c16 c43e 642c 4e3e 089d 6ebe 4d9c f73e
000000c0: a2cd 51be 86f9 5d3c 091b 1c3e 35e5 8e3e
000000d0: 771e 79be 95b1 f0bd 844c 8e3e 46cd 74be
000000e0: 787d 563d 5c0a bbbe 602b 8cbe 3c98 e0be
000000f0: 2cbc 7e3e 051f 97be f312 a33e f560 813e

critic.2.weight f4 [64, 64]
-0.13909848 0.117210336 -0.10556117 -0.16337696 0.10660988 -0.032636344 -0.24575654 0.056923702
0.06331422 -0.098318666 0.32914886 -0.04094856 0.04301597 0.21736836 -0.2327175 -0.17944498
0.0044160997 -0.16718332 -0.18458785 0.026963606 0.11307389 0.09916092 0.16097587 -0.0798885
-0.09928054 0.31101334 -0.09014814 -0.17500871 0.03868551 0.24457444 -0.11290517 -0.14496756
0.1547959 -0.17571661 -0.1079461 0.011704429 0.6463745 0.054586772 -0.006084551 -0.016262552
0.10196997 0.12448637 0.00033009422 -0.12555233 -0.19220312 -0.10873737 0.033714518 -0.160619
0.14877899 -0.034165308 0.102634154 0.42716524 0.13581064 0.17286937 -0.22244173 -0.054119647
0.4727798 -0.17492086 -0.08561743 0.36878592 -0.090706125 0.13482676 -0.17612053 -0.1288538
-0.19985542 -0.039161053 0.15986347 0.26714092 -0.17391066 0.07363199 0.026224801 -0.218063
0.23217812 -0.04033963 -0.27288985 0.052191943 -0.038556162 -0.018176254 0.11460173 0.111931555
-0.07491043 -0.17449638 -0.11433973 0.09710051 0.41939035 -0.2595103 -0.037294384 -0.10075816
-0.34020728 -0.14646626 -0.2019209 0.018164784 -0.01431305 -0.04545194 -0.36852658 0.34558457
-0.018157268 0.2136236 -0.08236289 0.056670703 0.28113908 -0.00860943 -0.10621821 0.12028588
-0.3715539 0.13706371 0.31517452 0.16992399 0.13561979 -0.16922058 0.1853169 0.35382128
0.09493609 0.052771203 -0.035976317 0.21529146 0.09853795 0.15006581 -0.14396735 0.07635556
-0.0012414913 -0.032742027 -0.12148268 0.14345805 -0.053182147 0.18804616 0.12575234 -0.0044664694
-0.20952694 -0.06860594 -0.3076068 -0.18892846 0.14282039 0.05467006 -0.11242536 0.045890585
0.1310525 0.1231091 -0.2828018 0.5057175 0.27947763 0.04335663 0.10880543 0.105498955
-0.2804411 0.37226108 -0.034886632 -0.13934088 -0.07826475 0.30844074 -0.05789776 -0.015918065
0.15977812 0.039641116 -0.10241095 -0.16259113 -0.11997706 0.23242803 0.18642113 0.29739794
0.26392388 -0.0009788945 -0.31358406 -0.44742504 -0.11404231 0.21037383 0.1140912 0.18976246
-0.07899305 -0.067261316 -0.20431252 -0.028610172 -0.13460684 -0.27951792 0.004644322 -0.07835258
-0.11596746 -0.34487623 0.19204828 -0.031396084 -0.06488345 -0.3164156 -0.072523214 -0.13075203
-0.04130015 0.09428239 -0.24372002 0.11431492 0.13246253 -0.047666617 0.35871002 0.03400953
-0.1222718 -0.25717303 0.19237414 0.08925881 -0.260908 0.04847409 0.031604756 -0.06723329
0.11695631 -0.24136417 -0.27432218 -0.12711564 -0.15623197 0.060382448 -0.14578222 0.28262943
0.12367382 -0.30656746 0.1763997 0.23960528 -0.43738967 -0.06463472 0.01913513 0.15379004
-0.33239788 -0.25881886 -0.054363653 0.19961077 0.23160313 -0.10375223 -0.3227527 -0.21852934
-0.15947455 -0.22956586 -0.15860774 0.10106434 -0.011963488 -0.22665714 -0.11767253 -0.05874235
-0.24915461 0.027581267 -0.12981746 -0.06482527 -0.2875252 0.20024578 -0.063601285 -0.14993198
-0.028758101 -0.045295045 -0.03563882 -0.07393719 0.1981915 -0.3563205 -0.361094 -0.083919376
-0.18552747 -0.41813463 0.099191055 -0.10830461 0.30253562 -0.0066283983 -0.11826382 -0.43350968
00000000: d56f 0ebe f90b f03d 7430 d8bd 4a4c 27be
00000010: 4856 da3d b0ad 05bd 9aa7 7bbe d428 693d
00000020: e3aa 813d 4c5b c9bd 3386 a83e adb9 27bd
00000030: 8431 303d d095 5e3e 7f4d 6ebe 6dc0 37be
00000040: eeb4 903b 1b32 2bbe 9904 3dbe c8e2 dc3c
00000050: 4993 e73d e114 cb3d dcd6 243e 959c a3bd
00000060: 9953 cbbd 243d 9f3e 979f b8bd 7c35 33be
00000070: b374 1e3d b971 7a3e d33a e7bd 6072 14be
00000080: d182 1e3e 0eef 33be d812 ddbd efc3 3f3c
00000090: cd78 253f 6196 5f3d ea60 c7bb 0b39 85bc
000000a0: a2d5 d03d b6f2 fe3d 7f10 ad39 ca90 00be
000000b0: e5d0 44be b3b1 debd 3c18 0a3d 4f79 24be
000000c0: 8559 183e ecf0 0bbd db31 d23d 67b5 da3e
000000d0: f211 0b3e ab04 313e c4c7 63be 90ac 5dbd
000000e0: 3210 f23e 741e 33be 3158 afbd 82d1 bc3e
000000f0: 22c4 b9bd 0710 0a3e f158 34be 40f2 03be
00000100: e6a6 4cbe 5767 20bd 40b3 233e b2c6 883e
00000110: a315 32be 5ecc 963d 65d5 d63c e84b 5fbe
00000120: 1ac0 6d3e 2b3b 25bd 38b8 8bbe 38c7 553d
00000130: 11ed 1dbd 5ee6 94bc 50b4 ea3d 5f3c e53d
00000140: a46a 99bd 2eaf 32be f32a eabd a2dc c63d
00000150: 55ba d63e 89de 84be ffc1 18bd 4b5a cebd
00000160: a62f aebe 40fb 15be 5ac4 4ebe 50ce 943c
00000170: 4881 6abc d02b 3abd 84af bcbe 76f0 b03e
00000180: 8dbe 94bc 25c0 5a3e e0ad a8bd 8a1f 683d
00000190: 76f1 8f3e 910e 0dbc ef88 d9bd 7258 f63d
000001a0: 503c bebe 6e5a 0c3e 8e5e a13e 8e00 2e3e
000001b0: eadf 0a3e 2948 2dbe b7c3 3d3e 1028 b53e
000001c0: da6d c23d 9e26 583d e75b 13bd 5d75 5c3e
000001d0: 44ce c93d daaa 193e 2d6c 13be 4e60 9c3d
000001e0: 89b9 a2ba 811c 06bd e9cb f8bd abe6 123e
000001f0: 86d5 59bd 2c8f 403e 39c5 003e 765b 92bb
00000200: 3b8e 56be 4581 8cbd a37e 9dbe 7676 41be
00000210: 823f 123e b6ed 5f3d 443f e6bd c4f7 3b3d
00000220: a032 063e a020 fc3d 66cb 90be b476 013f
00000230: b117 8f3e b996 313d 62d5 de3d d60f d83d
00000240: fa95 8fbe 0199 be3e 49e5 0ebd 60af 0ebe
00000250: 4549 a0bd f2eb 9d3e 3426 6dbd 9a66 82bc
00000260: e09c 233e b95e 223d d5bc d1bd 4a7e 26be
00000270: 88b6 f5bd 9d01 6e3e 2ee5 3e3e 8b44 983e
00000280: 0821 873e 404e 80ba 178e a0be e514 e5be
00000290: 048f e9bd 3d6c 573e a6a8 e93d 1751 423e
000002a0: 1cc7 a1bd 4dc0 89bd 4d37 51be e15f eabc
000002b0: 60d6 09be f91c 8fbe 662f 983b 5177 a0bd
000002c0: 5980 edbd 9e93 b0be 4ea8 443e 2e99 00bd
000002d0: 9de1 84bd 3a01 a2be 0d87 94bd dce3 05be
000002e0: 592a 29bd 2017 c13d be91 79be f11d ea3d
000002f0: 42a4 073e 123e 43bd d7a8 b73e 944d 0b3d
00000300: a369 fabd 2fac 83be bafd 443e 53cd b63d
00000310: bc95 85be c48c 463d fd73 013d 9bb1 89bd
00000320: ca86 ef3d 2b28 77be f573 8cbe 9a2a 02be
00000330: 46fb 1fbe 9653 773d ef47 15be ceb4 903e
00000340: b348 fd3d 69f6 9cbe 1fa2 343e 165b 753e
00000350: 8af1 dfbe 355f 84bd 47c1 9c3c 237b 1d3e
00000360: 0e30 aabe e883 84be 6cac 5ebd c466 4c3e
00000370: 5f29 6d3e 0d7c d4bd d83f a5be 28c6 5fbe
00000380: 4c4d 23be 5013 6bbe 116a 22be d2fa ce3d
00000390: 8102 44bc cf18 68be 4cfe f0bd d29b 70bd
000003a0: 6322 7fbe 1cf2 e13c deee 04be 1cc3 84bd
000003b0: 8136 93be 3b0d 4d3e 6441 82bd c587 19be
000003c0: 1c96 ebbc 4c87 39bd 03fa 11bd 626c 97bd
000003d0: b6f2 4a3e a46f b6be 50e1 b8be ecdd abbd
000003e0: eafa 3dbe be15 d6be ae24 cb3d cfce ddbd
000003f0: f3e5 9a3e 0933 d9bb 4d34 f2bd fbf4 ddbe

critic.2.bias f4 [64]
-0.30792993 -0.19763519 0.12918094 0.09915872 -0.14976422 -0.34393406 0.24410729 -0.21617524
-0.2124119 0.2508585 0.12906133 0.24465287 0.20353249 0.2629491 0.22572656 -0.34404898
0.33549798 0.19690405 0.22649273 -0.17432983 0.24002284 0.14627661 0.24245104 0.25089633
0.19119045 -0.20700951 -0.2632204 0.3159069 -0.22294262 -0.22069664 -0.07568325 0.21545833
0.05335766 -0.3645951 -0.2510466 0.14411952 0.3214116 -0.34380722 0.21923445 0.15110388
-0.23055263 -0.41974702 -0.105500326 -0.2939911 0.25504157 -0.20125102 0.11823781 -0.22362743
-0.3193405 -0.36373296 -0.272665 0.29598898 0.29799968 -0.2641114 0.09202628 -0.17710146
0.09494301 0.021775868 0.1657484 0.22171845 0.20754744 0.1745074 0.14755605 0.17203948
00000000: fea8 9dbe e160 4abe 0248 043e ba13 cb3d
00000010: cb5b 19be 2018 b0be 43f7 793e 0b5d 5dbe
00000020: 8182 59be 8670 803e a728 043e 4886 7a3e
00000030: d26a 503e 44a1 863e dd24 673e 3027 b0be
00000040: 64c6 ab3e 37a1 493e b6ed 673e 8583 32be
00000050: 8cc8 753e 89c9 153e 1645 783e 7c75 803e
00000060: 6ec7 433e 4dfa 53be d3c4 86be 8dbe a13e
00000070: 124b 64be 4dfe 61be d2ff 9abd 1ca1 5c3e
00000080: 908d 5a3d 35ac babe 2e89 80be 1194 133e
00000090: 1090 a43e 8007 b0be ff7e 603e faba 1a3e
000000a0: fd15 6cbe 15e9 d6be 8e10 d8bd 0086 96be
000000b0: cf94 823e bf14 4ebe aa26 f23d 97fe 64be
000000c0: 9980 a3be 353b babe bf9a 8bbe de8b 973e
000000d0: 6a93 983e 9c39 87be 4678 bc3d 165a 35be
000000e0: 7b71 c23d 4e63 b23c f3b9 293e 290a 633e
000000f0: 5187 543e 11b2 323e ef18 173e 1e2b 303e

critic.4.weight f4 [1, 64]
-0.11215351 -0.2072498 0.12256115 0.10638984 -0.18132731 -0.25297165 0.16736895 -0.32781035
-0.14604492 0.059980012 0.20139316 0.19347864 0.29902986 0.13587408 0.13165408 -0.35837305
0.22423844 0.21997343 0.1314642 -0.09787262 0.12310433 0.06429946 0.11951169 0.2261733
0.14304647 -0.14183435 -0.13117097 0.14825775 -0.1282833 -0.11370784 -0.12204008 0.24936484
0.10886687 -0.27964398 -0.27957064 0.16689044 0.269623 -0.29568005 0.1251873 0.30137762
-0.20508288 -0.23266628 -0.12403407 -0.23725928 0.16283906 -0.12728071 0.32923144 -0.1719204
-0.17540914 -0.14759512 -0.21303257 0.4642776 0.12140964 -0.17192918 0.14896247 -0.1233336
0.17584859 0.14575268 0.22099878 0.21072812 0.16586772 0.106260955 0.21790136 0.1610452
00000000: bdb0 e5bd 4b39 54be 5701 fb3d ebe2 d93d
00000010: dead 39be 8085 81be c462 2b3e c2d6 a7be
00000020: cd8c 15be 9aad 753d 023a 4e3e 441f 463e
00000030: 711a 993e 9322 0b3e 54d0 063e ac7c b7be
00000040: c39e 653e b740 613e 8d9e 063e 7171 c8bd
00000050: 1f1e fc3d 6faf 833d 8cc2 f43d f999 673e
00000060: c67a 123e 063d 11be af51 06be e1d0 173e
00000070: b35c 03be a8df e8bd 26f0 f9bd 7f59 7f3e
00000080: 98f5 de3d 7f2d 8fbe e223 8fbe 54e5 2a3e
00000090: 070c 8a3e 6063 97be 1931 003e 2b4e 9a3e
000000a0: 3f01 52be 1240 6ebe 9305 febd 19f4 72be
000000b0: 48bf 263e e055 02be 0691 a83e e70b 30be
000000c0: 749e 33be 2d23 17be 3625 5abe cbb5 ed3e
000000d0: 9ea5 f83d 340e 30be 9e89 183e 5496 fcbd
000000e0: a711 343e 3140 153e 814d 623e 1dc9 573e
000000f0: 3ad9 293e 589f d93d 8921 5f3e 08e9 243e

actor_mean.0.weight f4 [64, 72]
0.11789609 -0.28588456 -0.11074235 0.20022228 -0.038764756 -0.1840685 -0.20270997 -0.18476792
-0.22898853 0.049460936 0.24702276 0.11279549 -0.012925938 0.016662924 -0.110032596 -0.2991912
0.30586225 -0.2704249 0.15445565 -0.15690246 0.090949975 -0.07283772 0.07802928 0.075211376
-0.17837007 -0.3522578 0.0030214617 0.12698506 0.21810286 0.15819359 -0.17297398 -0.27665538
-0.088570364 0.1621519 0.25662675 -0.110005915 -0.0059383293 -0.17949218 -0.09421182 -0.04674459
0.09115679 0.0046238233 -0.0909923 0.18912673 0.40797433 -0.014761856 0.316263 -0.034454215
0.19152589 0.27527797 0.17801258 0.12209704 -0.12923425 -0.018472003 0.001016623 0.31783423
0.017904103 -0.11391991 -0.058022138 0.10488025 -0.08248217 -0.054699194 0.19473335 0.08002614
0.25677684 -0.36165953 -0.2028744 -0.0608225 0.12666158 0.068508886 -0.15635769 0.03501958
0.5656112 0.009759347 -0.046358824 -0.38956413 0.32589787 0.09421529 -0.13762537 -0.08318532
0.13955829 0.12116045 0.1801621 -0.072028145 -0.049577795 0.017811285 0.06447023 -0.035708666
0.16310562 -0.09481771 0.1123532 0.19103263 -0.00012891309 0.17906639 0.24305059 -0.035732225
-0.0760394 0.29556963 -0.173588 0.159909 0.041638087 -0.059779987 0.35101795 0.0729853
-0.09453888 -0.28666067 0.041416764 0.00029716964 0.2889887 0.023103843 0.19113265 0.10445488
0.27007955 0.034228954 0.074942105 -0.12633355 0.1057974 0.12141333 0.35936096 -0.2013144
-0.084013514 0.07942891 0.20454116 0.03606239 -0.18786053 -0.33101964 0.032878257 -0.12065917
0.15941758 0.06195811 0.22747813 0.27663922 0.0023193287 0.13722593 0.026341906 -0.08468078
-0.281059 0.020295896 -0.06083721 -0.1381729 -0.011653587 -0.18413271 0.022603616 -0.009162967
0.18391274 -0.05402591 0.2058129 0.25227544 -0.062490076 0.26331872 0.12146673 -0.10977593
-0.041308228 0.03199147 0.037788976 -0.22381774 0.071786426 0.040001836 0.25374904 0.12647495
0.075537615 -0.19300932 -0.14836073 0.08338458 0.023882106 -0.17342916 -0.092343085 -0.21071126
0.20523655 0.14100926 -0.2679054 -0.030283004 0.023928607 -0.16210827 0.13739046 -0.35372567
0.13135704 -0.0122664785 -0.18908149 -0.05320723 -0.08283476 -0.24622662 -0.23715702 0.08535967
-0.08087361 -0.01582329 0.42451817 0.08081383 0.06810685 0.035827912 0.35771406 -0.003290502
-0.19487678 0.23123296 0.08659514 -0.0505127 -0.05486054 0.06806971 0.24270412 0.16373108
-0.19025652 0.23215947 -0.054599736 0.01902312 0.1667487 0.13412523 -0.029380113 0.34401384
0.049761806 0.25669315 -0.33977932 0.30872205 0.09642823 -0.07996707 0.27755398 0.31939662
-0.20120122 0.4282498 0.146385 0.0006035504 -0.12578154 -0.07033452 -0.2846324 -0.028899105
0.0025134033 0.25555193 0.01771965 -0.06295978 -0.009622799 0.19507027 0.106568344 0.061142597
-0.17465463 -0.5471803 0.057826955 -0.06426838 -0.14662673 0.16215783 0.029205503 0.12514074
-0.08159013 0.026967978 -0.09336651 -0.031707264 -0.03477548 0.13617858 0.19534104 0.043615136
-0.0067531457 0.18853045 0.35578927 0.03965483 0.19263297 -0.24153969 -0.04850264 0.028075213
00000000: 8173 f13d 765f 92be e3cc e2bd 1207 4d3e
00000010: cbc7 1ebd 747c 3cbe 3493 4fbe cd33 3dbe
00000020: f87b 6abe 8d97 4a3d 89f3 7c3e 5201 e73d
00000030: 50c7 53bc af80 883c c558 e1bd 972f 99be
00000040: fa99 9c3e 2275 8abe 9f29 1e3e 0aab 20be
00000050: fb43 ba3d f12b 95bd d1cd 9f3d 6c08 9a3d
00000060: a5a6 36be 225b b4be b703 463b 5f08 023e
00000070: 5b56 5f3e 80fd 213e 1720 31be c6a5 8dbe
00000080: 6164 b5bd 260b 263e 9564 833e c84a e1bd
00000090: 5196 c2bb cccc 37be 20f2 c0bd 4177 3fbd
000000a0: 69b0 ba3d 7183 973b 2c5a babd 70aa 413e
000000b0: 03e2 d03e b6db 71bc 39ed a13e dd1f 0dbd
000000c0: 5d1f 443e 3cf1 8c3e ee48 363e 030e fa3d
000000d0: fc55 04be 9952 97bc 3540 853a 2bbb a23e
000000e0: a0ab 923c d74e e9bd 9fa8 6dbd 75cb d63d
000000f0: 69ec a8bd 430c 60bd 2e68 473e bfe4 a33d
00000100: 4178 833e 702b b9be 4fbe 4fbe 0421 79bd
00000110: 93b3 013e 634e 8c3d 3b1c 20be b170 0f3d
00000120: e5cb 103f abe5 1f3c c0e2 3dbd f374 c7be
00000130: 16dc a63e f2f3 c03d aaed 0cbe 115d aabd
00000140: 5ee8 0e3e f822 f83d 6a7c 383e 7e83 93bd
00000150: 1612 4bbd f9e8 913c f808 843d 4043 12bd
00000160: 2905 273e ca2f c2bd 6f19 e63d 0f9e 433e
00000170: d82c 07b9 2e5d 373e 41e2 783e f45b 12bd
00000180: 8cba 9bbd e754 973e 0dc1 31be 2fbf 233e
00000190: b38c 2a3d dcdb 74bd a0b8 b33e 5179 953d
000001a0: 9a9d c1bd 30c5 92be a0a4 293d 6fcd 9b39
000001b0: 54f6 933e 4544 bd3c 47b8 433e 71ec d53d
000001c0: de47 8a3e a933 0c3d 3f7b 993d 955d 01be
000001d0: 4fac d83d 8da7 f83d 29fe b73e 5d25 4ebe
000001e0: 470f acbd a0ab a23d 3d73 513e 28b6 133d
000001f0: 835e 40be 687b a9be 5aab 063d 281c f7bd
00000200: 5d3e 233e cac7 7d3d 07f0 683e a8a3 8d3e
00000210: e1ff 173b f484 0c3e fbca d73c 1e6d adbd
00000220: f7e6 8fbe 9443 a63c 7030 79bd 327d 0dbe
00000230: b0ee 3ebc 498d 3cbe 382b b93c 4520 16bc
00000240: 9f53 3c3e 464a 5dbd 9ec0 523e 3f2a 813e
00000250: 98f5 7fbd b6d1 863e 8dc3 f83d 34d2 e0bd
00000260: d132 29bd 7d09 033d 9dc8 1a3d 7a30 65be
00000270: c304 933d f7d8 233d 65eb 813e a682 013e
00000280: 77b3 9a3d 3ca4 45be e0eb 17be 89c5 aa3d
00000290: 68a4 c33c 6a97 31be 5f1e bdbd b1c4 57be
000002a0: 8829 523e bb64 103e e62a 89be 1014 f8bc
000002b0: ed05 c43c b6ff 25be 16b0 0c3e 881b b5be
000002c0: 7682 063e 57f9 48bc 949e 41be d3ef 59bd
000002d0: 45a5 a9bd d522 7cbe 4ad9 72be 0dd1 ae3d
000002e0: 10a1 a5bd d89f 81bc 725a d93e b981 a53d
000002f0: 9b7b 8b3d 4ac0 123d 4c26 b73e 76a5 57bb
00000300: c78d 47be 55c8 6c3e cb58 b13d 68e6 4ebd
00000310: 72b5 60bd 2268 8b3d 6e87 783e 1fa9 273e
00000320: 9bd2 42be 36bb 6d3e f9a3 5fbd 60d6 9b3c
00000330: 2cc0 2a3e 2058 093e 90ae f0bc 9522 b03e
00000340: 09d3 4b3d 496d 833e 8ef7 adbe d110 9e3e
00000350: 2a7c c53d c6c5 a3bd 8e1b 8e3e f487 a33e
00000360: b107 4ebe 8f43 db3e f3e5 153e 9537 1e3a
00000370: e0cc 00be 8b0b 90bd 57bb 91be d1bd ecbc
00000380: e9b7 243b b4d7 823e cd28 913c 0ff1 80bd
00000390: f2a8 1dbc 80c0 473e 8140 da3d a970 7a3d
000003a0: aad8 32be 0214 0cbf f5db 6c3d 249f 83bd
000003b0: 5125 16be b40c 263e 6140 ef3c e524 003e
000003c0: ba18 a7bd f3eb dc3c f136 bfbd 7adf 01bd
000003d0: bc70 0ebd 6672 0b3e 7b07 483e c9a5 323d
000003e0: 7e49 ddbb 200e 413e 032a b63e 1a6d 223d
000003f0: 9441 453e 2e56 77be b4aa 46bd fdfd e53c

actor_mean.0.bias f4 [64]
-0.0036625776 0.016110394 0.016856046 -0.03999031 -0.11252869 -0.08132601 0.037556548 -0.0036227931
0.034341414 0.023011759 0.035467453 0.014424464 -0.037491437 -0.033350848 -0.046511512 -0.020038677
-0.03205342 0.066500485 -0.12746032 -0.032751363 -0.08419728 0.035076637 0.04889853 0.0717135
-0.07521364 -0.03754076 0.027773755 -0.044861462 -0.08291725 0.06400788 -0.022958918 0.0035484096
-0.0043300902 -0.011515987 -0.0057891174 -0.106199436 -0.01267001 0.059922453 -0.043836493 -0.019909931
0.11776636 0.039094664 -0.0015020445 -0.05614788 0.052140836 -0.03140019 -0.0017570207 0.052001648
0.043216553 0.027311653 0.03485171 0.018442763 0.047858257 -0.018473877 -0.029613232 0.0078371465
-0.044368204 0.07319377 -0.045808356 -0.031052474 0.10877296 0.040187903 0.03211348 -0.034525033
00000000: db07 70bb f2f9 833c b115 8a3c e1cc 23bd
00000010: 7175 e6bd 408e a6bd e5d4 193d 626c 6dbb
00000020: 95a9 0c3d 2883 bc3c 5246 113d 9654 6c3c
00000030: 9f90 19bd e69a 08bd db82 3ebd 2728 a4bc
00000040: 724a 03bd 6831 883d f584 02be 4b26 06bd
00000050: a06f acbd 85ac 0f3d d349 483d 87de 923d
00000060: 9c09 9abd 57c4 19bd c985 e33c a7c0 37bd
00000070: 85d0 a9bd 9016 833d 5714 bcbc 6f8c 683b
00000080: 6ee3 8dbb 8dad 3cbc a3b2 bdbb 177f d9bd
00000090: e095 4fbc 3f71 753d e58d 33bd 271a a3bc
000000a0: 7d2f f13d ba21 203d 40e0 c4ba 52fb 65bd
000000b0: a191 553d 7c9d 00bd d54b e6ba aeff 543d
000000c0: d703 313d b0bc df3c abc0 0e3d 4715 973c
000000d0: 0507 443d 8756 97bc 7397 f2bc 6067 003c
000000e0: 6fbb 35bd 9ee6 953d 8ba1 3bbd c261 febc
000000f0: 5cc4 de3d 129c 243d 6d89 033d 1f6a 0dbd

actor_mean.2.weight f4 [64, 64]
-0.3182176 0.054822464 -0.2691988 0.35817236 -0.11436128 -0.08874294 -0.1992133 -0.020000346
0.15810126 0.028492646 0.3177829 -0.27827537 0.11773794 -0.031879723 -0.23580457 -0.20287108
0.0704643 -0.5586259 -0.25873303 -0.014701138 0.0456418 0.36642277 -0.15668893 -0.06509356
-0.1683752 0.118026674 -0.1575653 -0.07090994 -0.03738799 0.13018247 -0.02070068 -0.032832958
0.159426 -0.3961234 0.40322998 0.087325536 -0.009583261 -0.009793656 0.07306341 -0.08848311
-0.17148009 0.017314214 0.19847742 -0.0035438621 0.011806919 0.18417391 -0.15626313 0.0075558997
-0.15159465 0.15808085 -0.2536398 0.027565725 -0.12808263 -0.10949174 0.20222719 0.17660314
-0.015902346 0.39428654 0.026568197 0.20040545 0.057502944 0.34576833 -0.07121462 0.020883119
-0.06979826 0.15679348 0.20289186 -0.38958997 -0.29053396 -0.2026041 0.21763512 -0.009142449
0.036311187 -0.032144185 -0.0016631848 0.26585487 -0.08113178 0.14302625 0.011153176 0.11859516
-0.12631598 -0.13727747 0.21899185 0.14749709 -0.037782043 0.1967186 0.3163845 -0.1845853
-0.31814492 -0.31428325 0.06681885 0.32705384 0.11554308 -0.06234612 -0.37980086 -0.10810639
0.021348499 -0.008500293 0.15159407 -0.042955417 0.06474698 -0.14955558 -0.13228913 0.1289725
-0.04672882 0.16607065 0.011148796 -0.13045478 0.15995482 0.035490826 0.0360353 -0.12847652
0.08365221 0.28960294 -0.016071258 0.22101352 0.14537875 0.021272967 -0.27026537 -0.31892192
0.034885988 0.44248062 -0.06060128 0.1868139 -0.13704824 -0.034274176 0.10398627 -0.11439835
0.10550038 0.10213211 0.102027774 -0.06613815 -0.0916625 0.13982977 0.025448712 0.17135192
-0.23427576 0.26563728 0.14577848 -0.24999028 -0.27563187 0.2602964 0.27606288 0.20350437
-0.066149026 0.18402252 0.18332766 0.22785886 -0.07046094 -0.005401126 -0.14130224 0.12089903
-0.15064064 -0.09661591 -0.28722596 -0.30886918 -0.026943931 -0.35575885 -0.22875048 -0.08085228
0.10942808 -0.30289814 0.003922684 0.029058507 0.1770955 0.1208562 -0.3944771 -0.36360648
-0.07154285 0.1131822 0.035240825 0.051623926 -0.11691255 -0.12891908 -0.12647107 -0.27046108
0.20394278 0.13975933 0.044832796 -0.2910595 -0.20624027 0.35759303 0.07021997 0.06662246
0.21971776 -0.03966736 -0.07910408 -0.050155487 0.2000101 0.29361838 -0.09207788 0.11321284
0.05079238 0.23650616 0.15570024 0.25452474 0.37556913 0.19317117 0.12507613 0.16294998
0.07331869 0.26482284 -0.19465788 0.059870336 0.10857811 0.3538443 0.08541034 0.07568267
-0.13131556 -0.09287785 -0.035876106 -0.2606613 0.25131488 -0.25890663 0.08737168 0.03116582
-0.044093356 -0.16529347 0.014205107 0.022080746 -0.19062023 0.0074348305 -0.12139393 -0.18441497
0.044941314 0.0828517 0.25828692 0.28414646 0.32504255 0.21980551 -0.22328983 0.09433233
0.038158298 -0.27049863 0.2612785 -0.39092928 -0.14039871 -0.02449518 -0.085843876 -0.019736206
-0.13568054 -0.16378026 0.08382812 0.18473528 0.052609734 -0.1679547 0.014547697 0.28667882
-0.03497515 -0.1041382 0.06434406 0.30656573 -0.24593653 -0.0045905863 0.23582761 -0.17244902
00000000: 6bed a2be 858d 603d 6dd4 89be 5e62 b73e
00000010: 3f36 eabd dcbe b5bd 92fe 4bbe c4d7 a3bc
00000020: 4ce5 213e 6969 e93c 71b4 a23e 1c7a 8ebe
00000030: 9720 f13d 5094 02bd c176 71be 70bd 4fbe
00000040: 964f 903d 1b02 0fbf a878 84be 0bdd 70bc
00000050: e5f2 3a3d c49b bb3e 1073 20be c64f 85bd
00000060: 8c6a 2cbe f8b7 f13d cc58 21be 3b39 91bd
00000070: 2624 19bd 8e4e 053e 7994 a9bc da7b 06bd
00000080: 9240 233e b0d0 cabe 2974 ce3e bbd7 b23d
00000090: 1c03 1dbc 9275 20bc 45a2 953d a236 b5bd
000000a0: 7a98 2fbe 8ad6 8d3c aa3d 4b3e 2440 68bb
000000b0: cf71 413c 1698 3c3e 7103 20be 7b97 f73b
000000c0: a13b 1bbe f2df 213e 13dd 81be 84d1 e13c
000000d0: 1828 03be 353d e0bd a514 4f3e 74d7 343e
000000e0: a345 82bc eddf c93e 8ca5 d93c 1637 4d3e
000000f0: 3588 6b3d 8c08 b13e f8d8 91bd 1313 ab3c
00000100: 64f2 8ebd 788e 203e e2c2 4f3e 5678 c7be
00000110: dec0 94be 7377 4fbe bedb 5e3e 36ca 15bc
00000120: 0abb 143d 9fa9 03bd 39ff d9ba 211e 883e
00000130: 6b28 a6bd 7975 123e d0bb 363c 05e2 f23d
00000140: fa58 01be 7792 0cbe 663f 603e 7a09 173e
00000150: 58c1 1abd 9a70 493e 26fd a13e ee03 3dbe
00000160: e4e3 a2be bce9 a0be 52d8 883d 9a73 a73e
00000170: daa1 ec3d a55e 7fbd 4275 c2be e266 ddbd
00000180: 0ce3 ae3c d044 0bbc 7a3b 1b3e 05f2 2fbd
00000190: 119a 843d 1925 19be cd76 07be 5e11 043e
000001a0: b866 3fbd 6d0e 2a3e 71a9 363c f095 05be
000001b0: 32cb 233e d45e 113d c099 133d 598f 03be
000001c0: da51 ab3d d646 943e dfa7 83bc 5e51 623e
000001d0: 2bde 143e a544 ae3c 3960 8abe bc49 a3be
000001e0: 9ce4 0e3d d28c e23e 0c39 78bd 254c 3f3e
000001f0: 6056 0cbe 1463 0cbd c1f6 d43d af49 eabd
00000200: 9510 d83d a42a d13d f0f3 d03d 7073 87bd
00000210: 8cb9 bbbd 892f 0f3e d179 d03c e176 2f3e
00000220: fce5 6fbe 9c01 883e f446 153e 74fd 7fbe
00000230: 9f1f 8dbe 9245 853e 1d58 8d3e 7363 503e
00000240: 2479 87bd 6670 3c3e 3fba 3b3e d553 693e
00000250: d34d 90bd eefb b0bb 89b1 10be e999 f73d
00000260: 8a41 1abe 90de c5bd 480f 93be 1a24 9ebe
00000270: 85b9 dcbc 0626 b6be 913d 6abe e195 a5bd
00000280: d41b e03d 7715 9bbe dc89 803b 1b0c ee3c
00000290: 8658 353e 7583 f73d e7f8 c9be a12a babe
000002a0: 0f85 92bd 12cc e73d af58 103d 9c73 533d
000002b0: d96f efbd 5d03 04be a281 01be e079 8abe
000002c0: 60d6 503e 121d 0f3e 98a2 373d c005 95be
000002d0: a630 53be 6f16 b73e 7dcf 8f3d 5b71 883d
000002e0: b1fd 603e 3e7a 22bd 5201 a2bd d76f 4dbd
000002f0: 73cf 4c3e 2655 963e 5493 bcbd 22dc e73d
00000300: ac0b 503d ac2e 723e e26f 1f3e 1151 823e
00000310: 994a c03e aace 453e f513 003e 5cdc 263e
00000320: 1c28 963d dc96 873e 6554 47be 993a 753d
00000330: 335e de3d 152b b53e 9eeb ae3d 84ff 9a3d
00000340: 9677 06be be36 bebd d3f2 12bd 6675 85be
00000350: 58ac 803e 698f 84be ecef b23d 764f ff3c
00000360: 3c9b 34bd b142 29be 8abc 683c aee2 b43c
00000370: f331 43be e19f f33b 619d f8bd 47d7 3cbe
00000380: 6214 383d 27ae a93d 2f3e 843e a57b 913e
00000390: fa6b a63e b214 613e 17a6 64be 4f31 c13d
000003a0: e04b 1c3d cc7e 8abe 4cc6 853e e227 c8be
000003b0: aec4 0fbe 1eaa c8bc eace afbd d3ad a1bc
000003c0: d7ef 0abe 03b6 27be 14ae ab3d 3f2b 3d3e
000003d0: 4e7d 573d 51fc 2bbe 7759 6e3c 91c7 923e
000003e0: 1a42 0fbd 6946 d5bd d2c6 833d 2ff6 9c3e
000003f0: c9d6 7bbe a16c 96bb cb7c 713e 7a96 30be

actor_mean.2.bias f4 [64]
0.010613533 0.03711416 -0.043756075 -0.0040138145 0.025294434 -0.006406336 0.012403446 0.017578997
0.037639126 0.051803596 -0.0027142004 0.01507568 0.013751979 -0.0016819263 -0.030489588 -0.011421102
0.004470065 0.046164986 0.03335575 0.07550524 -0.040997863 0.010196685 0.019415377 0.03094022
0.023277795 0.019016119 -0.0023876654 -0.00097334635 -0.006324954 -0.008511095 0.0017904221 0.017470824
-0.004019271 0.00399899 0.0032354984 -0.00043029734 0.010743122 -0.027587172 -0.020796375 -0.004989552
0.079878114 -0.050489817 0.05748426 -0.0007820673 -0.04007648 -0.013576545 0.0073970025 0.018227356
-0.049180076 0.021167293 -0.0109835435 -0.039388433 0.016795294 -0.001490112 0.03209353 0.012511429
-0.031963255 -0.0018708083 0.03844022 -0.009296697 0.026003996 0.0032106028 -0.025344575 0.012600973
00000000: 62e4 2d3c 0405 183d 9239 33bd 5186 83bb
00000010: 4636 cf3c 3eec d1bb d337 4b3c d401 903c
00000020: 7c2b 1a3d 0230 543d bae0 31bb fcff 763c
00000030: fb4f 613c 1574 dcba 4dc5 f9bc 931f 3bbc
00000040: 9f79 923b 7f17 3d3d 0aa0 083d 7ea2 9a3d
00000050: 60ed 27bd ff0f 273c ff0c 9f3c 5876 fd3c
00000060: 13b1 be3c b1c7 9b3c 617a 1cbb 2b28 7fba
00000070: 8f41 cfbb 1f72 0bbc 99ac ea3a f91e 8f3c
00000080: 17b4 83bb f609 833b a80a 543b 8899 e1b9
00000090: eb03 303c 7efe e1bc 295d aabc 657f a3bb
000000a0: 2397 a33d 69ce 4ebd 9e74 6b3d a603 4dba
000000b0: 3c27 24bd 2870 5ebc 8e62 f23b 8951 953c
000000c0: 0c71 49bd 0867 ad3c 52f4 33bc c455 21bd
000000d0: 4996 893c dd4f c3ba 8174 033d bdfc 4c3c
000000e0: e7eb 02bd e935 f5ba 7e73 1d3d 2c51 18bc
000000f0: 5506 d53c fa68 523b 6d9f cfbc 5074 4e3c

actor_mean.4.weight f4 [1, 64]
0.06528166 -0.029104808 -0.047492567 0.028811125 -0.028210757 0.06713069 0.046713237 -0.049217425
-0.048619553 -0.017576683 -0.06395864 -0.047101304 -0.052261934 -0.14263391 -0.029546512 -0.07344644
-0.027890837 0.042063065 -0.04093327 0.045541834 -0.07944497 -0.06301393 -0.09616566 -0.00558577
0.040857863 0.060365107 0.07894848 0.043509603 -0.03995934 0.031658426 0.11307525 -0.059161328
0.04184151 -0.06838366 -0.1349154 -0.07145984 0.04018179 0.0060423133 0.048994042 0.09241956
-0.044139925 -0.037278417 0.03537157 0.06445014 -0.07647605 0.06555434 0.026236445 -0.051069178
0.009480677 0.06826304 -0.055988815 -0.044064272 -0.10685927 -0.03779241 0.044836782 -0.06475471
-0.09621892 0.040412176 -0.062180728 -0.08506829 0.08040124 -0.090316385 -0.072069146 0.050269336
00000000: 64b2 853d 356d eebc 9187 42bd 4f05 ec3c
00000010: 3f1a e7bc d17b 893d 6156 3f3d 3698 49bd
00000020: 4c25 47bd fafc 8fbc bffc 82bd 4ced 40bd
00000030: 9c10 56bd a00e 12be 870b f2bc 166b 96bd
00000040: 537b e4bc 524a 2c3d a5a9 27bd 138a 3a3d
00000050: 0bb4 a2bd 730d 81bd 80f2 c4bd d608 b7bb
00000060: 935a 273d 6741 773d beaf a13d 2037 323d
00000070: 68ac 23bd 44ac 013d ff93 e73d 2653 72bd
00000080: 0162 2b3d bb0c 8cbd 4327 0abe 8959 92bd
00000090: a995 243d 99fe c53b faad 483d 7746 bd3d
000000a0: 11cc 34bd 41b1 18bd c8e1 103d 6ffe 833d
000000b0: 7a9f 9cbd 5b41 863d d0ed d63c ea2d 51bd
000000c0: d754 1b3c 7ecd 8b3d 8754 65bd bd7c 34bd
000000d0: 08d9 dabd 37cc 1abd c6a6 373d 1e9e 84bd
000000e0: 6d0e c5bd 3d87 253d 38b1 7ebd 4938 aebd
000000f0: 68a9 a43d ccf7 b8bd fd98 93bd 38e7 4d3d

exp_avg f4 [64, 72]
3.0942792e-05 1.3161199e-05 -6.774292e-06 -1.7142323e-05 -7.221683e-05 -2.7448841e-05 -3.511501e-05 -2.2899972e-05
-1.0509295e-05 4.773986e-05 5.170609e-05 6.626372e-05 2.782442e-05 2.0001647e-05 -5.4394695e-06 -1.6183396e-05
-1.6868044e-05 -3.181994e-05 -4.6568915e-05 2.281196e-06 -4.9813978e-05 -5.9052814e-05 -2.106174e-05 4.0598236e-05
2.5726371e-05 5.431746e-06 6.76116e-05 8.659033e-05 7.4897376e-05 7.802421e-05 7.623194e-05 2.7027056e-05
-1.1501953e-05 -5.2709413e-05 -9.172757e-05 -5.1199968e-05 -7.2762356e-05 -6.759607e-05 6.0165938e-05 5.0860628e-05
2.587934e-05 -6.6213055e-05 -9.8822944e-05 -7.210535e-05 -8.992281e-05 -4.6531582e-05 -8.67935e-05 -0.00011298738
-5.484496e-05 1.967346e-06 3.498904e-06 5.5311375e-06 6.7828864e-06 1.1870646e-05 -1.872508e-07 -2.0010333e-05
2.0587508e-07 1.05916e-05 -1.9712048e-05 -3.5455066e-06 3.1398451e-06 4.003572e-05 4.214513e-05 3.9259736e-05
3.486886e-05 3.083364e-05 -5.237337e-05 -0.00014411159 -0.0001672312 -8.5645035e-05 -5.686737e-05 -7.573253e-05
-1.5697293e-05 -3.192359e-05 -3.9605744e-05 -6.173287e-05 9.685875e-06 -1.7064707e-05 -1.4849118e-05 -1.79145e-05
-2.438641e-05 -1.7851196e-05 -2.2521283e-05 -4.694189e-05 1.5998297e-07 5.5299945e-05 8.2387734e-05 6.418233e-05
6.3717955e-05 5.6448014e-05 4.1698902e-05 5.8142676e-05 -2.3626756e-06 -3.466645e-05 -1.3343473e-05 -2.6885942e-05
-1.275694e-06 -2.263074e-05 -3.2370066e-05 -4.1315616e-06 9.8930905e-06 2.590216e-05 4.5470548e-05 1.7505503e-05
6.573495e-06 -9.308127e-06 4.0419603e-05 1.1367946e-05 7.812606e-07 -1.3254229e-05 5.8078257e-07 -8.274311e-05
-0.00012230249 -0.00010007677 -7.622234e-05 -1.2521409e-05 2.4544413e-05 4.05973e-05 -6.7717583e-06 -5.8819878e-05
-1.999744e-05 -8.522426e-08 2.5760726e-05 -5.8760133e-06 -1.4603334e-05 -2.8491999e-05 -1.3798951e-06 -2.1029615e-05
-2.0845931e-05 -4.1863426e-05 -3.6208105e-05 1.2823936e-05 -1.8706367e-05 4.616966e-06 -2.7930207e-06 -1.1737696e-05
8.805458e-06 -4.4342833e-06 1.2565095e-05 -1.466058e-06 3.4247294e-06 -2.0726555e-05 -2.9863362e-05 -1.1428597e-05
2.121276e-05 -8.929927e-06 -1.763962e-05 -3.775669e-05 -6.705566e-05 -5.8669117e-05 -4.8644088e-05 -5.268758e-05
-2.9448676e-05 1.6649807e-05 4.508229e-05 -3.4876912e-06 -4.9912464e-06 -2.2602404e-05 5.3975577e-06 -1.5409369e-05
-5.692022e-06 -1.1275863e-05 4.5852257e-06 4.2622993e-05 -3.5649704e-05 1.8015724e-05 -2.0769781e-05 -5.2978257e-06
3.4891287e-05 2.8564953e-05 5.650868e-05 4.8992966e-05 0.00011733187 8.742315e-05 7.4898446e-05 7.4266445e-06
4.295632e-06 4.323142e-05 -3.1860855e-05 -9.11649e-05 -1.5505162e-05 -5.416231e-05 -5.819978e-06 -7.478101e-06
-7.675576e-06 -8.818385e-05 -0.00013988744 -9.454665e-05 -9.538117e-05 -9.910932e-05 -0.00014595712 -0.00013522811
-5.1833453e-05 -4.7478024e-05 3.1387794e-05 5.9288845e-06 2.7091082e-07 -6.333706e-06 1.2443518e-05 4.380518e-06
3.6692534e-06 1.8989125e-05 2.1797548e-05 2.3264178e-05 3.2001542e-05 2.067518e-05 2.3160914e-05 1.945059e-05
9.406754e-06 6.299189e-05 3.278642e-05 -1.065569e-05 -3.4881334e-05 -4.411952e-06 -3.084231e-05 -1.042558e-05
-2.1541931e-05 -5.24821e-06 -1.8689999e-06 -1.2858249e-05 9.107533e-08 1.36101135e-05 -6.919572e-07 3.8534113e-06
5.3288645e-06 6.504472e-06 4.7604524e-07 1.6422891e-05 2.972358e-05 1.1080819e-05 1.5885521e-06 2.6440002e-05
7.663903e-06 7.739403e-06 2.4394765e-06 -2.6183956e-05 -3.0451785e-05 -3.2645192e-05 -3.1262014e-05 1.6792308e-05
-1.987756e-06 2.3888473e-05 1.330184e-05 3.989655e-05 4.021056e-05 -7.108888e-07 -1.1991826e-05 -2.2748362e-05
-1.3830995e-05 -3.0545067e-05 1.1117948e-05 8.054483e-06 -4.433235e-05 -3.1029645e-05 -3.2738768e-05 -5.459257e-05
00000000: 92c8 0138 ebce 5c37 ba4e e3b6 dccc 8fb7
00000010: 1e73 97b8 f041 e6b7 7448 13b8 5119 c0b7
00000020: 1451 30b7 493c 4838 fede 5838 10f7 8a38
00000030: 7d68 e937 36c9 a737 b084 b6b6 94c1 87b7
00000040: d97f 8db7 6776 05b8 fe52 43b8 a616 1936
00000050: 5aef 50b8 7aaf 77b8 bead b0b7 0648 2a38
00000060: f6ce d737 5842 b636 b4ca 8d38 d497 b538
00000070: 3912 9d38 eea0 a338 b6de 9f38 29b8 e237
00000080: 83f8 40b7 4d14 5db8 dd5d c0b8 8cbf 56b8
00000090: fe97 98b8 5dc2 8db8 af5a 7c38 2f53 5538
000000a0: 7617 d937 dddb 8ab8 2a3f cfb8 4437 97b8
000000b0: f194 bcb8 e82a 43b8 e804 b6b8 a3f3 ecb8
000000c0: 5409 66b8 bf06 0436 b7ce 6a36 1c98 b936
000000d0: 8d98 e336 0928 4737 1c0f 49b4 dddb a7b7
000000e0: 830e 5d34 93b2 3137 4d5b a5b7 57ef 6db6
000000f0: 21b6 5236 07ec 2738 fdc4 3038 d2aa 2438
00000100: 2740 1238 5e53 0138 7aab 5bb8 a91c 17b9
00000110: c95a 2fb9 549c b3b8 e084 6eb8 98d2 9eb8
00000120: aead 83b7 b2e5 05b8 581e 26b8 9576 81b8
00000130: 8480 2237 2e26 8fb7 7a20 79b7 1947 96b7
00000140: 6b91 ccb7 27bf 95b7 16ec bcb7 78e3 44b8
00000150: c9c7 2b34 ddf1 6738 94c7 ac38 a099 8638
00000160: 51a0 8538 98c2 6c38 dbe5 2e38 39de 7338
00000170: 758e 1eb6 d166 11b8 c8dd 5fb7 1f89 e1b7
00000180: 8338 abb5 25d7 bdb7 18c5 07b8 d8a1 8ab6
00000190: 80fa 2537 7748 d937 a1b7 3e38 c8d8 9237
000001a0: e491 dc36 1a2a 1cb7 3888 2938 f5b8 3e37
000001b0: d2b7 5135 7b5e 5eb7 13e7 1b35 5e86 adb8
000001c0: 533e 00b9 4fe0 d1b8 8fd9 9fb8 0b13 52b7
000001d0: bae4 cd37 0547 2a38 f638 e3b6 5db5 76b8
000001e0: 2dc0 a7b7 8804 b7b3 bd18 d837 922a c5b6
000001f0: d800 75b7 1a02 efb7 d634 b9b5 c168 b0b7
00000200: 4cde aeb7 8396 2fb8 28de 17b8 6326 5737
00000210: 9eeb 9cb7 70eb 9a36 bb6f 3bb6 05ed 44b7
00000220: 27bb 1337 34ca 94b6 acce 5237 5fc5 c4b5
00000230: 67d4 6536 f0dd adb7 1583 fab7 73bd 3fb7
00000240: 0ef2 b137 bfd1 15b7 ccf8 93b7 f05c 1eb8
00000250: 3ca0 8cb8 7c13 76b8 3107 4cb8 dcfc 5cb8
00000260: 8d08 f7b7 30ab 8b37 be16 3d38 140e 6ab6
00000270: 7b7a a7b6 4b9a bdb7 ab1c b536 5e43 81b7
00000280: 19fe beb6 762d 3db7 cada 9936 17c6 3238
00000290: 9486 15b8 7920 9737 c43a aeb7 fac3 b1b6
000002a0: 3c58 1238 c59e ef37 bc03 6d38 cc7d 4d38
000002b0: 1110 f638 f256 b738 cc12 9d38 6432 f936
000002c0: 3323 9036 6253 3538 55a2 05b8 c82f bfb8
000002d0: 1511 82b7 562c 63b8 3b49 c3b6 66ec fab6
000002e0: 59c6 00b7 58ef b8b8 c0ae 12b9 5947 c6b8
000002f0: 6007 c8b8 e9d8 cfb8 110c 19b9 05cc 0db9
00000300: bf67 59b8 2423 47b8 63a6 0338 bbf0 c636
00000310: b371 9134 1f86 d4b6 81c4 5037 5dfc 9236
00000320: 4b3d 7636 d64a 9f37 e1d9 b637 7127 c337
00000330: 6539 0638 9c6f ad37 af49 c237 d329 a337
00000340: b3d1 1d37 831a 8438 2784 0938 d7c5 32b7
00000350: 8c4d 12b8 610a 94b6 ae5c 01b8 86e9 2eb7
00000360: f2b4 b4b7 c819 b0b6 59da fab5 c2b9 57b7
00000370: 3195 c333 fe56 6437 f0be 39b5 8d4c 8136
00000380: 99ce b236 fd40 da36 2993 ff34 e4c3 8937
00000390: e756 f937 c1e7 3937 3c36 d535 79cb dd37
000003a0: 3694 0037 7cd8 0137 e3b5 2336 9ea5 dbb7
000003b0: b672 ffb7 82ec 08b8 551f 03b8 35dd 8c37
000003c0: 6365 05b6 1b64 c837 f82a 5f37 9856 2738
000003d0: c3a7 2838 e8d3 3eb5 8030 49b7 bcd3 beb7
000003e0: ac0b 68b7 841d 00b8 3987 3a37 be21 0737
000003f0: 80f1 39b8 d425 02b8 fc50 09b8 53fa 64b8

exp_avg_sq f4 [64, 72]
2.451363e-07 2.3779705e-07 2.3538881e-07 2.324467e-07 2.4083525e-07 2.3640362e-07 2.474085e-07 2.7691382e-07
2.9884188e-07 2.816642e-07 2.6750442e-07 2.5835527e-07 2.2590723e-07 2.2243538e-07 2.2285582e-07 2.2270797e-07
2.1253675e-07 2.0165554e-07 1.8986948e-07 1.7758708e-07 1.7805496e-07 1.7089549e-07 1.6509387e-07 1.4660064e-07
1.3344126e-07 1.2735768e-07 1.3110034e-07 1.2350867e-07 1.183885e-07 1.3006787e-07 1.57133e-07 1.8087168e-07
2.057636e-07 2.588435e-07 3.369335e-07 3.6796337e-07 3.515639e-07 3.354478e-07 2.7845334e-07 2.1294584e-07
1.8668649e-07 2.0408193e-07 2.2925926e-07 2.771346e-07 3.1568254e-07 2.8966784e-07 2.7309724e-07 2.5305323e-07
2.2517871e-07 1.6732871e-07 1.8891862e-07 1.8544908e-07 1.8857025e-07 1.9033938e-07 1.9816451e-07 1.9663156e-07
1.9464464e-07 2.0026998e-07 1.7533294e-07 1.5264904e-07 1.3530658e-07 1.4680916e-07 1.6107532e-07 1.868035e-07
2.2650843e-07 2.218349e-07 1.5016012e-07 1.0916942e-07 1.1245313e-07 1.0959965e-07 1.140923e-07 1.4191431e-07
1.0964185e-07 1.11204265e-07 1.1263941e-07 1.12120716e-07 1.2714777e-07 1.1845278e-07 1.2539165e-07 1.110504e-07
1.1151574e-07 1.1971441e-07 1.2876176e-07 1.2422673e-07 1.3868504e-07 1.4706832e-07 1.5854594e-07 1.6241636e-07
1.6336543e-07 1.5505488e-07 1.4803945e-07 1.3605631e-07 1.4392553e-07 1.4231968e-07 1.49095e-07 1.5282845e-07
1.5405452e-07 1.6487589e-07 1.6732011e-07 1.7854273e-07 2.0144462e-07 2.312477e-07 2.762756e-07 3.1483657e-07
3.659321e-07 4.051428e-07 4.4000765e-07 4.6329967e-07 4.586343e-07 3.9726987e-07 3.5195103e-07 3.2805158e-07
3.179848e-07 3.0519968e-07 3.06025e-07 3.4148647e-07 4.1361116e-07 3.482428e-07 3.0476033e-07 2.5477473e-07
2.471636e-07 2.3479534e-07 2.2915482e-07 2.4429173e-07 1.299283e-07 1.2571532e-07 1.214595e-07 1.18480656e-07
1.0947736e-07 1.0589733e-07 1.0144379e-07 8.556867e-08 7.289584e-08 6.041268e-08 6.005941e-08 5.564504e-08
5.226551e-08 5.4090044e-08 5.591461e-08 6.0832775e-08 7.2935784e-08 9.299152e-08 1.370098e-07 1.9400824e-07
4.532757e-07 4.27765e-07 4.4248867e-07 4.10469e-07 4.3211298e-07 4.6369223e-07 4.821191e-07 4.903726e-07
5.485578e-07 5.5256413e-07 6.2579534e-07 5.842622e-07 5.8593434e-07 5.9259344e-07 6.131469e-07 5.832449e-07
5.651974e-07 6.007296e-07 6.0011655e-07 5.8815004e-07 6.208599e-07 6.228835e-07 5.924811e-07 5.4656095e-07
4.994428e-07 4.4953882e-07 4.274712e-07 4.305348e-07 4.2066452e-07 4.1808806e-07 4.5310782e-07 5.042004e-07
5.4382116e-07 5.7390366e-07 5.9012257e-07 6.3721404e-07 6.649319e-07 6.0531653e-07 5.0999665e-07 4.052856e-07
3.23111e-07 2.942854e-07 2.7029884e-07 2.0521695e-07 2.3033017e-07 2.1357343e-07 3.1802648e-07 3.3441344e-07
3.631893e-07 3.7973518e-07 3.448134e-07 2.3957446e-07 1.8849968e-07 1.7622962e-07 1.6210227e-07 1.5615365e-07
1.3646347e-07 1.3223007e-07 1.3060635e-07 1.3485716e-07 1.434915e-07 1.8526333e-07 2.3614203e-07 2.88616e-07
3.2647202e-07 2.828853e-07 1.6869603e-07 1.6667023e-07 1.9824834e-07 2.5432354e-07 3.901767e-07 5.269968e-07
1.4885749e-08 1.4466477e-08 1.305445e-08 1.3223005e-08 1.4047353e-08 1.5733212e-08 1.7575033e-08 1.7297827e-08
1.900634e-08 2.0742082e-08 2.264715e-08 2.496687e-08 2.7473877e-08 3.142388e-08 3.5504247e-08 3.6671125e-08
4.3961002e-08 5.1522346e-08 5.6408503e-08 6.494774e-08 7.1851645e-08 7.336935e-08 7.320672e-08 6.949581e-08
6.082138e-08 5.7505698e-08 5.3841543e-08 5.2108735e-08 5.41034e-08 6.161472e-08 7.463835e-08 8.8327226e-08
1.0123818e-07 1.1302093e-07 1.146731e-07 1.2902936e-07 1.4587961e-07 1.579381e-07 1.6446816e-07 1.5806026e-07
00000000: 479b 8334 2855 7f34 2fbf 7c34 7696 7934
00000010: 254c 8134 22d6 7d34 91d3 8434 bfaa 9434
00000020: 8470 a034 a237 9734 879d 8f34 14b4 8a34
00000030: e890 7234 92d6 6e34 244a 6f34 8021 6f34
00000040: a835 6434 a786 5834 edde 4b34 c4ae 3e34
00000050: 602f 3f34 657f 3734 a844 3134 4769 1d34
00000060: 0e48 0f34 d0bf 0834 96c4 0c34 ce9d 0434
00000070: c43c fe33 c9a8 0b34 64b8 2834 a135 4234
00000080: deef 5c34 2ef7 8a34 cae3 b434 808c c534
00000090: 93be bc34 9817 b434 567e 9534 1ba6 6434
000000a0: fe73 4834 9d21 5b34 4e2a 7634 17c9 9434
000000b0: 147b a934 a583 9b34 339e 9234 5fdb 8734
000000c0: a7c8 7134 f7aa 3334 8ed9 4a34 db1f 4734
000000d0: cc79 4a34 1760 4c34 0cc7 5434 ac21 5334
000000e0: 83ff 5034 cb09 5734 2743 3c34 d9e7 2334
000000f0: ca48 1134 98a2 1d34 0cf4 2c34 2894 4834
00000100: 2a36 7334 8331 6e34 b33b 2134 8670 ea33
00000110: c37d f133 0b5d eb33 e802 f533 1c61 1834
00000120: 3f74 eb33 31cf ee33 2ce4 f133 04c7 f033
00000130: 1d86 0834 1b60 fe33 65a3 0634 9a7a ee33
00000140: 6d7a ef33 d98a 0034 c341 0a34 2f63 0534
00000150: 74e9 1434 d5e9 1d34 c73c 2a34 ab64 2e34
00000160: 8c69 2f34 297d 2634 c6f4 1e34 e016 1234
00000170: f389 1a34 89d0 1834 ec16 2034 2a19 2434
00000180: 2f6a 2534 bd08 3134 9aa8 3334 74b5 3f34
00000190: ad4c 5834 e24c 7834 0853 9434 cf06 a934
000001a0: 5375 c434 6782 d934 313a ec34 6cbb f834
000001b0: 383a f634 5b48 d534 c8f3 bc34 111f b034
000001c0: 80b7 aa34 53da a334 c14b a434 8b55 b734
000001d0: 490e de34 20f6 ba34 f19d a334 f9c7 8834
000001e0: e8b1 8434 0d1c 7c34 990d 7634 3327 8334
000001f0: 6b82 0b34 5dfc 0634 886a 0234 6e6f fe33
00000200: d119 eb33 ac69 e333 50d9 d933 e0c1 b733
00000210: e98a 9c33 39bc 8133 03fa 8033 5efe 6e33
00000220: 897a 6033 a250 6833 c426 7033 2ca3 8233
00000230: dfa0 9c33 a1b2 c733 f81c 1334 9450 5034
00000240: bd59 f334 93a7 e534 2e8f ed34 6e5e dc34
00000250: 28fd e734 60f1 f834 f96a 0135 26a2 0335
00000260: 9b40 1335 eb53 1435 54fc 2735 31d6 1c35
00000270: 1a49 1d35 b612 1f35 2297 2435 4990 1c35
00000280: 12b8 1735 d341 2135 b217 2135 5de1 1d35
00000290: 2ba9 2635 3a34 2735 fe0a 1f35 62b7 1235
000002a0: 7311 0635 2558 f134 327f e534 4124 e734
000002b0: b1d7 e134 9675 e034 aa42 f334 6358 0735
000002c0: 1bfb 1135 5c0e 1a35 ea68 1e35 040d 2b35
000002d0: c67d 3235 097d 2235 b4e6 0835 0796 d934
000002e0: 0a78 ad34 47fe 9d34 971d 9134 9b59 5c34
000002f0: ad50 7734 9e52 6534 3abd aa34 6f89 b334
00000300: 5bfc c234 68de cb34 cb1e b934 dd9e 8034
00000310: 6666 4a34 a139 3d34 550e 2e34 30ab 2734
00000320: cb86 1234 20fb 0d34 cd3c 0c34 41cd 1034
00000330: a512 1a34 ccec 4634 3a8e 7d34 15f3 9a34
00000340: f945 af34 76df 9734 d022 3534 f7f5 3234
00000350: 17de 5434 f689 8834 7a79 d134 f276 0d35
00000360: 37bc 7f32 3d88 7832 1446 6032 642b 6332
00000370: e954 7132 b325 8732 e8f7 9632 5396 9432
00000380: 6243 a332 522c b232 9c89 c232 ba76 d632
00000390: b2ff eb32 ecf6 0633 557d 1833 5480 1d33
000003a0: a2cf 3c33 6b49 5d33 ce45 7233 6679 8b33
000003b0: dc4c 9a33 3a8f 9d33 d235 9d33 ba3d 9533
000003c0: e89c 8233 2ffc 7633 673f 6733 29ce 5f33
000003d0: 515f 6833 0d51 8433 de48 a033 68ae bd33
000003e0: 4768 d933 eab5 f233 3442 f633 528b 0a34
000003f0: 15a3 1c34 b295 2934 aa98 3034 46b7 2934

exp_avg f4 [64]
-0.00012500942 2.0258354e-05 -0.0001829039 2.7300497e-05 0.0002395643 -0.00013677921 -0.00019131163 8.882045e-05
8.325051e-05 1.1501295e-05 -5.740092e-05 9.848087e-05 -6.9095644e-05 -1.6711345e-05 -5.126187e-05 7.464658e-05
-2.6922975e-05 -2.1917458e-05 -1.7832836e-05 0.00016229026 -5.9323345e-05 -0.00013019453 1.5175235e-05 -0.00014068106
-6.086883e-06 -2.0959644e-05 -7.540224e-06 -8.818807e-05 3.4420496e-05 -7.37594e-05 1.4022439e-05 -0.00013482646
0.00017071329 7.690747e-05 -9.297821e-05 5.2727817e-05 2.9564786e-05 0.00013759368 8.46228e-06 2.245287e-05
5.3470776e-05 -6.9949434e-05 0.00013342305 -7.120196e-05 -0.00025673019 -0.00012166801 8.460582e-06 -0.00016310999
2.8810837e-05 -9.552596e-06 -0.00012328452 -9.565549e-05 7.788409e-06 1.1281129e-05 -9.291827e-05 2.4018274e-05
-2.7191638e-05 0.00018081075 6.9192574e-05 0.00037711055 -5.2156247e-06 0.00012728444 -3.9706174e-05 -6.0869676e-05
00000000: f614 03b9 7cf0 a937 e4c9 3fb9 5f03 e537
00000010: 8d33 7b39 646c 0fb9 d39a 48b9 1e45 ba38
00000020: c796 ae38 b0f5 4037 c5c1 70b8 8487 ce38
00000030: 71e7 90b8 572f 8cb7 0402 57b8 948b 9c38
00000040: a6d8 e1b7 62db b7b7 b997 95b7 762c 2a39
00000050: f5d1 78b8 d484 08b9 2399 7e37 c983 13b9
00000060: ed3d ccb6 7ed2 afb7 0802 fdb6 9cf1 b8b8
00000070: ba5e 1038 47af 9ab8 eb41 6b37 3460 0db9
00000080: 8001 3339 6249 a138 4cfd c2b8 1028 5d38
00000090: e501 f837 0647 1039 37f9 0d37 2c59 bc37
000000a0: cf45 6038 d1b1 92b8 7ae7 0b39 4352 95b8
000000b0: be99 86b9 0428 ffb8 ecf1 0d37 8108 2bb9
000000c0: cdae f137 1644 20b7 f045 01b9 a69a c8b8
000000d0: f6aa 0237 1544 3d37 1edd c2b8 da7a c937
000000e0: 9919 e4b7 0498 3d39 7b1b 9138 ecb6 c539
000000f0: e001 afb6 a877 0539 2e8a 26b8 514e 7fb8
