rl_planner/ppo_with_noise/noise_reward_370.pt (torch, 231269 bytes, 30 tensors)

critic.0.weight f4 [64, 72]
-0.016894022 -0.15420528 0.015383089 0.14034922 -0.07818145 0.040882003 0.025854398 0.082150504
-0.1283082 0.038367413 -0.07692428 0.015413838 0.21872783 0.047530662 0.031525742 0.0049732244
-0.09319637 -0.01785088 0.05466625 0.0068771187 -0.19224586 -0.12941974 0.06201419 -0.04128458
0.10523784 -0.2238279 -0.2545866 -0.2618075 -0.13032304 -0.19125013 -0.3268371 0.19989705
-0.018409222 -0.00887343 -0.20556134 -0.13688377 -0.041987587 -0.28795344 0.05737092 -0.15712747
0.13004845 -0.25953427 -0.19406365 -0.044970382 -0.34442025 0.06699528 -0.09534847 0.048499666
-0.109264635 0.2551213 -0.40783963 0.08985734 -0.121597625 -0.06386934 0.0012958143 -0.03760987
-0.36146393 0.015955895 0.09624919 -0.17578863 0.13882798 -0.052042525 -0.312158 -0.1873219
0.094607145 0.08178873 0.031409383 0.017360657 -0.15831815 0.09008625 0.0016810504 0.16906115
0.38722107 -0.0047640237 0.032743167 -0.1208824 0.10307913 -0.10135525 0.043574214 -0.12068148
-0.12944688 -0.15855949 -0.0966532 -0.22110532 -0.21427941 0.064593986 0.0944771 0.2830861
0.07921902 -0.075899914 0.015262199 -0.20842463 -0.14658548 -0.28797245 -0.118279256 -0.17846413
-0.1078908 0.02225433 -0.21433358 0.28490895 -0.047258195 0.19949864 -0.13336876 0.14915095
0.26550797 -0.16161302 0.1305944 0.011418801 0.23283474 0.11952091 -0.063149974 -0.11535446
-0.028497497 0.13049631 0.052131042 -0.007989238 -0.054333493 -0.0085288705 -0.00900494 -0.23519202
-0.042228483 0.13562448 -0.062471624 0.10006824 0.25475463 -0.2297206 0.07116559 -0.12342146
0.377872 0.22023173 -0.21059138 -0.064752154 -0.20116618 -0.3289645 -0.084149405 -0.47043326
-0.24952245 -0.30509326 -0.339199 0.019682307 -0.100000046 -0.0543119 0.17810807 0.077930756
0.13659424 -0.09423907 0.1738221 -0.04378297 -0.24361135 -0.10551759 0.11409458 0.076056965
0.14592321 -0.06225611 0.12682578 -0.08417533 -0.07375715 -0.03283023 -0.21581748 -0.10054715
0.28062966 -0.25600106 0.033169523 0.07774893 -0.034530587 -0.023209542 0.055045 0.26982
-0.3033769 0.1521744 0.13776992 -0.09993083 -0.057522565 0.2617839 0.08073436 0.017281678
-0.14651853 0.25794667 -0.077944316 -0.13006507 -0.027786216 0.10958993 0.062406257 0.25777495
0.1185954 0.08408909 -0.17842981 -0.14100286 -0.08892747 -0.47002578 0.24565953 -0.1718846
0.1753172 0.0025295508 0.043156866 0.2693661 0.2010458 -0.13619612 0.15789229 -0.0856286
0.1914363 0.13431145 0.11592285 -0.05790492 0.23674588 0.002387263 0.00053133344 0.051093873
-0.16130115 -0.18072788 -0.08767228 -0.056741264 -0.14572196 -0.032785647 -0.097304665 -0.040002633
-0.2541729 0.17008571 0.19794567 -0.01085824 0.07581816 0.2788342 -0.09458248 0.08831236
0.1777096 -0.15918052 0.11864084 0.1416156 0.20201182 0.17756031 0.093642734 0.32320514
0.058742832 0.23711616 -0.14619964 0.22001334 0.09850847 -0.1750952 -0.17801781 -0.073096946
-0.18332183 0.15520811 -0.026016828 -0.00979221 0.23364598 -0.20241977 -0.353327 -0.4198645
-0.12919566 0.041031785 0.074138366 0.044453543 -0.034835026 -0.0147893075 -0.3218957 -0.04346477
00000000: 5565 8abc fde7 1dbe 5a09 7c3c b5b7 0f3e
00000010: 991d a0bd e373 273d 9acc d33c 863e a83d
00000020: 3a63 03be 2627 1d3d 7a8a 9dbd 538a 7c3c
00000030: 30fa 5f3e 83af 423d 2321 013d 6ef6 a23b
00000040: bddd bebd 023c 92bc b8e9 5f3d 7459 e13b
00000050: 19dc 44be 9c86 04be 9702 7e3d 051a 29bd
00000060: f086 d73d 2433 65be 2d59 82be a20b 86be
00000070: 6773 05be 13d7 43be 3157 a7be d0b1 4c3e
00000080: f0ce 96bc dd61 11bc ac7e 52be 422b 0cbe
00000090: 2dfb 2bbd a26e 93be c5fd 6a3d 06e6 20be
000000a0: 6c2b 053e ade1 84be 9fb8 46be dd32 38bd
000000b0: da57 b0be d234 893d 0f46 c3bd 96a7 463d
000000c0: 23c6 dfbd 429f 823e 5bd0 d0be 2007 b83d
000000d0: 2d08 f9bd eecd 82bd 50d8 a93a cf0c 1abd
000000e0: cd11 b9be f0b5 823c 4c1e c53d ef01 34be
000000f0: ec28 0e3e 8b2a 55bd 2cd3 9fbe 50d1 3fbe
00000100: 64c1 c13d da80 a73d 20a7 003d f037 8e3c
00000110: 271e 22be 247f b83d b156 dc3a 5e1e 2d3e
00000120: d741 c63e 871b 9cbb b31d 063d 3191 f7bd
00000130: 271b d33d 5793 cfbd e07a 323d da27 f7bd
00000140: b98d 04be 6b5d 22be 1df2 c5bd 6f69 62be
00000150: 106c 5bbe da49 843d 367d c13d a9f0 903e
00000160: 953d a23d 6a71 9bbd 4d0e 7a3c 446d 55be
00000170: 811a 16be 2071 93be 653c f2bd 4dbf 36be
00000180: daf5 dcbd b64e b63c 437a 5bbe 96df 913e
00000190: cf91 41bd 5f49 4c3e d291 08be 07bb 183e
000001a0: a9f0 873e e27d 25be 8aba 053e ec15 3b3c
000001b0: 3b6c 6e3e 61c7 f43d c654 81bd f63e ecbd
000001c0: 9573 e9bc d3a0 053e 5c87 553d 4be5 02bc
000001d0: cc8c 5ebd adbc 0bbc 7589 13bc 2dd6 70be
000001e0: c6f7 2cbd 25e1 0a3e 3fe2 7fbd 94f0 cc3d
000001f0: 336f 823e e13b 6bbe 44bf 913d 64c4 fcbd
00000200: 7078 c13e 6d84 613e 44a5 57be c79c 84bd
00000210: 82fe 4dbe 096e a8be 8656 acbd a1dc f0be
00000220: d082 7fbe 2f35 9cbe 7eab adbe ca3c a13c
00000230: d3cc ccbd 2876 5ebd f661 363e 299a 9f3d
00000240: 5cdf 0b3e 6a00 c1bd 6cfe 313e c655 33bd
00000250: 4175 79be 9b19 d8bd 6baa e93d c1c3 9b3d
00000260: e56c 153e 4300 7fbd 9ede 013e 1e64 acbd
00000270: fd0d 97bd fe78 06bd 42ff 5cbe aaeb cdbd
00000280: b1ae 8f3e 9212 83be c4dc 073d d53a 9f3d
00000290: f26f 0dbd f021 bebc de76 613d d925 8a3e
000002a0: 3854 9bbe 9bd3 1b3e 8f13 0d3e 89a8 ccbd
000002b0: c89c 6bbd 8a08 863e 0e58 a53d 4e92 8d3c
000002c0: f408 16be 9611 843e 45a1 9fbd c72f 05be
000002d0: eb9f e3bc af70 e03d b49d 7f3d 14fb 833e
000002e0: 25e2 f23d e736 ac3d 4eb6 36be 0e63 10be
000002f0: 9b1f b6bd 38a7 f0be 2c8e 7b3e 8402 30be
00000300: 5a86 333e d2c6 253b 41c5 303d 5aea 893e
00000310: f3de 4d3e ff76 0bbe 84ae 213e 0c5e afbd
00000320: e107 443e f188 093e f668 ed3d b62d 6dbd
00000330: 836d 723e a173 1c3b 2f49 0b3a cf47 513d
00000340: 212c 25be bb10 39be 868d b3bd 8769 68bd
00000350: 2338 15be 3e4a 06bd ab47 c7bd cdd9 23bd
00000360: f322 82be f32a 2e3e 45b2 4a3e c2e6 31bc
00000370: 8d46 9b3d 5bc3 8e3e 76b4 c1bd 1cdd b43d
00000380: 81f9 353e 3800 23be f8f9 f23d ae03 113e
00000390: 30dc 4e3e 5fd2 353e c3c7 bf3d 257b a53e
000003a0: 539c 703d 94ce 723e 5cb5 15be 2d4b 613e
000003b0: cfbe c93d 284c 33be 4d4a 36be dab3 95bd
000003c0: b8b8 3bbe e0ee 1e3e 3e21 d5bc 816f 20bc
000003d0: e440 6f3e 2147 4fbe 47e7 b4be 7bf8 d6be
000003e0: de4b 04be f210 283d dbd5 973d eb14 363d
000003f0: 2caf 0ebd da4e 72bc 83cf a4be 1d08 32bd

critic.0.bias f4 [64]
0.37955314 0.25509554 0.43678313 -0.15766165 -0.28096837 0.21887986 0.551453 -0.23111579
-0.16811036 -0.06579274 0.32165802 -0.21142676 0.41238385 -0.056585472 0.17884052 -0.17846678
0.3088218 0.28352842 0.08559063 -0.29177448 -0.1471702 0.4240458 -0.22268575 0.43096003
0.3701937 0.28290832 -0.19619094 0.21577747 -0.20066193 0.42606246 0.27335107 0.20858663
-0.36079064 0.20893003 0.31681466 -0.24186306 -0.18819614 -0.24113178 -0.34412453 -0.19826534
-0.4192286 0.14412314 -0.20441759 0.3098891 0.35569662 0.18093188 -0.21713535 0.46116886
-0.19334495 0.011088926 0.13005117 0.25950482 -0.23744662 -0.10862475 0.25988573 -0.22381347
0.046008207 -0.34344274 -0.25860766 -0.41507095 0.23183863 -0.27049813 0.3063923 0.22074024
00000000: ca54 c23e e29b 823e 0aa2 df3e 0e72 21be
00000010: 16db 8fbe 0b22 603e 062c 0d3f 9ea9 6cbe
00000020: 1f25 2cbe 58be 86bd 5cb0 a43e 4280 58be
00000030: fa23 d33e 2bc6 67bd f821 373e ffbf 36be
00000040: e41d 9e3e a32a 913e 244a af3d 7763 95be
00000050: c9b3 16be 881c d93e bc07 64be cba6 dc3e
00000060: 078a bd3e 5cd9 903e 47e6 48be c5f4 5c3e
00000070: 527a 4dbe dc24 da3e acf4 8b3e bc97 553e
00000080: 8db9 b8be c1f1 553e 8835 a23e f3aa 77be
00000090: 7db6 40be 40eb 76be 1731 b0be 1206 4bbe
000000a0: 22a5 d6be 0495 133e d852 51be c9a9 9e3e
000000b0: de1d b63e 3546 393e bb58 5ebe 531e ec3e
000000c0: 38fc 45be 54ae 353c 222c 053e d1dd 843e
000000d0: 3525 73be a776 debd be0f 853e 5c2f 65be
000000e0: 1a73 3c3d bad7 afbe 3968 84be 2e84 d4be
000000f0: 1b67 6d3e bb7e 8abe 74df 9c3e bb09 623e

critic.2.weight f4 [64, 64]
-0.13121554 0.12080976 -0.09785112 -0.1580408 0.10247809 -0.024195017 -0.23268837 0.053922217
0.051426575 -0.09540265 0.33163255 -0.05025025 0.048720468 0.21062972 -0.22613725 -0.19241557
0.021995837 -0.15954365 -0.19331315 0.029295761 0.10062267 0.0990995 0.15710391 -0.06825404
-0.09810764 0.3185634 -0.095113136 -0.16669692 0.034185898 0.25638828 -0.11180469 -0.14673807
0.14258257 -0.16087297 -0.10642113 0.014922141 0.64564115 0.037188526 -0.008177136 -0.010337198
0.09540868 0.12401816 0.0012047488 -0.11554202 -0.19440311 -0.09846673 0.024036257 -0.15059912
0.15325925 -0.03270045 0.113499634 0.4533844 0.12935072 0.17437102 -0.20751627 -0.059886377
0.47902143 -0.18056925 -0.095495716 0.35828027 -0.094663695 0.13030729 -0.17784394 -0.1256911
-0.19468664 -0.04208473 0.14292856 0.27885628 -0.1841256 0.06627574 0.03497823 -0.22527076
0.24046165 -0.045946572 -0.27161622 0.048831973 -0.03375044 -0.020944288 0.11377779 0.11275897
-0.07929146 -0.18123195 -0.10125161 0.10369362 0.42827857 -0.2518701 -0.038224164 -0.10161494
-0.34911203 -0.14946707 -0.19098279 0.01030412 -0.009869979 -0.04111562 -0.36826771 0.35012352
-0.01651366 0.22178529 -0.08377928 0.06555182 0.28268158 -0.0006166604 -0.11159103 0.121444106
-0.38256553 0.12667403 0.3197836 0.17655775 0.14038238 -0.16558352 0.18145907 0.35302958
0.10281446 0.04562326 -0.037629347 0.2145179 0.099160336 0.14357248 -0.13962199 0.078770906
-0.0072865346 -0.029887635 -0.12218205 0.14018087 -0.056718547 0.18820307 0.12777033 0.0005584746
-0.21796162 -0.06407665 -0.2972204 -0.20383617 0.14356272 0.070246816 -0.11750493 0.0431845
0.12626867 0.12288919 -0.2878886 0.50105387 0.2683002 0.04969456 0.10379413 0.10366273
-0.28428835 0.37689638 -0.024938365 -0.14045425 -0.09681329 0.31589472 -0.056861278 -0.017192226
0.14511761 0.044767935 -0.1134517 -0.16179171 -0.11467217 0.21960731 0.1744428 0.30295458
0.269704 -0.022685807 -0.3141536 -0.44372892 -0.10002903 0.20497356 0.11172902 0.1758998
-0.07099879 -0.06301555 -0.20677295 -0.02605209 -0.11462829 -0.27528042 0.003624821 -0.08244018
-0.11731997 -0.36065865 0.18664533 -0.03142801 -0.049079172 -0.31323063 -0.073505364 -0.12788881
-0.04307588 0.07704767 -0.25372145 0.112909265 0.13929813 -0.058846813 0.37106684 0.02450594
-0.10971305 -0.2442249 0.18982856 0.08903375 -0.26813453 0.05599753 0.027944906 -0.06322623
0.114576 -0.24005432 -0.26850513 -0.13054691 -0.16075344 0.048039936 -0.1339187 0.2828412
0.11716239 -0.2939433 0.1779462 0.2574702 -0.4439102 -0.068514414 0.027239824 0.15922639
-0.33502024 -0.25434285 -0.051408228 0.21132134 0.21754746 -0.09320745 -0.33764538 -0.22410613
-0.16685914 -0.22491692 -0.15933117 0.09189127 -0.021003366 -0.22967461 -0.12577175 -0.05943934
-0.25096402 0.03092971 -0.13009556 -0.05495863 -0.29524574 0.20172037 -0.054666072 -0.15765457
-0.014901196 -0.05598665 -0.032400813 -0.056881618 0.19557162 -0.35243368 -0.358301 -0.09111996
-0.18042834 -0.42469615 0.100587286 -0.10665894 0.305819 -0.011925536 -0.12103583 -0.43097356
00000000: 5e5d 06be 1c6b f73d 2b66 c8bd 73d5 21be
00000010: 08e0 d13d a134 c6bc dc45 6ebe 8bdd 5c3d
00000020: aca4 523d 7762 c3bd becb a93e 35d3 4dbd
00000030: 1d8f 473d 51af 573e 8690 67be 9608 45be
00000040: 9d30 b43c 695f 23be e2f3 45be aafd ef3c
00000050: 4213 ce3d aef4 ca3d d9df 203e c6c8 8bbd
00000060: a9ec c8bd be1a a33e adca c2bd 99b2 2abe
00000070: 8306 0c3d 5345 833e dbf9 e4bd 8142 16be
00000080: 2a01 123e e2bb 24be 52f3 d9bd ff7b 743c
00000090: bd48 253f ff52 183d 65f9 05bc 5a5d 29bc
000000a0: a065 c33d 3cfd fd3d a9e8 9d3a 4ba1 ecbd
000000b0: 9c11 47be eda8 c9bd afe7 c43c a836 1abe
000000c0: feef 1c3e e8f0 05bd 7f72 e83d 0022 e83e
000000d0: 8474 043e 518e 323e 257f 54be 6b4b 75bd
000000e0: 4c42 f53e 25e7 38be 4293 c3bd 8370 b73e
000000f0: 0adf c1bd 466f 053e b91c 36be 2bb5 00be
00000100: ef5b 47be 0a61 2cbd dd5b 123e 40c6 8e3e
00000110: 6c8b 3cbe 93bb 873d 5545 0f3d 61ad 66be
00000120: 943b 763e 7932 3cbd 4811 8bbe 0904 483d
00000130: e73d 0abd 5b93 abbc 5404 e93d 2dee e63d
00000140: 9063 a2bd de94 39be 015d cfbd 525d d43d
00000150: 5447 db3e 1ef5 80be f190 1cbd 7e1b d0bd
00000160: d0be b2be e50d 19be fe90 43be 9dd2 283c
00000170: b1b5 21bc da68 28bd 968d bcbe 6443 b33e
00000180: a847 87bc af1b 633e 7994 abbd 0840 863d
00000190: a4bb 903e 61a7 21ba d789 e4bd b0b7 f83d
000001a0: a1df c3be d6b6 013e adba a33e 8ecb 343e
000001b0: 66c0 0f3e ba8e 29be 68d0 393e 4bc0 b43e
000001c0: 6390 d23d 75df 3a3d 3b21 1abd 95aa 5b3e
000001d0: 9314 cb3d aa04 133e 11f9 0ebe a452 a13d
000001e0: e2c3 eebb ead6 f4bc 953a fabd 938b 0f3e
000001f0: b551 68bd 4eb8 403e 3ad6 023e 9966 123a
00000200: 5531 5fbe 9e3a 83bd 462d 98be 6eba 50be
00000210: 1b02 133e 90dd 8f3d 6da6 f0bd 3be2 303d
00000220: 934c 013e 54ad fb3d 2266 93be 1145 003f
00000230: a55e 893e 868c 4b3d 0492 d43d 204d d43d
00000240: 3e8e 91be 90f8 c03e 8b4b ccbc 3dd3 0fbe
00000250: 0c46 c6bd f4bc a13e 5fe7 68bd b6d6 8cbc
00000260: b699 143e 955e 373d 5d59 e8bd baac 25be
00000270: 3ed9 eabd bde0 603e 22a1 323e dd1c 9b3e
00000280: a516 8a3e 96d7 b9bc bed8 a0be 7030 e3be
00000290: 05dc ccbd 97e4 513e 2fd2 e43d 141f 343e
000002a0: d067 91bd 4c0e 81bd 4abc 53be 316b d5bc
000002b0: 3dc2 eabd 8ef1 8cbe 688e 6d3b 66d6 a8bd
000002c0: 7445 f0bd 40a8 b8be f41f 3f3e a8ba 00bd
000002d0: 3e07 49bd c45f a0be fb89 96bd 49f5 02be
000002e0: 5570 30bd 2bcb 9d3d c7e7 81be f93c e73d
000002f0: 2ba4 0e3e 5b09 71bd 79fc bd3e aec0 c83c
00000300: 3cb1 e0bd 1816 7abe 6b62 423e 5457 b63d
00000310: ee48 89be ab5d 653d b7ec e43c c17c 81bd
00000320: d2a6 ea3d cdd0 75be 8179 89be 17ae 05be
00000330: 8d9c 24be 86c5 443d fc21 09be 90d0 903e
00000340: d6f2 ef3d bc7f 96be 8737 363e 22d3 833e
00000350: 3348 e3be 4951 8cbd 0d26 df3c 3e0c 233e
00000360: c687 abbe 3a39 82be 6f91 52bd 9f64 583e
00000370: c3c4 5e3e 8ce3 bebd dbdf acbe 147c 65be
00000380: 1fdd 2abe 9f50 66be b627 23be 7d31 bc3d
00000390: 400f acbc d22f 6bbe 4fca 00be aa76 73bd
000003a0: 5b7e 80be 4e60 fd3c c537 05be 4d1c 61bd
000003b0: 732a 97be c98f 4e3e 88e9 5fbd 3370 21be
000003c0: 2524 74bc 4252 65bd b7b6 04bd b3fc 68bd
000003d0: ed43 483e 3072 b4be 3b73 b7be 1a9d babd
000003e0: 35c2 38be c671 d9be b500 ce3d 0170 dabd
000003f0: 4f94 9c3e 5363 43bc a2e1 f7bd 91a8 dcbe

critic.2.bias f4 [64]
-0.28050116 -0.17999011 0.116848074 0.09491304 -0.13958557 -0.3137643 0.224542 -0.20184366
-0.1986276 0.22800508 0.11126177 0.22082247 0.1846058 0.2326292 0.21123122 -0.3212939
0.3073347 0.1755558 0.20692787 -0.16271108 0.22248812 0.1322728 0.22438264 0.23113373
0.17033605 -0.19250794 -0.24978733 0.28819254 -0.2069285 -0.19851673 -0.07173849 0.19857235
0.04124857 -0.33750272 -0.22886968 0.12805091 0.29773554 -0.31650916 0.20538582 0.13936023
-0.21253826 -0.4034741 -0.10144934 -0.26632324 0.24210672 -0.18964191 0.102842554 -0.20999672
-0.28877774 -0.3473703 -0.25488076 0.2785683 0.28133333 -0.24570893 0.07748865 -0.15973388
0.0844327 0.011797065 0.15323797 0.20115024 0.18800887 0.16712531 0.12943126 0.15488417
00000000: d99d 8fbe 544f 38be 0b4e ef3d c561 c23d
00000010: 85ef 0ebe b7a5 a0be 57ee 653e 1bb0 4ebe
00000020: 0965 4bbe 2a7a 693e 36dd e33d 491f 623e
00000030: 4e09 3d3e 5936 6e3e ff4c 583e a280 a4be
00000040: f95a 9d3e e6c4 333e e6e4 533e bc9d 26be
00000050: edd3 633e 8572 073e 90c4 653e 52ae 6c3e
00000060: 936c 2e3e cd20 45be 40c8 7fbe f98d 933e
00000070: 11e5 53be f847 4bbe a1eb 92bd 8d56 4b3e
00000080: 43f4 283d 28cd acbe d05c 6abe c71f 033e
00000090: cb70 983e 7d0d a2be a950 523e 73b4 0e3e
000000a0: a1a3 59be 2894 cebe acc4 cfbd 855b 88be
000000b0: d3ea 773e 7d31 42be 1e9f d23d 6109 57be
000000c0: adda 93be 85da b1be bb7f 82be 81a0 8e3e
000000d0: ec0a 903e 1f9b 7bbe 5fb2 9e3d 4791 23be
000000e0: 0deb ac3d 7a48 413c 6aea 1c3e 54fa 4d3e
000000f0: 6685 403e e622 2b3e a189 043e f599 1e3e

critic.4.weight f4 [1, 64]
-0.102342 -0.20745222 0.12645027 0.10703605 -0.18238766 -0.23759267 0.15804972 -0.32635474
-0.13794592 0.05032243 0.19564646 0.18446645 0.29409423 0.12643908 0.1286652 -0.34385887
0.20848422 0.21359216 0.12569031 -0.09391281 0.116339214 0.05937404 0.112510666 0.21681575
0.13163325 -0.13750395 -0.12699996 0.13831346 -0.12662035 -0.10968831 -0.12564108 0.23857427
0.10512188 -0.27353674 -0.26906747 0.16670121 0.25947565 -0.2800241 0.11770172 0.29912806
-0.20088387 -0.2293398 -0.12515509 -0.2231312 0.15871428 -0.12610002 0.33115202 -0.16883777
-0.16366826 -0.14292805 -0.20904562 0.44856265 0.115938306 -0.16653384 0.14258198 -0.11726488
0.17786759 0.14567867 0.21920645 0.20274271 0.15783705 0.10822059 0.21735038 0.15701929
00000000: af98 d1bd 5b6e 54be 2e7c 013e b735 db3d
00000010: d5c3 3abe 7e4b 73be c9d7 213e f817 a7be
00000020: b241 0dbe e41e 4e3d 8c57 483e c6e4 3c3e
00000030: 8593 963e 3f79 013e cfc0 033e 450e b0be
00000040: e37c 553e e7b7 5a3e f6b4 003e 5c55 c0bd
00000050: 4143 ee3d 3232 733d fe6b e63d f304 5e3e
00000060: deca 063e d6cd 0cbe 470c 02be 0ba2 0d3e
00000070: c4a8 01be 44a4 e0bd 0ea8 00be d04c 743e
00000080: 244a d73d 020d 8cbe 36c3 89be b9b3 2a3e
00000090: fed9 843e 525f 8fbe 990d f13d 5027 993e
000000a0: 80b4 4dbe 0dd8 6abe a828 00be 817c 64be
000000b0: ff85 223e 5d20 01be c28c a93e cfe3 2cbe
000000c0: a798 27be bb5b 12be 0e10 56be 01aa e53e
000000d0: 1071 ed3d d987 2abe 0301 123e 9228 f0bd
000000e0: ec22 363e ca2c 153e a877 603e c99b 4f3e
000000f0: 09a0 213e c2a2 dd3d 1991 5e3e aac9 203e

actor_mean.0.weight f4 [64, 72]
0.12826563 -0.28058803 -0.10633891 0.20595416 -0.037497703 -0.18239135 -0.19910598 -0.17608441
-0.22932497 0.050759763 0.24641371 0.11229593 -0.010201204 0.020986294 -0.111199215 -0.30285957
0.29943088 -0.27974764 0.14972773 -0.16260028 0.08771022 -0.06990695 0.08724315 0.074539304
-0.17457296 -0.3505001 0.0036554523 0.12362133 0.21343604 0.14935943 -0.17742625 -0.27777752
-0.08913123 0.15890016 0.26231283 -0.10575038 0.0028474475 -0.1721058 -0.08606874 -0.039118905
0.10189501 0.016910296 -0.078533225 0.19722651 0.41040862 -0.016744927 0.3111937 -0.035081144
0.18773241 0.2818827 0.18562816 0.12704119 -0.12241229 -0.0069873217 0.010556987 0.32376674
0.029393286 -0.09811152 -0.043902263 0.11427942 -0.067676425 -0.034665857 0.21250954 0.096027024
0.2647899 -0.3566916 -0.19569683 -0.057982974 0.124679565 0.08319591 -0.1445526 0.038223438
0.56971693 0.006641613 -0.04995675 -0.3904869 0.32400882 0.090705626 -0.1371491 -0.076671995
0.14101052 0.12873147 0.18802395 -0.068285756 -0.045571923 0.023089908 0.07181361 -0.035513967
0.15909347 -0.09957672 0.11152701 0.18781933 -0.0017993784 0.17878838 0.23897845 -0.043284517
-0.07762339 0.2967312 -0.17036147 0.16294318 0.045395494 -0.06420548 0.34801275 0.07138743
-0.10044361 -0.29428044 0.037662428 -0.004763878 0.28703997 0.020524263 0.18809381 0.10338141
0.27350107 0.041909333 0.08495153 -0.11416766 0.109169945 0.124719515 0.3612761 -0.19860575
-0.08444451 0.08118571 0.20475361 0.03348242 -0.1889767 -0.32543975 0.036629293 -0.11985729
0.16121988 0.065623455 0.23299007 0.2808658 0.008819979 0.14793031 0.03447167 -0.07765063
-0.27465546 0.020981403 -0.05959327 -0.1357741 -0.0088993795 -0.17119654 0.03357134 -0.00017943211
0.18211149 -0.064981 0.18990427 0.24326393 -0.07650634 0.24847718 0.11091681 -0.11692119
-0.05430441 0.023480322 0.02901547 -0.23501232 0.06690358 0.03653565 0.2455901 0.11750834
0.06317629 -0.2065687 -0.15996386 0.07311065 0.017938608 -0.17361616 -0.091496214 -0.21718134
0.20320024 0.14268817 -0.26999712 -0.036830112 0.01888957 -0.16915053 0.13667846 -0.3502208
0.13447146 -0.0067928536 -0.18293862 -0.04809368 -0.07291663 -0.23662362 -0.22557014 0.09643419
-0.06963008 -0.004912088 0.43538195 0.07890596 0.061754014 0.025802597 0.3488832 -0.0078106485
-0.20127477 0.22749987 0.08903249 -0.050895967 -0.05931476 0.06833124 0.24160643 0.16108535
-0.19052193 0.23377186 -0.04896285 0.0212542 0.1685309 0.13936001 -0.030088617 0.34663305
0.052351594 0.25882602 -0.33864367 0.31258366 0.09570656 -0.06850501 0.2860996 0.31931576
-0.19778097 0.43453118 0.15281783 0.0047746133 -0.121072665 -0.06430458 -0.28498697 -0.030647732
0.009981355 0.25808555 0.02213564 -0.059036057 -0.009358797 0.19299003 0.108703956 0.06724181
-0.1685069 -0.53677213 0.06476051 -0.0555528 -0.142644 0.16282357 0.029277537 0.13113311
-0.083104685 0.022837685 -0.09886243 -0.03723705 -0.04021931 0.13692233 0.18898761 0.032602075
-0.012611538 0.18879668 0.3538902 0.041115046 0.19105548 -0.24206886 -0.046671 0.02903509
00000000: 1158 033e 3ca9 8fbe 37c8 d9bd a6e5 523e
00000010: 3197 19bd ccc4 3abe 70e2 4bbe 794f 34be
00000020: 2ad4 6abe 78e9 4f3d e053 7c3e 69fb e53d
00000030: f322 27bc 73eb ab3c 6abc e3bd 6910 9bbe
00000040: 014f 993e 153b 8fbe 3a52 193e b080 26be
00000050: 6aa1 b33d 602b 8fbd 89ac b23d 10a8 983d
00000060: 41c3 32be c074 b3be 5090 6f3b 2e2d fd3d
00000070: fa8e 5a3e aef1 183e 3aaf 35be db38 8ebe
00000080: 6f8a b6bd b9b6 223e de4d 863e a893 d8bd
00000090: 3e9c 3a3b 813c 30be cf44 b0bd 253b 20bd
000000a0: 55ae d03d 7687 8a3c 07d6 a0bd bff5 493e
000000b0: 1421 d23e a82c 89bc c854 9f3e 3fb1 0fbd
000000c0: ed3c 403e ee52 903e 4f15 3e3e 1617 023e
000000d0: 4bb3 fabd e7f5 e4bb 36f7 2c3c c1c4 a53e
000000e0: 30ca f03c b1ee c8bd dcd2 33bd 540b ea3d
000000f0: f099 8abd c9fd 0dbd 1a9c 593e d1a9 c43d
00000100: 8b92 873e 48a0 b6be c064 48be 8e7f 6dbd
00000110: 0058 ff3d 9e62 aa3d 9905 14be 2e90 1c3d
00000120: f8d8 113f e3a1 d93b 739f 4cbd e6ed c7be
00000130: 7ce4 a53e dfc3 b93d d070 0cbe 3506 9dbd
00000140: 1065 103e 2fd2 033e 5a89 403e 67d9 8bbd
00000150: a0a9 3abd 0c27 bd3c 0413 933d 1877 11bd
00000160: 66e9 223e e1ee cbbd 4668 e43d b653 403e
00000170: 1fd9 ebba 4d14 373e c4b6 743e 1b4b 31bd
00000180: 03f9 9ebd 27ed 973e 3d73 2ebe 94da 263e
00000190: a0f0 393d 2a7e 83bd ba2e b23e 9333 923d
000001a0: 61b5 cdbd edab 96be eb43 1a3d 4e1a 9cbb
000001b0: e7f6 923e 8022 a83c aa9b 403e a2b9 d33d
000001c0: 5508 8c3e 1fa9 2b3d 11fb ad3d bcd0 e9bd
000001d0: 7e94 df3d f26c ff3d 2ef9 b83e 4e5f 4bbe
000001e0: 3ef1 acbd b244 a63d eeaa 513e dd24 093d
000001f0: 1c83 41be 0aa0 a6be 9908 163d bd77 f5bd
00000200: d316 253e 9765 863d f394 6e3e a4cd 8f3e
00000210: ac81 103c 0b7b 173e 2a32 0d3d 4b07 9fbd
00000220: a49f 8cbe 31e1 ab3c 1318 74bd 5e08 0bbe
00000230: b4ce 11bc 254e 2fbe 1a82 093d f125 3cb9
00000240: 6f7b 3a3e c214 85bd 4476 423e 2e1a 793e
00000250: 5baf 9cbd cd70 7e3e 5a28 e33d 6074 efbd
00000260: 4d6e 5ebd ce59 c03c dab1 ed3c 12a7 70be
00000270: bf04 893d 68a6 153d f97b 7b3e 36a8 f03d
00000280: 9262 813d bf86 53be 91cd 23be 09bb 953d
00000290: fdf3 923c 6fc8 31be 5e62 bbbd c964 5ebe
000002a0: b913 503e d91c 123e 103d 8abe 2cdb 16bd
000002b0: 4dbe 9a3c cc35 2dbe 70f5 0b3e 2450 b3be
000002c0: e3b2 093e 9696 debb 4354 3bbe e1fd 44bd
000002d0: 5055 95bd 764d 72be dcfb 66be 4a7f c53d
000002e0: 379a 8ebd 95f5 a0bb 62ea de3e 7399 a13d
000002f0: c7f1 7c3d f85f d33c d2a0 b23e 78f0 ffbb
00000300: f91a 4ebe baf5 683e ab56 b63d 4a78 50bd
00000310: 09f4 72bd 40f1 8b3d ad67 773e 8ff3 243e
00000320: 2e18 43be e461 6f3e 458d 48bd 4a1d ae3c
00000330: 5d93 2c3e 64b4 0e3e 677c f6bc e379 b13e
00000340: a06e 563d d884 843e b462 adbe f70a a03e
00000350: cd01 c43d 5b4c 8cbd a67b 923e 5b7d a33e
00000360: 1887 4abe df7a de3e 477c 1c3e 5c74 9c3b
00000370: f2f4 f7bd 1fb2 83bd d0e9 91be f410 fbbc
00000380: d688 233c ca23 843e cd55 b53c cbcf 71bd
00000390: a455 19bc 2e9f 453e 2ea0 de3d 13b6 893d
000003a0: 138d 2cbe e669 09bf 29a1 843d 558b 63bd
000003b0: 4511 12be 39bb 263e 72d7 ef3c c247 063e
000003c0: ca32 aabd 1916 bb3c 6378 cabd e085 18bd
000003d0: 01bd 24bd 5e35 0c3e f885 413e c189 053d
000003e0: a0a0 4ebc eb53 413e 1931 b53e 4068 283d
000003f0: 0ca4 433e e6e0 77be 172a 3fbd ffda ed3c

actor_mean.0.bias f4 [64]
-0.011626422 0.008379573 0.0145857725 -0.03095111 -0.104702175 -0.07851522 0.031522725 -0.006422849
0.029223328 0.021839803 0.033133756 0.011062847 -0.027651979 -0.03253198 -0.049152933 -0.0025565922
-0.018880539 0.06040821 -0.11667428 -0.017880594 -0.072503075 0.03346921 0.051551513 0.061511666
-0.070753604 -0.03610115 0.025580747 -0.038929224 -0.070252046 0.05169124 -0.018118415 0.015700983
-0.018737836 -0.014276271 0.0009764547 -0.09235377 -0.006470643 0.05658672 -0.0386465 -0.010640654
0.11295308 0.037753873 -0.000775265 -0.05859984 0.05837591 -0.028275687 0.01089289 0.047365334
0.03586741 0.023221787 0.0279373 0.021748887 0.04692907 -0.0073106913 -0.03226476 0.01425946
-0.03564398 0.058294404 -0.037212566 -0.027576393 0.10390219 0.028082034 0.02149607 -0.034731817
00000000: c07c 3ebc 7a4a 093c 2af9 6e3c 2f8d fdbc
00000010: 186e d6bd 96cc a0bd f91d 013d c376 d2bb
00000020: c365 ef3c 63e9 b23c 43b7 073d f240 353c
00000030: 6786 e2bc 4140 05bd 9654 49bd 808c 27bb
00000040: 5cab 9abc 996e 773d edf2 eebd 537a 92bc
00000050: 7e7c 94bd 0317 093d ae27 533d a8f3 7b3d
00000060: 44e7 90bd cdde 13bd b78e d13c 4074 1fbd
00000070: 4ee0 8fbd 32ba 533d 126d 94bc 599f 803c
00000080: 1780 99bc 05e7 69bc c4f8 7f3a f923 bdbd
00000090: b007 d4bb 7ac7 673d cb4b 1ebd 2356 2ebc
000000a0: f253 e73d cea3 1a3d 273b 4bba 6306 70bd
000000b0: 941b 6f3d 6aa2 e7bc 1878 323c 2702 423d
000000c0: b5e9 123d 9e3b be3c c4dc e43c b92a b23c
000000d0: b238 403d 868e efbb 0e28 04bd 83a0 693c
000000e0: 6cff 11bd 1dc6 6e3d 346c 18bd e3e7 e1bc
000000f0: acca d43d 4b0c e63c 8718 b03c f342 0ebd

actor_mean.2.weight f4 [64, 64]
-0.31047043 0.04563888 -0.26366672 0.35453147 -0.110237755 -0.085538335 -0.1969821 -0.023110682
0.14836486 0.039152034 0.32023752 -0.2775566 0.12311915 -0.04254786 -0.23020151 -0.2038342
0.06530347 -0.560868 -0.26100528 -0.011629309 0.046002734 0.36685076 -0.14923549 -0.06430901
-0.15892911 0.1165312 -0.16162466 -0.073403664 -0.03758594 0.13614309 -0.018037159 -0.027372582
0.16427112 -0.3924491 0.40852466 0.08299192 -0.017791571 -0.014344439 0.070526 -0.089951135
-0.16812491 0.011764001 0.19118026 0.00084876333 0.021088107 0.18754703 -0.14848627 0.013268787
-0.14768013 0.16374867 -0.26458648 0.02850661 -0.12035895 -0.113028586 0.20183057 0.17848068
-0.009733766 0.3949737 0.022193922 0.20496616 0.0629041 0.3424924 -0.074694596 0.02956005
-0.067950055 0.1550592 0.19889215 -0.3843988 -0.29963502 -0.2067428 0.21825382 -0.010343206
0.034384385 -0.033718925 0.0009392148 0.2672215 -0.08226664 0.14432034 0.006630106 0.12478296
-0.124496385 -0.13733444 0.2193424 0.14543003 -0.036876585 0.20128714 0.3088554 -0.17753497
-0.31902257 -0.31602994 0.06776941 0.32453644 0.116103195 -0.058583032 -0.38426265 -0.09927701
0.016573103 -0.010993095 0.15219566 -0.028761983 0.066266984 -0.1477162 -0.13109522 0.13339992
-0.048458885 0.17472972 0.017502483 -0.11653291 0.15399824 0.036681633 0.03374453 -0.12772347
0.08222264 0.28114924 -0.010971058 0.21372811 0.15681231 0.027451362 -0.27434567 -0.32029983
0.035332933 0.44281858 -0.05715676 0.18239455 -0.13274138 -0.03901556 0.10695368 -0.12741701
0.10508933 0.100621656 0.09785899 -0.06174562 -0.09222313 0.13185956 0.028578253 0.1756466
-0.2260481 0.26560628 0.16009982 -0.2435555 -0.27288613 0.26916778 0.27649117 0.20337749
-0.061016172 0.18533131 0.1834907 0.22253071 -0.06726246 0.003173102 -0.14917232 0.12028445
-0.16027528 -0.10574934 -0.2887131 -0.31780347 -0.024278756 -0.3474269 -0.22702001 -0.07798066
0.10589139 -0.30264637 0.002345442 0.03035427 0.17766473 0.13003828 -0.39446288 -0.35269433
-0.061393976 0.113529816 0.041183922 0.051090356 -0.12346309 -0.12426081 -0.12472211 -0.27439564
0.1992683 0.13755329 0.048766956 -0.300379 -0.20592767 0.36045182 0.0732925 0.071667016
0.21532647 -0.035145734 -0.07801526 -0.059947845 0.19710898 0.29433772 -0.08659771 0.10228888
0.04601306 0.23075503 0.15850778 0.24972516 0.37599823 0.19231567 0.12804534 0.16277017
0.06996323 0.2628528 -0.2022107 0.061714943 0.10733494 0.3512647 0.084481165 0.07236052
-0.13750918 -0.09663546 -0.04123458 -0.2593866 0.25170267 -0.2605899 0.09174429 0.029550422
-0.038680956 -0.17003767 0.011363873 0.02846596 -0.19635805 0.008079126 -0.12482707 -0.18309864
0.046831403 0.08229512 0.2618343 0.2752291 0.31703782 0.21205294 -0.22065495 0.09112868
0.032031655 -0.27714118 0.25462547 -0.3968694 -0.1253642 -0.026353398 -0.08082488 -0.01187404
-0.14148416 -0.1580939 0.077451855 0.1925936 0.04860336 -0.17343478 0.015678786 0.28039598
-0.033332266 -0.105169564 0.061900392 0.3115849 -0.2424622 -0.006160556 0.23635192 -0.1653005
00000000: fbf5 9ebe d6ef 3a3d 53ff 86be 2685 b53e
00000010: 55c4 e1bd b92e afbd adb5 49be 9d52 bdbc
00000020: f5ec 173e e25d 203d 2cf6 a33e e61b 8ebe
00000030: e525 fc3d aa46 2ebd f2b9 6bbe eab9 50be
00000040: d3bd 853d 0c95 0fbf 7ca2 85be db88 3ebc
00000050: 5d6d 3c3d ddd3 bb3e 30d1 18be 71b4 83bd
00000060: 50be 22be e9a7 ee3d ef80 25be a954 96bd
00000070: b7f3 19bd 1869 0b3e aac2 93bc 773c e0bc
00000080: b036 283e 17ef c8be 252a d13e abf7 a93d
00000090: a1bf 91bc f004 6bbc ef6f 903d 4d38 b8bd
000000a0: f028 2cbe ccbd 403c c2c4 433e 8b7f 5e3a
000000b0: f7c0 ac3c 540c 403e c90c 18be 5465 593c
000000c0: 7639 17be bbad 273e e177 87be b286 e93c
000000d0: c17e f6bd 887b e7bd acac 4e3e a4c3 363e
000000e0: 607a 1fbc fe39 ca3e 07d0 b53c a6e2 513e
000000f0: ddd3 803d 2a5b af3e 7bf9 98bd eb27 f23c
00000100: 6629 8bbd d7c7 1e3e 62aa 4b3e ebcf c4be
00000110: c369 99be 62b4 53be ee7d 5f3e 8d76 29bc
00000120: a4d6 0c3d db1c 0abd a335 763a 42d1 883e
00000130: 6a7b a8bd b6c8 133e 5c41 d93b 358e ff3d
00000140: f6f7 febd 66a1 0cbe 4b9b 603e 9ceb 143e
00000150: e70b 17bd 371e 4e3e 4c22 9e3e bacb 35be
00000160: ed56 a3be adce a1be b0ca 8a3d a429 a63e
00000170: 83c7 ed3d c3f4 6fbd 13be c4be bf51 cbbd
00000180: 51c4 873c 621c 34bc 2ed9 1b3e 409e ebbc
00000190: fcb6 873d ea42 17be d33d 06be fd99 083e
000001a0: d37c 46bd 59ec 323e 5e61 8f3c cea8 eebd
000001b0: b7b1 1d3e 7b3f 163d b437 0a3d f1c9 02be
000001c0: 5864 a83d cbf2 8f3e f4bf 33bc 8bdb 5a3e
000001d0: 6893 203e aee1 e03c 0977 8cbe 57fe a3be
000001e0: 44b9 103d 1eb9 e23e 351d 6abd a3c5 3a3e
000001f0: 5bed 07be c8ce 1fbd 880a db3d 9b79 02be
00000200: 1339 d73d ba12 ce3d 4b6a c83d fae8 7cbd
00000210: 7bdf bcbd 3106 073e f11c ea3c b4dc 333e
00000220: 2779 67be 8cfd 873e 35f1 233e 9d66 79be
00000230: bbb7 8bbe 5cd0 893e 4090 8d3e 3042 503e
00000240: 18ec 79bd 7ec7 3d3e fce4 3b3e 17df 633e
00000250: e7c0 89bd d1f3 4f3b a1c0 18be b257 f63d
00000260: 341f 24be 1c93 d8bd 34d2 93be 23b7 a2be
00000270: 3ee4 c6bc f0e1 b1be ef77 68be 53b4 9fbd
00000280: 96dd d83d 77f4 9abe fdb5 193b 85a9 f83c
00000290: beed 353e c128 053e 0af7 c9be 5a94 b4be
000002a0: 4078 7bbd 5282 e83d 79b0 283d 1f44 513d
000002b0: 37da fcbd 747c febd 4e6e ffbd 967d 8cbe
000002c0: fd0c 4c3e c5da 0c3e dcbf 473d 47cb 99be
000002d0: b4de 52be 248d b83e 611a 963d 28c6 923d
000002e0: 8b7e 5c3e f9f4 0fbd 77c6 9fbd df8b 75bd
000002f0: f0d6 493e 6fb3 963e 245a b1bd d57c d13d
00000300: 3178 3c3d 0c4b 6c3e dd4f 223e f4b7 7f3e
00000310: d782 c03e 66ee 443e 511e 033e 39ad 263e
00000320: e248 8f3d a494 863e 5210 4fbe cfc8 7c3d
00000330: 6cd2 db3d f7d8 b33e 7604 ad3d c131 943d
00000340: 35cf 0cbe d0e8 c5bd 97e5 28bd 52ce 84be
00000350: 2cdf 803e 0a6c 85be 6ee4 bb3d ba13 f23c
00000360: ec6f 1ebd 5b1e 2ebe 8a2f 3a3c 7231 e93c
00000370: 1612 49be 4f5e 043c 56a5 ffbd 367e 3bbe
00000380: 49d2 3f3d 588a a83d 250f 863e d4ea 8c3e
00000390: c852 a23e 6824 593e 5ff3 61be aca1 ba3d
000003a0: a033 033d 73e5 8dbe 455e 823e 7732 cbbe
000003b0: 795f 00be 15e3 d7bc 8487 a5bd 558b 42bc
000003c0: 39e1 10be 5ee3 21be 149f 9e3d 4237 453e
000003d0: 5114 473d e398 31be cc70 803c 1090 8f3e
000003e0: 6a87 08bd 2463 d7bd 448b 7d3d 0e88 9f3e
000003f0: 0348 78be 7dde c9bb 3d06 723e 8944 29be

actor_mean.2.bias f4 [64]
0.0073751304 0.03550057 -0.050766036 0.003516207 0.02332308 -0.0035965703 0.014601224 0.014105152
0.027924968 0.042424534 -0.009473656 0.0067840125 0.007083538 -0.0052849236 -0.03918755 -0.022388171
-0.007736444 0.05139795 0.030738058 0.086333856 -0.04607187 0.0026512607 0.012886581 0.028545214
0.03059653 0.019665241 0.007950555 0.0032392715 -0.004804219 -0.0028501563 0.005492113 0.012153703
0.001782641 -0.0036872008 -0.0030774812 -0.004791815 0.01448337 -0.020532716 -0.016142458 0.004516994
0.0738173 -0.052395895 0.051549032 0.0033544365 -0.0431482 -0.006876576 0.01539872 0.016013606
-0.04310735 0.02775301 -0.0114363255 -0.044416785 0.0113104405 -0.0068057557 0.033245657 0.00442145
-0.03373496 0.002294317 0.030573858 -0.015795711 0.025886757 0.002638982 -0.022063248 0.018785812
00000000: 14ab f13b 0c69 113d 0cf0 4fbd 2a70 663b
00000010: 0b10 bf3c 70b4 6bbb f939 6f3c 4c19 673c
00000020: e7c2 e43c 59c5 2d3d 6537 1bbc 6c4c de3b
00000030: 061d e83b 272d adbb 2083 20bd 6667 b7bc
00000040: ff81 fdbb a886 523d 61ce fb3c cecf b03d
00000050: dbb5 3cbd c6c0 2d3b 3d22 533c a7d7 e93c
00000060: 93a5 fa3c 0019 a13c 0b43 023c f549 543b
00000070: b66c 9dbb b0c9 3abb 2ff7 b33b 5320 473c
00000080: 82a7 e93a f7a4 71bb 91af 49bb a804 9dbb
00000090: a84b 6d3c 3a34 a8bc 303d 84bc 4b03 943b
000000a0: 862d 973d 149d 56bd 1425 533d 1bd6 5b3b
000000b0: 2bbc 30bd e754 e1bb ea4a 7c3c f72e 833c
000000c0: 5591 30bd 485a e33c 6d5f 3bbc 60ee 35bd
000000d0: 6d4f 393c d102 dfbb 992c 083d d0e1 903b
000000e0: ab2d 0abd 405c 163b 0776 fa3c 0266 81bc
000000f0: 7710 d43c c5f2 2c3b fcbd b4bc b4e4 993c

actor_mean.4.weight f4 [1, 64]
0.06110492 -0.030449603 -0.046016905 0.02533281 -0.023114434 0.06315949 0.042442363 -0.039241057
-0.05213905 -0.015429286 -0.0656385 -0.040637147 -0.0541098 -0.13761503 -0.028843109 -0.0708521
-0.026601046 0.050259482 -0.04272175 0.045314517 -0.07823895 -0.06245081 -0.08917023 -0.0032120403
0.031394888 0.060025938 0.07469322 0.05049329 -0.045383424 0.028741917 0.10692449 -0.056618467
0.041510254 -0.07315658 -0.13206136 -0.07019183 0.038983658 0.010038647 0.055977948 0.088664114
-0.032042634 -0.03508559 0.032213602 0.054415457 -0.07557588 0.059468716 0.02424269 -0.04880586
0.012254724 0.06703056 -0.05064379 -0.04454152 -0.09679169 -0.032013588 0.047309455 -0.06620938
-0.09460708 0.036905754 -0.059985094 -0.07680279 0.07613043 -0.08385234 -0.068753384 0.05196964
00000000: 2749 7a3d 7271 f9bc 397c 3cbd c186 cf3c
00000010: 7b5a bdbc c359 813d 0bd8 2d3d 3bbb 20bd
00000020: c28f 55bd 1ecb 7cbc 7a6d 86bd 2373 26bd
00000030: 3da2 5dbd f4ea 0cbe 6248 ecbc e81a 91bd
00000040: 70ea d9bc e3dc 4d3d 00fd 2ebd b79b 393d
00000050: be3b a0bd 6ccc 7fbd e29e b6bd 1881 52bb
00000060: ed97 003d c2dd 753d c2f8 983d 0dd2 4e3d
00000070: f8e3 39bd 2b74 eb3c 3afb da3d c4e8 67bd
00000080: a806 2a3d 1ed3 95bd 183b 07be bcc0 8fbd
00000090: 54ad 1f3d 2379 243c 2249 653d 8895 b53d
000000a0: 233f 03bd e8b5 0fbd 69f2 033d bee2 5e3d
000000b0: 87c7 9abd 7895 733d 9b98 c63c a7e8 47bd
000000c0: 0ac8 483c 5147 893d dd6f 4fbd 2b71 36bd
000000d0: b93a c6bd ae20 03bd 8fc7 413d c998 87bd
000000e0: 5bc1 c1bd 7d2a 173d eeb2 75bd c84a 9dbd
000000f0: 45ea 9b3d c7ba abbd 93ce 8cbd 1ede 543d

exp_avg f4 [64, 72]
0.00013768736 9.252503e-05 0.00012727687 0.00010411592 3.1367446e-05 6.370716e-05 4.903056e-05 -3.2419266e-05
-5.8230104e-05 -9.056736e-05 -7.6147335e-05 -0.00015188153 -0.000104597595 -9.3413975e-05 -8.939006e-05 -9.838339e-05
-9.998192e-05 -8.508284e-05 -7.760695e-05 -3.6382007e-05 -0.00010034523 -5.4533266e-05 -1.3712299e-05 -3.0379301e-06
-4.419661e-05 -6.5484615e-05 -5.66161e-05 -4.176193e-05 -1.1897925e-05 -4.685592e-05 -0.00011284629 -9.138723e-05
-5.998585e-05 -8.651503e-05 -7.860088e-05 8.577767e-05 6.897948e-05 0.00010478022 0.0001352958 5.3431606e-05
4.392092e-05 6.399257e-05 5.8369602e-05 -2.5183796e-05 -9.607151e-05 -0.00011298264 -9.890403e-05 -0.00010356699
-0.00011455447 -8.668065e-05 -5.7229452e-05 8.703714e-06 -4.642286e-05 -5.5186294e-05 -2.0555815e-05 -1.6624741e-05
6.911704e-06 4.204128e-05 4.7495512e-05 -1.1107974e-05 -8.494456e-06 2.375036e-05 -1.1104797e-05 5.390853e-05
4.9616243e-05 8.348516e-05 6.379964e-06 2.6639182e-05 -2.5725878e-05 -7.091454e-05 2.038265e-05 2.8159984e-06
4.6499605e-05 5.1584975e-05 8.3293235e-05 5.031441e-05 2.5024026e-05 -5.8891277e-05 -4.4315817e-05 -5.7734418e-05
-2.2304463e-05 -4.4129716e-05 -1.9492418e-05 -9.5478696e-05 -1.730128e-05 -5.2376537e-05 -5.0977225e-05 -7.794289e-05
-4.364688e-05 -5.2672225e-05 -4.7817834e-05 -3.7241443e-05 -9.3166316e-05 -0.00010788646 -0.00010157704 -0.00010479004
-9.166779e-05 -0.00011310944 -5.1491163e-05 -3.8467653e-05 -4.075101e-05 -4.7002566e-05 -4.9090922e-05 -0.00010219524
-9.411749e-05 -6.272063e-05 -3.61095e-05 3.4132878e-05 3.4251803e-05 0.00013837774 0.00012714323 4.574152e-06
1.7208778e-05 7.4224365e-05 0.0001679242 0.00017247154 0.00011855419 0.00012347272 2.1807815e-05 -2.526329e-05
-2.7417076e-05 -3.232197e-05 -5.4231365e-05 -2.6180202e-05 1.5036911e-05 -6.2725376e-06 1.6904022e-06 2.963594e-05
5.8484635e-05 5.285689e-05 5.8133006e-05 3.9400566e-05 4.8215907e-06 3.0097253e-05 2.75498e-05 1.8035013e-05
2.0228676e-05 1.5635062e-05 4.612798e-05 5.0857572e-05 3.3256074e-05 -3.1124204e-05 2.8306647e-05 -4.7911115e-05
5.0824725e-05 0.00013859171 0.00016086583 0.00015755069 0.00012260975 0.00010455744 3.4448203e-05 8.8034874e-05
0.00013989284 0.00013799215 0.00015392095 4.775389e-05 7.6690696e-05 -1.4407088e-05 2.4562756e-05 1.1051871e-05
5.0019644e-05 4.164067e-05 4.551645e-05 0.00015699622 0.00010133977 7.9641904e-05 0.00013270759 0.00014137522
0.00014828032 0.00013706053 5.5487846e-05 0.00010931403 0.00012845111 0.00011510923 6.816396e-05 1.46208195e-05
-5.138128e-05 -3.7268175e-05 -6.3547675e-05 1.1873977e-05 2.8494118e-05 6.5546206e-05 0.00010542025 -0.00011861617
-0.00010083401 -7.0306756e-05 -3.0815743e-05 -7.3168994e-05 -0.0001480057 -9.0070855e-05 -7.025011e-05 -9.408604e-05
-9.190136e-05 -3.5909383e-05 -2.6616355e-05 -2.5038127e-05 -4.780369e-05 -8.776386e-05 -7.543854e-05 -6.7174165e-05
-2.9505638e-05 -2.7082728e-05 -1.2138094e-05 -4.0133905e-06 4.3252992e-05 3.7859685e-05 -6.122058e-05 -2.7125809e-05
-2.271821e-05 9.129659e-06 -8.779844e-05 -0.00012346255 -8.25646e-05 -0.0001396774 -0.00010698031 -0.00019822743
-2.9802057e-05 -4.569726e-05 -1.8735811e-05 -4.798188e-05 -4.560868e-05 -1.137602e-05 -3.6186022e-05 -3.691255e-05
-2.3348084e-05 -4.2247848e-05 -1.3558234e-05 -2.5938112e-05 -3.0780804e-05 -3.2363558e-05 -4.5379817e-05 -4.1133393e-05
-3.7241218e-05 -4.3899803e-05 -5.407394e-05 -6.559088e-05 -7.177146e-05 -7.4155054e-05 -8.185234e-05 -4.424006e-05
-4.6178586e-05 -3.640161e-05 -5.7924703e-05 -4.3467808e-05 -1.5836977e-05 -1.5411935e-05 -1.6726046e-05 -1.7862913e-06
3.8942526e-05 1.623362e-05 9.141107e-06 1.3220463e-05 -1.1094585e-05 7.9646425e-06 2.2911174e-05 1.2243607e-05
00000000: 2b60 1039 ff09 c238 a075 0539 cf58 da38
00000010: 8a90 0338 859a 8538 2aa6 4d38 ecf9 07b8
00000020: 193c 74b8 fbee bdb8 4ab1 9fb8 6342 1fb9
00000030: 685b dbb8 3fe7 c3b8 ec76 bbb8 2e53 ceb8
00000040: 62ad d1b8 806e b2b8 eac0 a2b8 e298 18b8
00000050: 6f70 d2b8 a6ba 64b8 e00d 66b7 3edf 4bb6
00000060: c05f 39b8 c954 89b8 1377 6db8 8829 2fb8
00000070: 339d 47b7 2987 44b8 e4a7 ecb8 25a7 bfb8
00000080: 5199 7bb8 676f b5b8 87d6 a4b8 89e3 b338
00000090: 14a9 9038 74bd db38 31de 0d39 c01b 6038
000000a0: bb37 3838 c033 8638 e2d1 7438 ca41 d3b7
000000b0: 007a c9b8 18f1 ecb8 b26a cfb8 1b32 d9b8
000000c0: f63c f0b8 52c8 b5b8 a809 70b8 2b06 1237
000000d0: 2bb6 42b8 d577 67b8 476f acb7 5c75 8bb7
000000e0: 16eb e736 7b55 3038 eb35 4738 635c 3ab7
000000f0: 6983 0eb7 823b c737 bd4e 3ab7 d81b 6238
00000100: 091b 5038 c114 af38 7913 d636 3577 df37
00000110: e7cd d7b7 f4b7 94b8 68fb aa37 7cfa 3c36
00000120: 9208 4338 f25c 5838 b7ad ae38 b008 5338
00000130: b0ea d137 0702 77b8 bfdf 39b8 dc27 72b8
00000140: 781a bbb7 ec17 39b8 a683 a3b7 bc3b c8b8
00000150: 3722 91b7 e1ae 5bb8 61d0 55b8 4575 a3b8
00000160: 7b11 37b8 5fec 5cb8 0290 48b8 b233 1cb8
00000170: 4962 c3b8 1a41 e2b8 c205 d5b8 b9c2 dbb8
00000180: c53d c0b8 2b35 edb8 37f8 57b8 5458 21b8
00000190: 10ec 2ab8 9f24 45b8 fae6 4db8 a751 d6b8
000001a0: f160 c5b8 e288 83b8 4874 17b8 e629 0f38
000001b0: 98a9 0f38 7e19 1139 c051 0539 ab7b 9936
000001c0: 925b 9037 e7a8 9b38 cf14 3039 7ad9 3439
000001d0: 4ca0 f838 7578 0139 edef b637 81ec d3b7
000001e0: b9fd e5b7 7391 07b8 7c76 63b8 8e9d dbb7
000001f0: 0a47 7c37 b078 d2b6 c7e1 e235 b29a f837
00000200: 664d 7538 a7b2 5d38 d7d3 7338 0942 2538
00000210: 26c9 a136 5c79 fc37 bf1a e737 e549 9737
00000220: c0b0 a937 0a28 8337 8b79 4138 e74f 5538
00000230: 707c 0b38 5c8b 02b8 1074 ed37 2bf4 48b8
00000240: a22c 5538 ee52 1139 18ae 2839 3134 2539
00000250: ce90 0039 d945 db38 7a7c 1038 5d9f b838
00000260: 33b0 1239 fcb1 1039 d765 2139 594b 4838
00000270: 01d5 a038 f9b5 71b7 1e0c ce37 6d6b 3937
00000280: 2fcc 5138 54a7 2e38 ebe8 3e38 5a9f 2439
00000290: 6086 d438 6c05 a738 6c27 0b39 1f3e 1439
000002a0: b27b 1b39 e8b7 0f39 9fbb 6838 863f e538
000002b0: d5b0 0639 cc66 f138 3ff3 8e38 f14b 7537
000002c0: 3b82 57b8 6650 1cb8 e644 85b8 5836 4737
000002d0: a706 ef37 da75 8938 1115 dd38 92c1 f8b8
000002e0: d976 d3b8 a771 93b8 2740 01b8 4e72 99b8
000002f0: fa31 1bb9 6ce4 bcb8 3e53 93b8 0f50 c5b8
00000300: 2bbb c0b8 689d 16b8 3046 dfb7 f808 d2b7
00000310: d280 48b8 dd0d b8b8 c234 9eb8 dbdf 8cb8
00000320: e082 f7b7 b72f e3b7 b7a4 4bb7 c3aa 86b6
00000330: 8c6a 3538 87cb 1e38 8c63 80b8 3b8c e3b7
00000340: fc92 beb7 962b 1937 6e20 b8b8 ba75 01b9
00000350: 8826 adb8 5e76 12b9 9e5a e0b8 45db 4fb9
00000360: 6eff f9b7 0fab 3fb8 d92a 9db7 2740 49b8
00000370: f24b 3fb8 a2db 3eb7 72c6 17b8 8cd2 1ab8
00000380: a1db c3b7 4833 31b8 2c78 63b7 ac95 d9b7
00000390: a31a 01b8 1bbe 07b8 3556 3eb8 a586 2cb8
000003a0: 7433 1cb8 0e21 38b8 73cd 62b8 d68d 89b8
000003b0: 0284 96b8 b183 9bb8 24a8 abb8 678e 39b8
000003c0: e1af 41b8 eead 18b8 2df4 72b8 3451 36b8
000003d0: a6d9 84b7 e148 81b7 e94e 8cb7 80c0 efb5
000003e0: 3856 2338 6f2d 8837 c15c 1937 75cd 5d37
000003f0: e122 3ab7 e19f 0537 5f31 c037 e469 4d37

exp_avg_sq f4 [64, 72]
3.6444197e-07 3.6302168e-07 3.493627e-07 3.3605784e-07 3.5088144e-07 3.3844915e-07 3.5512133e-07 3.8804623e-07
4.3724418e-07 4.082321e-07 3.826038e-07 3.585408e-07 3.2112055e-07 3.1073262e-07 3.1724935e-07 3.1606612e-07
3.0717604e-07 2.9759562e-07 2.8631723e-07 2.8467304e-07 2.9783695e-07 3.2868635e-07 3.4334633e-07 3.0598414e-07
2.6198913e-07 2.3719575e-07 2.3230051e-07 2.0604243e-07 1.8458694e-07 1.9643929e-07 2.219805e-07 2.5015368e-07
2.7077374e-07 3.1685508e-07 3.8849575e-07 4.109383e-07 3.8933723e-07 3.789204e-07 3.3349676e-07 2.961877e-07
2.8774906e-07 3.1834946e-07 3.665165e-07 4.385513e-07 4.684809e-07 4.5398448e-07 4.3770046e-07 4.349991e-07
4.1020323e-07 2.6913617e-07 3.0794124e-07 2.7431147e-07 2.653936e-07 2.7872008e-07 2.927973e-07 2.9490485e-07
3.0069495e-07 2.9339375e-07 2.2667278e-07 1.9002104e-07 1.6422071e-07 1.6608301e-07 1.7895573e-07 2.074159e-07
2.5581576e-07 2.5944934e-07 1.9632772e-07 1.5503142e-07 1.6086503e-07 1.6716642e-07 1.9050529e-07 2.4076084e-07
1.5150194e-07 1.540144e-07 1.5748749e-07 1.5066645e-07 1.5687354e-07 1.4500549e-07 1.4005194e-07 1.2786451e-07
1.2977422e-07 1.3591502e-07 1.4786761e-07 1.6417296e-07 1.896215e-07 2.0883311e-07 2.4166545e-07 2.5387757e-07
2.5616984e-07 2.50492e-07 2.4169427e-07 2.2632462e-07 2.2143703e-07 2.1584479e-07 2.0821332e-07 2.0860628e-07
2.084756e-07 2.1156163e-07 1.9951777e-07 2.0682862e-07 2.3373723e-07 2.7502338e-07 3.3306958e-07 3.7831236e-07
4.3586746e-07 4.9768715e-07 5.2902135e-07 5.2309724e-07 4.992441e-07 4.239532e-07 3.9064966e-07 3.9140986e-07
3.9957325e-07 3.8561387e-07 4.1009952e-07 4.3793563e-07 4.5034872e-07 4.1832098e-07 3.7352467e-07 3.3491696e-07
3.328638e-07 2.862091e-07 2.7365496e-07 2.4301517e-07 2.1856144e-07 2.0400658e-07 2.0169212e-07 1.824873e-07
1.6503846e-07 1.5677693e-07 1.488314e-07 1.2810061e-07 1.0560575e-07 9.50821e-08 9.492377e-08 9.059773e-08
8.809e-08 9.186302e-08 9.660722e-08 1.0243378e-07 1.2870271e-07 1.582508e-07 2.2328955e-07 2.9399973e-07
7.110652e-07 6.4281835e-07 6.246536e-07 5.6645735e-07 5.8402753e-07 5.7401036e-07 6.0668924e-07 6.222834e-07
7.4186835e-07 7.098087e-07 7.7710956e-07 7.4797833e-07 7.8398415e-07 8.211542e-07 9.0638787e-07 8.5974426e-07
9.049795e-07 9.4059914e-07 9.716683e-07 1.006292e-06 1.0654161e-06 1.1260128e-06 1.0942546e-06 1.0015408e-06
8.651321e-07 7.415395e-07 6.705513e-07 5.9589036e-07 5.770417e-07 5.4416944e-07 5.615213e-07 5.819461e-07
6.6380585e-07 7.107961e-07 7.0598117e-07 7.182582e-07 7.253913e-07 6.7036956e-07 5.93381e-07 5.088157e-07
4.1707546e-07 3.728419e-07 3.2110017e-07 3.252688e-07 3.4639476e-07 3.2521405e-07 4.5640883e-07 4.2473306e-07
4.3729565e-07 4.0829607e-07 3.852766e-07 3.0496793e-07 2.726524e-07 2.5654376e-07 2.4465467e-07 2.2356934e-07
1.9608554e-07 1.9320628e-07 1.8718784e-07 1.9450215e-07 1.9933812e-07 2.474218e-07 3.0413938e-07 3.7404175e-07
4.3784547e-07 3.9833358e-07 2.7266665e-07 2.7956773e-07 3.8118625e-07 4.9128613e-07 7.382351e-07 9.942124e-07
2.054343e-08 1.8163238e-08 1.779984e-08 1.8314463e-08 1.9780357e-08 2.1298362e-08 2.3964184e-08 2.5585368e-08
2.8726985e-08 3.1141973e-08 3.623401e-08 4.279259e-08 4.526867e-08 5.2587882e-08 6.4299165e-08 6.6289104e-08
7.710754e-08 9.233212e-08 1.03147585e-07 1.2367029e-07 1.3674473e-07 1.4743874e-07 1.4607741e-07 1.3237528e-07
1.114019e-07 9.2906596e-08 8.272825e-08 7.3684966e-08 7.669002e-08 8.907732e-08 1.0889962e-07 1.2956073e-07
1.4329682e-07 1.5514834e-07 1.5498024e-07 1.6804555e-07 1.8141671e-07 1.8565169e-07 2.0099552e-07 2.0482952e-07
00000000: 86a8 c334 52e5 c234 0b90 bb34 706b b434
00000010: c760 bc34 19b4 b534 81a7 be34 ab54 d034
00000020: 62be ea34 fe2a db34 aa68 cd34 797d c034
00000030: 7966 ac34 c4d2 a634 6b52 aa34 ccaf a934
00000040: f4e9 a434 3bc5 9f34 24b7 9934 2ad5 9834
00000050: 66e6 9f34 4f76 b034 2955 b834 2446 a434
00000060: 83a7 8c34 dfaf 7e34 476e 7934 833c 5d34
00000070: df32 4634 d2ec 5234 8959 6e34 dc4c 8634
00000080: dc5e 9134 3b1c aa34 7392 d034 ee9e dc34
00000090: 1a06 d134 6c6e cb34 720b b334 ba03 9f34
000000a0: ee7b 9a34 9ee9 aa34 a5c5 c434 0872 eb34
000000b0: 8683 fb34 27bb f334 18fd ea34 d289 e934
000000c0: e739 dc34 cb7d 9034 1f53 a534 1545 9334
000000d0: 6b7b 8e34 ffa2 9534 c131 9d34 6a53 9e34
000000e0: 336f a134 bb83 9d34 5763 7334 9608 4c34
000000f0: a554 3034 8d54 3234 fa26 4034 0cb6 5e34
00000100: 0d57 8934 724a 8b34 27ce 5234 b676 2634
00000110: 3eba 2c34 5b7e 3334 b28d 4c34 eb41 8134
00000120: 89ac 2234 285f 2534 d519 2934 e1c6 2134
00000130: 1271 2834 ceb2 1b34 2f61 1634 214b 0934
00000140: 1158 0b34 09f0 1134 8ac5 1e34 8547 3034
00000150: c39a 4b34 9c3b 6034 3fbe 8134 ab4c 8834
00000160: b787 8934 5c7b 8634 35c2 8134 a303 7334
00000170: 26c4 6d34 f7c2 6734 3e91 5f34 42fd 5f34
00000180: 56d9 5f34 9e29 6334 073b 5634 9e14 5e34
00000190: 33f9 7a34 eda6 9334 bcd0 b234 db1a cb34
000001a0: 2b01 ea34 cd98 0535 1202 0e35 f86a 0c35
000001b0: cb03 0635 af9b e334 7bba d134 f622 d234
000001c0: ee84 d634 5e06 cf34 a62b dc34 6a1d eb34
000001d0: 75c7 f134 9995 e034 d788 c834 a3ce b334
000001e0: 74b4 b234 47a8 9934 daea 9234 c077 8234
000001f0: b6ad 6a34 e70c 5b34 b590 5834 baf1 4334
00000200: 6d35 3134 8456 2834 77ce 1f34 078c 0934
00000210: 60c9 e233 f02f cc33 e5d8 cb33 a18e c233
00000220: fd2b bd33 3b46 c533 6176 cf33 91f9 db33
00000230: 8831 0a34 a6eb 2934 5dc1 6f34 04d7 9d34
00000240: 07e0 3e35 248e 2c35 dead 2735 a70e 1835
00000250: 11c6 1c35 b115 1a35 5edb 2235 fd0a 2735
00000260: ce24 4735 af89 3e35 909a 5035 aec8 4835
00000270: fb72 5235 496d 5c35 804e 7335 2dc9 6635
00000280: b8ed 7235 7b7d 7c35 456a 8235 ee0f 8735
00000290: 6bff 8e35 8121 9735 4dde 9235 ae6c 8635
000002a0: 6d3b 6835 350e 4735 efff 3335 46f5 1f35
000002b0: 01e6 1a35 0a13 1235 73bb 1635 0837 1c35
000002c0: 6430 3235 89cd 3e35 a882 3d35 54ce 4035
000002d0: 83b8 4235 72f3 3335 d548 1f35 8c95 0835
000002e0: 6aea df34 002b c834 ac63 ac34 9aa0 ae34
000002f0: 22f8 b934 1499 ae34 5a08 f534 de06 e434
00000300: 75c5 ea34 c933 db34 03d8 ce34 79ba a334
00000310: 0f61 9234 1bbb 8934 1559 8334 460e 7034
00000320: 958b 5234 2374 4f34 cdfd 4834 58d8 5034
00000330: a509 5634 65d5 8434 9948 a334 e8cf c834
00000340: 0611 eb34 8dda d534 0563 9234 7f17 9634
00000350: d7a5 cc34 ede0 0335 212b 4635 e170 8535
00000360: 7b77 b032 6205 9c32 43e6 9832 ee51 9d32
00000370: 77e9 a932 98f3 b632 ccd9 cd32 d2c6 db32
00000380: 4fc3 f632 f6c0 0533 b79f 1b33 f3ca 3733
00000390: 6e6d 4233 fddc 6133 d714 8a33 d25a 8e33
000003a0: 5296 a533 1f48 c633 fc81 dd33 3bca 0434
000003b0: 1bd4 1234 a74f 1e34 74d9 1c34 0a23 0e34
000003c0: d83b ef33 f183 c733 56a8 b133 bd3c 9e33
000003d0: c9b0 a433 c64a bf33 33dc e933 621d 0b34
000003e0: 21dd 1934 da96 2634 a568 2634 0270 3434
000003f0: 72cb 4234 8c57 4734 3ad1 5734 1cef 5b34

exp_avg f4 [64]
-5.7452628e-05 -2.4940722e-05 -0.0002819379 -3.3721353e-05 0.0002821077 -9.981153e-05 -0.0003800044 2.261216e-05
7.793771e-05 -3.559548e-06 -3.3641903e-05 7.658766e-05 -6.3637584e-05 -5.9799546e-05 3.2085063e-05 1.7393195e-05
-0.00012610077 -6.0312505e-05 5.0766826e-05 8.199012e-05 9.54382e-05 -7.2813906e-05 7.715378e-05 -0.00019158071
-4.592007e-05 -3.821027e-06 -2.529793e-05 -0.00010809271 -6.952617e-06 -7.5726607e-06 -6.654981e-05 -0.00014380128
0.00013068091 1.753729e-05 -7.558692e-05 1.32754185e-05 -4.0173538e-05 9.075444e-05 2.2133423e-05 -1.13439655e-05
4.703222e-05 2.9687177e-05 0.000104168204 -7.456111e-05 -0.0003218433 -6.761255e-05 9.3936025e-05 -8.147035e-05
0.00012587884 -3.835451e-05 1.43764155e-05 -5.0478557e-05 -1.682328e-05 -2.4052744e-05 -3.5522637e-05 3.276323e-05
-2.1782731e-05 0.00025207282 0.00014559545 0.00013602444 -2.2009597e-05 0.00015630486 -2.0550346e-05 -4.4644432e-05
00000000: 4af9 70b8 cb37 d1b7 10d1 93b9 0770 0db8
00000010: dbe7 9339 e851 d1b8 543b c7b9 3eaf bd37
00000020: 7d72 a338 92e0 6eb6 b81a 0db8 b09d a038
00000030: 2b75 85b8 46d1 7ab8 1393 0638 9ae7 9137
00000040: eb39 04b9 0ff8 7cb8 77ee 5438 1cf2 ab38
00000050: fe25 c838 abb3 98b8 9fcd a138 0ee3 48b9
00000060: 4d9a 40b8 5f36 80b6 e436 d4b7 d5af e2b8
00000070: 864a e9b6 a918 feb6 a890 8bb8 5dc9 16b9
00000080: 6407 0939 0b1d 9337 6b84 9eb8 7db9 5e37
00000090: 0280 28b8 6b53 be38 2aab b937 f651 3eb7
000000a0: 7644 4538 ba08 f937 e174 da38 b15d 9cb8
000000b0: 14bd a8b9 36cb 8db8 85ff c438 10db aab8
000000c0: 58fe 0339 d7de 20b8 3c32 7137 f0b8 53b8
000000d0: b81f 8db7 e0c4 c9b7 24fe 14b8 406b 0938
000000e0: 0fba b6b7 a428 8439 fbaa 1839 c8a1 0e39
000000f0: 40a1 b8b7 c4e5 2339 8863 acb7 9840 3bb8
