rl_planner/ppo_with_noise/noise_reward_329.pt (torch, 231323 bytes, 30 tensors)

critic.0.weight f4 [64, 72]
-0.008165183 -0.14897174 0.020022374 0.14508536 -0.082206935 0.043319024 0.025998311 0.08113649
-0.13601999 0.034830395 -0.07125335 0.017098278 0.21750194 0.048092302 0.028328877 0.00066221197
-0.09917962 -0.021709185 0.050482877 0.007508398 -0.19475505 -0.12741946 0.06303082 -0.032604814
0.10959227 -0.22531171 -0.25403994 -0.26157066 -0.13267346 -0.19133501 -0.32780004 0.20242779
-0.014027217 -0.010504339 -0.21191746 -0.14286551 -0.047613066 -0.28596792 0.06370637 -0.1584046
0.13081461 -0.26301482 -0.19755559 -0.05084752 -0.35125005 0.062334027 -0.097417705 0.043317992
-0.11551182 0.25139678 -0.40768757 0.09372473 -0.12408209 -0.0675897 -0.0021635354 -0.04284546
-0.36556587 0.012513109 0.093176425 -0.18158665 0.13470009 -0.054848544 -0.32123676 -0.1907497
0.08931748 0.07927098 0.026288593 0.014695711 -0.16430543 0.08174992 0.0017398363 0.16938682
0.3876718 -0.007172828 0.03544183 -0.12030102 0.108853735 -0.10127619 0.04405798 -0.120930746
-0.12595733 -0.15718172 -0.092815414 -0.22184533 -0.20879391 0.06885679 0.10038481 0.28874597
0.086261325 -0.0681546 0.020320127 -0.20589846 -0.14596157 -0.2922415 -0.12192649 -0.18219085
-0.10778311 0.024295343 -0.21233761 0.2879436 -0.049559813 0.20343193 -0.12835965 0.15179795
0.27114958 -0.15390693 0.13855785 0.017855322 0.23650986 0.12395705 -0.055956338 -0.113668256
-0.026361587 0.13392152 0.053600714 -0.0022845073 -0.049334776 -0.007028665 -0.014246473 -0.2467277
-0.054660525 0.12741093 -0.07346047 0.09188742 0.25250345 -0.23041429 0.07167076 -0.12084381
0.38147226 0.22136615 -0.20818174 -0.060666587 -0.20453131 -0.33083087 -0.081863634 -0.47008556
-0.25036055 -0.30712336 -0.34152466 0.017038736 -0.10640118 -0.06825322 0.16633704 0.06413067
0.13984796 -0.09091506 0.17398842 -0.046306368 -0.24839528 -0.108181044 0.11227276 0.075536594
0.14538676 -0.06542745 0.12840842 -0.08807382 -0.07853302 -0.041267976 -0.22241028 -0.10767783
0.27479908 -0.26414293 0.024818443 0.07186967 -0.040504564 -0.026446393 0.054619793 0.27136284
-0.30288127 0.1557096 0.13742112 -0.09853595 -0.059284728 0.26035777 0.08076357 0.018701442
-0.14383517 0.261024 -0.084474884 -0.13661945 -0.028038621 0.10937251 0.0676647 0.26003358
0.12120706 0.08457751 -0.17845607 -0.13913432 -0.08534835 -0.4692818 0.2505551 -0.17059265
0.17975667 0.0034994844 0.042782526 0.27221134 0.20456298 -0.13340403 0.16101512 -0.08345877
0.1962928 0.13738304 0.1208872 -0.051304433 0.247475 0.0060786493 -0.001998517 0.05220006
-0.15915708 -0.17178608 -0.08037559 -0.046960536 -0.1328794 -0.021881828 -0.08614712 -0.032568455
-0.25797093 0.16127849 0.19299358 -0.021489875 0.06446141 0.2770093 -0.10500116 0.08154236
0.16949375 -0.16606407 0.11175876 0.13454327 0.19755623 0.17595899 0.09151209 0.3241547
0.058484156 0.23681808 -0.1463803 0.22210981 0.097252384 -0.17785035 -0.18292041 -0.071632236
-0.18350747 0.15019403 -0.03627115 -0.021456597 0.22927609 -0.21359971 -0.36771002 -0.4321865
-0.13779016 0.028330602 0.06708425 0.037976317 -0.045147914 -0.017316785 -0.32461783 -0.052509192
00000000: 42c7 05bc 0c8c 18be f605 a43c 4291 143e
00000010: 1c5c a8bd 4a6f 313d 69fa d43c e32a a63d
00000020: d348 0bbe 51aa 0e3d 47ed 91bd b011 8c3c
00000030: d4b8 5e3e 6ffc 443d f611 e83c 4b98 2d3a
00000040: af1e cbbd 76d7 b1bc 22c7 4e3d 0209 f63b
00000050: de6d 47be 3f7a 02be 4d16 813d a08c 05bd
00000060: e971 e03d 1db8 66be 8611 82be 97ec 85be
00000070: 8ddb 07be 53ed 43be 68d5 a7be 3b49 4f3e
00000080: 6ad2 65bc 641a 2cbc e400 59be 564b 12be
00000090: eb05 43bd 636a 92be 7c78 823d d134 22be
000000a0: 44f4 053e e1a9 86be 034c 4abe 7d45 50bd
000000b0: 0cd7 b3be f751 7f3d ef82 c7bd 356e 313d
000000c0: 7691 ecbd 14b7 803e 6dbc d0be c0f2 bf3d
000000d0: c01e febd 786c 8abd 1aca 0dbb b97e 2fbd
000000e0: 732b bbbe c803 4d3c 48d3 be3d daf1 39be
000000f0: d2ee 093e dea8 60bd 2579 a4be e453 43be
00000100: 15ec b63d d358 a23d 2d5b d73c 48c6 703c
00000110: af3f 28be 816c a73d 380b e43a bd73 2d3e
00000120: eb7c c63e 0b0a ebbb 742b 113d 6260 f6bd
00000130: b5ee de3d e469 cfbd 2476 343d 8aaa f7bd
00000140: f5fa 00be 3ff4 20be 0216 bebd 6c2b 63be
00000150: 12ce 55be ca04 8d3d 8d96 cd3d 83d6 933e
00000160: c7a9 b03d a494 8bbd 6576 a63c 0cd7 52be
00000170: f376 15be aea0 95be 98b4 f9bd 3d90 3abe
00000180: 64bd dcbd 0707 c73c 086f 59be 586d 933e
00000190: 3bff 4abd 7650 503e b670 03be ec70 1b3e
000001a0: 1ed4 8a3e c799 1dbe 1ce2 0d3e 5345 923c
000001b0: a42f 723e 32dd fd3d 7932 65bd e7ca e8bd
000001c0: 41f4 d7bc b922 093e 6c8c 5b3d acb7 15bb
000001d0: 4313 4abd b750 e6bb 0a6a 69bc 30a6 7cbe
000001e0: b7e3 5fbd 0378 023e 7172 96bd 792f bc3d
000001f0: 2248 813e b9f1 6bbe 1fc8 923d f67c f7bd
00000200: 5550 c33e cfad 623e 982d 55be 877d 78bd
00000210: a870 51be aa62 a9be 1fa8 a7bd 0eaf f0be
00000220: 422f 80be 463f 9dbe 52dc aebe d294 8b3c
00000230: dde8 d9bd 58c8 8bbd 4254 2a3e f156 833d
00000240: 4e34 0f3e ad31 babd 052a 323e bfab 3dbd
00000250: 555b 7ebe 068e ddbd 43ef e53d eeb2 9a3d
00000260: 44e0 143e d4fe 85bd 7f7d 033e 0c60 b4bd
00000270: ecd5 a0bd 9c08 29bd 85bf 63be 3286 dcbd
00000280: 77b2 8c3e be3d 87be 0c50 cb3c 6830 933d
00000290: 1de8 25bd 1ba6 d8bc 01b9 5f3d 12f0 8a3e
000002a0: 4113 9bbe 5672 1f3e 1fb8 0c3e 37cd c9bd
000002b0: 8bd4 72bd 9d4d 853e 5f67 a53d c433 993c
000002c0: 8749 13be f0a4 853e 2b01 adbd f8e5 0bbe
000002d0: 40b1 e5bc b2fe df3d ca93 8a3d 1f23 853e
000002e0: 683b f83d f936 ad3d 30bd 36be 3a79 0ebe
000002f0: 1ecb aebd b445 f0be c248 803e d7af 2ebe
00000300: 2212 383e 9b57 653b bb3c 2f3d 495f 8b3e
00000310: f578 513e 119b 08be 26e1 243e 6eec aabd
00000320: fb00 493e 24ae 0c3e b593 f73d 9924 52bd
00000330: 166a 7d3e 682f c73b 8df9 02bb bbcf 553d
00000340: 13fa 22be b1e8 2fbe f59b a4bd b159 40bd
00000350: 8a11 08be 8541 b3bc e76d b0bd 8066 05bd
00000360: c414 84be 3026 253e 1ca0 453e 890b b0bc
00000370: 5804 843d 2ad4 8d3e d90a d7bd aeff a63d
00000380: c58f 2d3e b30c 2abe c7e1 e43d b6c5 093e
00000390: 2e4c 4a3e 982e 343e b16a bb3d 9bf7 a53e
000003a0: 158d 6f3d 7080 723e b8e4 15be c170 633e
000003b0: 422c c73d 671e 36be 7d4f 3bbe ecb3 92bd
000003c0: 62e9 3bbe 77cc 193e 0f91 14bd bfc5 afbc
000003d0: 5ac7 6a3e e2b9 5abe 7d44 bcbe 8d47 ddbe
000003e0: dd18 0dbe 9415 e83c 7863 893d 0e8d 1b3d
000003f0: 05ed 38bd eedb 8dbc 4f34 a6be e113 57bd

critic.0.bias f4 [64]
0.3679069 0.25046286 0.4167892 -0.14928313 -0.26580033 0.20348036 0.53431267 -0.21675833
-0.16036615 -0.0691343 0.31068537 -0.20366186 0.3910379 -0.06102649 0.17569673 -0.17369017
0.3009263 0.27490515 0.063524604 -0.2797482 -0.13529445 0.41262463 -0.21281227 0.41313156
0.36589074 0.27583423 -0.1885927 0.20317884 -0.19865285 0.42592657 0.2554497 0.19869417
-0.34566906 0.2057799 0.30829498 -0.23616497 -0.18989994 -0.23601943 -0.33013794 -0.18753165
-0.40262243 0.1409489 -0.19297715 0.30107978 0.3418238 0.17006606 -0.20638716 0.45028713
-0.18451786 0.01068278 0.1274354 0.24874148 -0.23449838 -0.10527557 0.25117102 -0.21896446
0.045343358 -0.3308258 -0.24196862 -0.4014951 0.21654354 -0.25586742 0.30259952 0.19702363
00000000: 4b5e bc3e ab3c 803e 6565 d53e addd 18be
00000010: fb16 88be 285d 503e b7c8 083f e5f5 5dbe
00000020: 0637 24be 4996 8dbd 2712 9f3e bc8c 50be
00000030: 1f36 c83e eaf6 79bd d8e9 333e d6db 31be
00000040: 0313 9a3e 5ec0 8c3e 3019 823d 283b 8fbe
00000050: a18a 0abe 8943 d33e 76eb 59be fb85 d33e
00000060: 0856 bb3e 253a 8d3e 721e 41be 1d0e 503e
00000070: a76b 4bbe 0c13 da3e 4eca 823e 7c76 4b3e
00000080: 89fb b0be f7b7 523e d7d8 9d3e 3bd5 71be
00000090: 2175 42be 14af 71be d707 a9be 4c08 40be
000000a0: 8724 cebe e954 103e cd9b 45be 2127 9a3e
000000b0: 8703 af3e cc25 2e3e 2857 53be 098c e63e
000000c0: 40f2 3cbe d406 2f3c 6d7e 023e 16b6 7e3e
000000d0: 5820 70be b89a d7bd 7d99 803e 3838 60be
000000e0: f5b9 393d 0062 a9be 9fc6 77be c490 cdbe
000000f0: 97bd 5d3e 0e01 83be 53ee 9a3e 90c0 493e

critic.2.weight f4 [64, 64]
-0.12478806 0.12256682 -0.08885864 -0.15667774 0.096755765 -0.01767513 -0.22546317 0.05352105
0.04492639 -0.09800358 0.3325787 -0.054917946 0.053759012 0.208983 -0.22507414 -0.20105322
0.027450204 -0.15350033 -0.19825284 0.037244193 0.09959503 0.09629471 0.15536095 -0.059933092
-0.094753906 0.3247225 -0.099788204 -0.16607699 0.030359676 0.2646386 -0.110863134 -0.14502282
0.13072956 -0.16027036 -0.10775306 0.015795743 0.6429078 0.026168833 -0.014001861 -0.0065405583
0.09823327 0.1259764 0.0011383176 -0.11048147 -0.19013834 -0.090745576 0.020121977 -0.14383437
0.15509142 -0.034667403 0.117353454 0.46888623 0.1257576 0.17541023 -0.19793901 -0.064793035
0.4821547 -0.18646432 -0.10155962 0.35230702 -0.09650944 0.13369526 -0.18005908 -0.12876691
-0.19201568 -0.04314245 0.13170682 0.27908406 -0.19070253 0.06646544 0.040448125 -0.22772057
0.24373624 -0.047097202 -0.27397427 0.053442538 -0.03296625 -0.019597352 0.11070749 0.119846135
-0.07987163 -0.18129958 -0.09601933 0.1075676 0.4376142 -0.25136656 -0.04324337 -0.10392852
-0.34705862 -0.15020858 -0.18741828 0.0033467382 -0.0072703445 -0.037971385 -0.3619847 0.3513416
-0.0130578065 0.22490774 -0.08199335 0.06415902 0.2809352 0.007200051 -0.11135432 0.12206243
-0.38695705 0.11855871 0.3184083 0.17403555 0.13175316 -0.16820948 0.17989144 0.35288507
0.10791125 0.042566966 -0.03535497 0.21249986 0.09791849 0.14018229 -0.1391388 0.072583385
-0.0075435154 -0.028960887 -0.12090075 0.1399386 -0.056119055 0.18811233 0.13239767 0.0058361455
-0.22230732 -0.07193752 -0.29231963 -0.20440118 0.15474406 0.06684233 -0.11867638 0.034091365
0.13008657 0.12010011 -0.28554708 0.49075568 0.26820686 0.053575214 0.101457626 0.105510876
-0.28428802 0.37491888 -0.017722966 -0.14087619 -0.099525705 0.32266623 -0.051501922 -0.013122595
0.12919629 0.04630425 -0.12534365 -0.1691819 -0.10884725 0.21891475 0.16392475 0.3093813
0.2756519 -0.0365818 -0.30938965 -0.4400631 -0.096854664 0.2025915 0.10851396 0.164073
-0.0694909 -0.064755805 -0.20737404 -0.027737107 -0.10617419 -0.27442217 0.0007433765 -0.0816116
-0.11511295 -0.37806168 0.18002972 -0.04153582 -0.042756937 -0.30900392 -0.06574216 -0.12742554
-0.05039377 0.08382893 -0.2658465 0.11772742 0.14815372 -0.058080193 0.36899936 0.018808557
-0.10706482 -0.23249765 0.18365999 0.094274946 -0.26368436 0.056293633 0.026001288 -0.05897639
0.114213794 -0.24668232 -0.26023763 -0.1471112 -0.16350275 0.03985341 -0.12353455 0.28051886
0.11667038 -0.28994763 0.17585844 0.2676348 -0.45166767 -0.06719734 0.03373007 0.15841767
-0.33831486 -0.24996936 -0.046630118 0.21961008 0.2061587 -0.08775067 -0.3406598 -0.21941589
-0.17266552 -0.22059666 -0.14761914 0.08728525 -0.022217562 -0.23400898 -0.13345194 -0.057557587
-0.25327143 0.037279032 -0.1336856 -0.041075625 -0.2952703 0.20842852 -0.044898126 -0.16235031
-0.0050786566 -0.06442505 -0.04065631 -0.04988948 0.19376762 -0.3580937 -0.35631388 -0.09194542
-0.17818314 -0.42707452 0.102318145 -0.10705539 0.30714813 -0.01324068 -0.11671026 -0.43789303
00000000: e290 ffbd 5004 fb3d 85fb b5bd 2170 20be
00000010: e327 c63d 6fcb 90bc d1df 66be e338 5b3d
00000020: bc04 383d 1ab6 c8bd c147 aa3e a4f1 60bd
00000030: 6932 5c3d a4ff 553e d679 66be e5e0 4dbe
00000040: 40df e03c 312f 1dbe cb02 4bbe 5e8d 183d
00000050: 7bf8 cb3d 2936 c53d f116 1f3e 677c 75bd
00000060: 560e c2bd 0742 a63e c25d ccbd 1610 2abe
00000070: dbb4 f83c b67e 873e 360c e3bd dd80 14be
00000080: f8dd 053e ea1d 24be a3ad dcbd 1366 813c
00000090: 9b95 243f 0560 d63c 1068 65bc 2e52 d6bb
000000a0: 862e c93d f5ff 003e 9a33 953a 1c44 e2bd
000000b0: a0b3 42be d1d8 b9bd d8d6 a43c 5149 13be
000000c0: 49d0 1e3e 68ff 0dbd 0257 f03d db11 f03e
000000d0: 9ac6 003e bd9e 333e 86b0 4abe 36b2 84bd
000000e0: fbdc f63e 81f0 3ebe 7dfe cfbd 9661 b43e
000000f0: bea6 c5bd 69e7 083e 6861 38be 79db 03be
00000100: c29f 44be 23b6 30bd 27de 063e 1be4 8e3e
00000110: 8647 43be 081f 883d efac 253d 952f 69be
00000120: fe95 793e ffe8 40bd 5b46 8cbe 90e6 5a3d
00000130: 9e07 07bd a08a a0bc 9cba e23d e471 f53d
00000140: bd93 a3bd 99a6 39be c8a5 c4bd 674c dc3d
00000150: f80e e03e 1eb3 80be f61f 31bd 7ad8 d4bd
00000160: abb1 b1be 47d0 19be 94ea 3fbe f354 5b3b
00000170: 123c eebb e287 1bbd 0f56 b9be 0ce3 b33e
00000180: 69f0 55bc 374e 663e 21ec a7bd ce65 833d
00000190: bdd6 8f3e 68ee eb3b bc0d e4bd defb f93d
000001a0: 3c1f c6be e9ce f23d 6a06 a33e 6036 323e
000001b0: 4dea 063e 1b3f 2cbe 7635 383e 5aad b43e
000001c0: 9300 dd3d b35a 2e3d 5fd0 10bd 9099 593e
000001d0: 7d89 c83d f28b 0f3e 677a 0ebe 99a6 943d
000001e0: 982f f7bb 623f edbc d09a f7bd 104c 0f3e
000001f0: 18dd 65bd 85a0 403e 4193 073e 233d bf3b
00000200: 88a4 63be fa53 93bd ebaa 95be 8b4e 51be
00000210: 3a75 1e3e a2e4 883d 9a0c f3bd 63a3 0b3d
00000220: 6a35 053e 0cf7 f53d 3a33 92be 5444 fb3e
00000230: 6952 893e af71 5b3d 04c9 cf3d 1616 d83d
00000240: 338e 91be 5ef5 bf3e c12f 91bc d941 10be
00000250: 22d4 cbbd 8234 a53e aef3 52bd 2700 57bc
00000260: 084c 043e 86a9 3d3d 165a 00be 053e 2dbe
00000270: 4feb debd 302b 603e e4db 273e 3a67 9e3e
00000280: 3f22 8d3e ccd6 15bd 5268 9ebe f34f e1be
00000290: bd5b c6bd 2574 4f3e 913c de3d c102 283e
000002a0: 3f51 8ebd b19e 84bd dc59 54be ee38 e3bc
000002b0: db71 d9bd 1081 8cbe 27df 423a fc23 a7bd
000002c0: 57c0 ebbd 4d91 c1be b659 383e 7721 2abd
000002d0: e621 2fbd c335 9ebe d3a3 86bd d77b 02be
000002e0: b369 4ebd 81ae ab3d 081d 88be 131b f13d
000002f0: 9cb5 173e 7fe5 6dbd 7ced bc3e 6714 9a3c
00000300: cd44 dbbd dd13 6ebe 5d11 3c3e 3913 c13d
00000310: a301 87be 2794 663d a700 d53c 3a91 71bd
00000320: ece8 e93d 4a9a 7cbe de3d 85be 52a4 16be
00000330: 446d 27be 543d 233d afff fcbd 2ba0 8f3e
00000340: e1f0 ee3d 0474 94be 3c14 343e 6e07 893e
00000350: fc40 e7be c29e 89bd 8b28 0a3d 3e38 223e
00000360: 9b37 adbe f8f7 7fbe 39ff 3ebd 77e1 603e
00000370: 441b 533e a0b6 b3bd f66a aebe 8fae 60be
00000380: 3bcf 30be 17e4 61be 7929 17be 9cc2 b23d
00000390: 9b01 b6bc 0da0 6fbe a0a7 08be 81c1 6bbd
000003a0: cbac 81be e6b1 183d e1e4 08be ea3e 28bd
000003b0: ab2d 97be 496e 553e 19e7 37bd 293f 26be
000003c0: dc6a a6bb 48f1 83bd 3b87 26bd e958 4cbd
000003d0: 056b 463e 0f58 b7be c66e b6be e14d bcbd
000003e0: a475 36be 83a9 dabe 2d8c d13d db3f dbbd
000003f0: 8542 9d3e 70ef 58bc ca05 efbd 8433 e0be

critic.2.bias f4 [64]
-0.26204672 -0.16850878 0.10751636 0.091065966 -0.13210513 -0.29206413 0.21439812 -0.1945289
-0.18748136 0.21024461 0.10177952 0.20722404 0.17487541 0.21478683 0.20167975 -0.30533084
0.28851938 0.16199932 0.19214046 -0.15686601 0.21150881 0.12595718 0.21074043 0.21226758
0.15967909 -0.17953007 -0.24090044 0.2733591 -0.19970335 -0.18527803 -0.063956715 0.19173846
0.03152051 -0.32030717 -0.21793716 0.11981975 0.2812642 -0.2991489 0.19777879 0.12936842
-0.20022555 -0.39265567 -0.09709705 -0.24789862 0.23318501 -0.1843878 0.09198016 -0.20142455
-0.27009562 -0.3369099 -0.24455595 0.26649776 0.27286378 -0.23208384 0.07092026 -0.1479749
0.07374594 0.0026717414 0.15095644 0.1890244 0.17356344 0.16119833 0.118259616 0.14787981
00000000: fd2a 86be 918d 2cbe 8a31 dc3d cb80 ba3d
00000010: 9146 07be 6e89 95be 2e8b 5b3e 9532 47be
00000020: 1dfb 3fbe 5d4a 573e c871 d03d 8a32 543e
00000030: 8a12 333e 14f1 5b3e 2385 4e3e 5354 9cbe
00000040: d0b8 933e 26e3 253e 78c0 443e 7ca1 20be
00000050: c495 583e ebfa 003e 57cc 573e ac5c 593e
00000060: ea82 233e bbd6 37be 9bae 76be b9f5 8b3e
00000070: 097f 4cbe 86b9 3dbe bdfb 82bd 1657 443e
00000080: a61b 013d 4dff a3be eb2a 5fbe 0f64 f53d
00000090: dc01 903e 0b2a 99be 8686 4a3e 2879 043e
000000a0: ed07 4dbe 2a0a c9be d1da c6bd 23d9 7dbe
000000b0: 0dc8 6e3e 28d0 3cbe 1860 bc3d 3d42 4ebe
000000c0: f949 8abe 747f acbe e06c 7abe 6572 883e
000000d0: cdb4 8b3e 63a7 6dbe a43e 913d bb86 17be
000000e0: 1d08 973d 6218 2f3b 5394 1a3e 9d8f 413e
000000f0: 9dba 313e 2d11 253e 1932 f23d ce6d 173e

critic.4.weight f4 [1, 64]
-0.09811812 -0.20427404 0.12935132 0.107595384 -0.18429172 -0.22876295 0.15484776 -0.32465094
-0.13055179 0.04439539 0.19150673 0.18311216 0.29361558 0.12030641 0.12805428 -0.33514574
0.201461 0.20797713 0.11923661 -0.093660906 0.10910802 0.05563946 0.10872127 0.21134144
0.12707983 -0.1316624 -0.12459242 0.13289607 -0.12424868 -0.10635756 -0.12333378 0.23506036
0.10228542 -0.26895553 -0.26367536 0.16339724 0.2535078 -0.26994365 0.11242982 0.29810223
-0.1965264 -0.2263807 -0.12358187 -0.21565032 0.14980455 -0.12554273 0.3329676 -0.16854453
-0.15749338 -0.136041 -0.20588133 0.4397846 0.11402023 -0.16274399 0.1429468 -0.11470035
0.17906138 0.14972179 0.22477277 0.20027451 0.15287398 0.1012724 0.21795899 0.1541758
00000000: 27f2 c8bd 372d 51be ac74 043e f85a dc3d
00000010: f8b6 3cbe d640 6abe 6990 1e3e a638 a6be
00000020: 5eaf 05be f1d7 353d 571a 443e c181 3b3e
00000030: c854 963e 3563 f63d a920 033e 3998 abbe
00000040: cb4b 4e3e f5f7 543e 5332 f43d 4ad1 bfbd
00000050: 0774 df3d 34e6 633d 42a9 de3d e469 583e
00000060: 3721 023e 82d2 06be 502a ffbd e815 083e
00000070: 1876 febd fed1 d9bd 6c96 fcbd aab3 703e
00000080: 057b d13d 8ab4 89be 7500 87be 9b51 273e
00000090: c6cb 813e 0e36 8abe 9b41 e63d dba0 983e
000000a0: 373e 49be 58d0 67be 7e18 fdbd 70d3 5cbe
000000b0: 5d66 193e 468e 00be bb7a aa3e f096 2cbe
000000c0: f245 21be 554e 0bbe 8ed2 52be 722b e13e
000000d0: 7083 e93d 5ca6 26be a560 123e 04e8 eabd
000000e0: de5b 373e ab50 193e d52a 663e c314 4d3e
000000f0: ff8a 1c3e e767 cf3d a430 5f3e 43e0 1d3e

actor_mean.0.weight f4 [64, 72]
0.13281551 -0.27677923 -0.10018589 0.2058898 -0.03954764 -0.17808451 -0.20083596 -0.17640187
-0.22911511 0.049566854 0.25525603 0.11564993 -0.006285658 0.020758009 -0.11760165 -0.30298653
0.2978863 -0.2778563 0.15276702 -0.15855311 0.08671903 -0.076674044 0.091740824 0.08088117
-0.16674168 -0.34634233 -0.0012485969 0.124286 0.21854562 0.1483985 -0.18496619 -0.2842645
-0.09713442 0.14911324 0.25598004 -0.1124345 -0.0053966534 -0.1754643 -0.09063358 -0.03752152
0.09859506 0.004782485 -0.08676066 0.18514644 0.39873126 -0.025785876 0.29314685 -0.048133478
0.1884806 0.28022343 0.19052744 0.12940094 -0.11786525 -0.0062355385 0.016247097 0.32784098
0.028542351 -0.098656796 -0.048157517 0.116143696 -0.07085458 -0.0344745 0.20787875 0.091784686
0.26022506 -0.3610064 -0.2019023 -0.064216025 0.119673654 0.08190528 -0.14542125 0.03813765
0.5749722 0.009368384 -0.047641337 -0.38834226 0.3207316 0.09440428 -0.13924515 -0.07691927
0.13708596 0.1291932 0.18796128 -0.06956433 -0.04379421 0.020667177 0.06723841 -0.035697937
0.15643506 -0.10141552 0.11476195 0.18849567 -0.011978645 0.16863412 0.23810549 -0.04439078
-0.07538122 0.30206418 -0.17337906 0.16563094 0.04894312 -0.06079174 0.3517175 0.07826374
-0.10096701 -0.2959501 0.038927563 -0.0029885864 0.288546 0.022900766 0.18764503 0.10219176
0.27172327 0.03717504 0.086547025 -0.11130341 0.10828671 0.120731674 0.35648203 -0.19870578
-0.07512293 0.08228898 0.20852621 0.03435431 -0.18877892 -0.32633528 0.033771705 -0.1239289
0.15810558 0.062766075 0.22833991 0.2805892 0.007020949 0.14836581 0.033390753 -0.077204585
-0.27942997 0.020175556 -0.057068113 -0.13928543 -0.009934852 -0.16553181 0.026288612 -0.0032877885
0.18605036 -0.062237456 0.19197409 0.24586675 -0.07472896 0.2579645 0.109610915 -0.11535282
-0.054196123 0.022624582 0.03407723 -0.23265904 0.070761785 0.04055612 0.24799325 0.12216548
0.06657831 -0.20342019 -0.15387471 0.079971924 0.01853919 -0.17397505 -0.083719105 -0.20948216
0.2078588 0.14504728 -0.27473775 -0.03534789 0.024627173 -0.16917473 0.1347363 -0.35425615
0.13441408 -0.0068824994 -0.1813097 -0.045759678 -0.076720506 -0.23780254 -0.2307719 0.09547292
-0.075898245 -0.013969785 0.42575705 0.068089716 0.052523743 0.020356188 0.34051514 -0.008757082
-0.18854283 0.23073998 0.0969344 -0.046456043 -0.05158777 0.07539148 0.24658962 0.16428053
-0.18764296 0.23481195 -0.05230049 0.023811156 0.16873118 0.142646 -0.027245026 0.35188702
0.05687769 0.26343936 -0.33265382 0.31260818 0.09993987 -0.06025835 0.28717974 0.32177258
-0.19501159 0.43816122 0.15389696 0.00586688 -0.11904175 -0.06803737 -0.2823997 -0.02889422
0.013271953 0.26124695 0.021642156 -0.060249556 -0.01297206 0.1922016 0.10732714 0.064671114
-0.17100494 -0.5391523 0.058697134 -0.060955234 -0.1418811 0.16672723 0.02514708 0.12746966
-0.0907787 0.013756632 -0.097062744 -0.04011344 -0.04479517 0.13599704 0.18980308 0.033696156
-0.011092921 0.19067533 0.3551298 0.046173047 0.19681232 -0.23779967 -0.04387545 0.03519318
00000000: ca00 083e 02b6 8dbe 432e cdbd c7d4 523e
00000010: b5fc 21bd c95b 36be f1a7 4dbe b1a2 34be
00000020: 279d 6abe 9d06 4b3d ebb0 823e dfd9 ec3d
00000030: ecf7 cdbb b30c aa3c 22d9 f0bd 0d21 9bbe
00000040: 8e84 983e 2e43 8ebe f56e 1c3e bf5b 22be
00000050: bf99 b13d 4807 9dbd 9de2 bb3d 07a5 a53d
00000060: 55be 2abe c853 b1be f6a7 a3ba a989 fe3d
00000070: 6cca 5f3e c7f5 173e c767 3dbe 1e8b 91be
00000080: 69ee c6bd 24b1 183e d10f 833e 0f44 e6bd
00000090: 69d6 b0bb eaac 33be 199e b9bd 2ab0 19bd
000000a0: 35ec c93d 64b6 9c3b 93af b1bd 0797 3d3e
000000b0: 8126 cc3e e73c d3bc 5817 963e 9c27 45bd
000000c0: 0f01 413e 7279 8f3e a019 433e ae81 043e
000000d0: 5663 f1bd 7d53 ccbb a218 853c c6da a73e
000000e0: a6d1 e93c 930c cabd d140 45bd bfdc ed3d
000000f0: 351c 91bd 2235 0dbd 2bde 543e 9cf9 bb3d
00000100: 383c 853e d5d5 b8be 7abf 4ebe b183 83bd
00000110: 7617 f53d f5bd a73d 4fe9 14be 3936 1c3d
00000120: 6131 133f da7d 193c 9023 43bd ccd4 c6be
00000130: ef36 a43e 0857 c13d 4896 0ebe da87 9dbd
00000140: 4360 0c3e 394b 043e ec78 403e be77 8ebd
00000150: 8f61 33bd 364e a93c 4bb4 893d 0038 12bd
00000160: 8330 203e f1b2 cfbd 5008 eb3d 0205 413e
00000170: 1442 44bc 6cae 2c3e edd1 733e 1bd3 35bd
00000180: 7861 9abd 28a8 9a3e 488a 31be 289b 293e
00000190: 9578 483d c200 79bd 5114 b43e bd48 a03d
000001a0: cbc7 cebd c686 97be 8272 1f3d 29dc 43bb
000001b0: 4dbc 933e 639a bb3c 0526 403e ea49 d13d
000001c0: 501f 8b3e db44 183d 913f b13d 0bf3 e3bd
000001d0: 6cc5 dd3d 2b42 f73d d084 b63e 8779 4bbe
000001e0: 0dda 99bd 2087 a83d e587 553e 1bb7 0c3d
000001f0: 434f 41be 6b15 a7be 3354 0a3d 6fce fdbd
00000200: 6ee6 213e 808b 803d f0d1 693e 63a9 8f3e
00000210: fd0f e63b 35ed 173e bec4 083d 701d 9ebd
00000220: 7211 8fbe 3547 a53c 41c0 69bd d7a0 0ebe
00000230: cac5 22bc 2c81 29be 375b d73c f077 57bb
00000240: fc83 3e3e b4ec 7ebd db94 443e 7ec4 7b3e
00000250: 7f0b 99bd ec13 843e b07b e03d 193e ecbd
00000260: c1fc 5dbd 3057 b93c 9194 0b3d 2c3e 6ebe
00000270: 8eeb 903d 2d1e 263d f1f1 7d3e e531 fa3d
00000280: 365a 883d 624d 50be 5591 1dbe 52c8 a33d
00000290: 80df 973c 8426 32be ec74 abbd 7e82 56be
000002a0: f0d8 543e 4687 143e 6daa 8cbe f3c8 10bd
000002b0: edbe c93c 243c 2dbe 50f8 093e 1061 b5be
000002c0: d8a3 093e 9786 e1bb 40a9 39be 806e 3bbd
000002d0: a41f 9dbd 8282 73be 784f 6cbe 4e87 c33d
000002e0: 8a70 9bbd 86e1 64bc d4fc d93e 9f72 8b3d
000002f0: 2323 573d 05c2 a63c 0058 ae3e dd79 0fbc
00000300: 5f11 41be 1a47 6c3e 8b85 c63d b148 3ebd
00000310: b34d 53bd d966 9a3d fd81 7c3e 2839 283e
00000320: 7a25 40be 8b72 703e 0a39 56bd 9d0f c33c
00000330: dec7 2c3e cb11 123e f630 dfbc 892a b43e
00000340: 95f8 683d 86e1 863e 9a51 aabe 2e0e a03e
00000350: 46ad cc3d 76d1 76bd 3909 933e 60bf a43e
00000360: 1eb1 47be ab56 e03e 2a97 1d3e f53e c03b
00000370: 29cc f3bd 2d57 8bbd b296 90be 92b3 ecbc
00000380: 9b72 593c 29c2 853e e44a b13c 3dc8 76bd
00000390: c388 54bc 7fd0 443e 55ce db3d 4a72 843d
000003a0: eb1b 2fbe e305 0abf 686c 703d 32ac 79bd
000003b0: 4749 11be 8bba 2a3e 4001 ce3c 6887 023e
000003c0: 2fea b9bd 7f63 613c d5c8 c6bd fe4d 24bd
000003d0: 247b 37bd cf42 0b3e bd5b 423e fb04 0a3d
000003e0: 15bf 35bc 6540 433e 93d3 b53e f31f 3d3d
000003f0: 2b89 493e c281 73be beb6 33bd b926 103d

actor_mean.0.bias f4 [64]
-0.0099339895 0.007288413 0.011346756 -0.03551001 -0.10510836 -0.08030735 0.03517609 -0.011608491
0.033931967 0.021343023 0.03731349 0.015896136 -0.027191432 -0.026870081 -0.049338717 0.0023116695
-0.022346968 0.059757095 -0.1253124 -0.02184604 -0.07158524 0.03250875 0.05034048 0.06342289
-0.06708199 -0.036357734 0.021432858 -0.03195026 -0.06381546 0.048493486 -0.016872527 0.011303047
-0.016408706 -0.018399235 0.005045934 -0.09258965 -0.0034654643 0.061062664 -0.037369523 -0.010998685
0.1081932 0.036937486 0.0030619055 -0.056811396 0.061337013 -0.025184924 0.010655378 0.046708267
0.035097893 0.02673673 0.029603155 0.019236112 0.041877378 -0.0007929675 -0.020378565 0.014241447
-0.0412745 0.05244249 -0.038849305 -0.029394602 0.1008402 0.03229255 0.024020597 -0.03550562
00000000: 2cc2 22bc a4d3 ee3b bee7 393c f272 11bd
00000010: 0d43 d7bd 2e78 a4bd ce14 103d 8a31 3ebc
00000020: 3ffc 0a3d 90d7 ae3c 08d6 183d 9d38 823c
00000030: 91c0 debc a51e dcbc 6517 4abd 617f 173b
00000040: fd10 b7bc dbc3 743d e551 00be 77f6 b2bc
00000050: 489b 92bd e527 053d d231 4e3d dce3 813d
00000060: 4862 89bd d9eb 14bd f693 af3c 47de 02bd
00000070: aeb1 82bd 1ba1 463d 4138 8abc 6a30 393c
00000080: 8d6b 86bc feb9 96bc 5d58 a53b a49f bdbd
00000090: d81c 63bb d81c 7a3d c910 19bd d433 34bc
000000a0: 6594 dd3d c34b 173d 40aa 483b 11b3 68bd
000000b0: 853c 7b3d 9d50 cebc e593 2e3c 2b51 3f3d
000000c0: cfc2 0f3d fd06 db3c 5182 f23c 0d95 9d3c
000000d0: 9d87 2b3d 26df 4fba f3f0 a6bc f554 693c
000000e0: 730f 29bd f0cd 563d 7320 1fbd f3cc f0bc
000000f0: 4f85 ce3d 3145 043d d8c6 c43c 576e 11bd

actor_mean.2.weight f4 [64, 64]
-0.3090943 0.047355093 -0.25891104 0.35628697 -0.10929888 -0.08308859 -0.18872736 -0.02066779
0.14899088 0.039814934 0.3165705 -0.27717003 0.1277819 -0.04198267 -0.23452185 -0.19552977
0.06357515 -0.5580745 -0.25076357 -0.006387731 0.038948 0.36746174 -0.15189755 -0.064522065
-0.16956311 0.11730487 -0.16726328 -0.071961194 -0.04158023 0.13092323 -0.024258114 -0.031115666
0.16470313 -0.40192083 0.40564728 0.078758925 -0.022862224 -0.016647108 0.07338465 -0.09172014
-0.17573257 0.0048285816 0.18739948 0.001805335 0.015855357 0.19184135 -0.14425579 0.014440422
-0.14363873 0.16070496 -0.25814897 0.02676388 -0.11189604 -0.110210955 0.19931655 0.16542569
-0.013525279 0.4005923 0.026166752 0.20480168 0.06465381 0.34448934 -0.06418684 0.023302626
-0.06770185 0.15314047 0.20254627 -0.38973653 -0.29559347 -0.20856303 0.2210145 -0.013251523
0.036315635 -0.037941493 0.0026545625 0.27274233 -0.079178646 0.14036249 0.004940659 0.12870996
-0.12502801 -0.13263832 0.21667154 0.14182161 -0.025719231 0.19574687 0.3060808 -0.18056934
-0.30984083 -0.31329492 0.07199301 0.32575545 0.11430225 -0.058768537 -0.38565993 -0.08897412
0.010647761 -0.010016215 0.16067699 -0.02769148 0.07041485 -0.14266983 -0.1300236 0.13491009
-0.052680045 0.17317788 0.011850837 -0.115474224 0.16068424 0.030345472 0.03132409 -0.13053532
0.08150086 0.28506696 -0.019456862 0.21751395 0.14788255 0.022888295 -0.27231383 -0.3177019
0.023791835 0.44029623 -0.05893642 0.1752134 -0.13499728 -0.040050607 0.10461313 -0.12542394
0.10754269 0.10268173 0.095005825 -0.062783346 -0.08879941 0.1354483 0.035855625 0.17652765
-0.22205234 0.26307946 0.16086824 -0.24196057 -0.27290773 0.2666252 0.27154845 0.20094547
-0.060445916 0.18422152 0.1774054 0.22061013 -0.059637275 0.008081011 -0.15546301 0.111850955
-0.15159197 -0.10651668 -0.2910029 -0.3220166 -0.024414727 -0.34541044 -0.2258092 -0.06915378
0.097088695 -0.30845276 0.010310401 0.02804587 0.1801917 0.13379781 -0.40435946 -0.345893
-0.062285263 0.11390226 0.040229253 0.048582 -0.11339133 -0.12268895 -0.12087217 -0.2812743
0.19037461 0.14243425 0.04271697 -0.29550317 -0.21218115 0.35417265 0.072699614 0.08512597
0.21282142 -0.028604217 -0.08692644 -0.06616242 0.1980644 0.29451248 -0.084308214 0.101612635
0.0498169 0.22607599 0.16036162 0.24709007 0.38336715 0.18489552 0.124146566 0.16137028
0.07298806 0.27011716 -0.20102891 0.06596059 0.109488755 0.35306317 0.08268162 0.074344
-0.13653581 -0.1000316 -0.033790942 -0.2573865 0.24902505 -0.25796825 0.095548704 0.03455892
-0.041354127 -0.17750631 0.0049286797 0.021523325 -0.18560636 0.010136846 -0.12551841 -0.18537185
0.049957275 0.09089238 0.26535696 0.27433828 0.31427115 0.20683548 -0.21752332 0.098902255
0.03297553 -0.28358653 0.25411937 -0.3956965 -0.12506224 -0.011007574 -0.070851155 -0.0077801947
-0.13326119 -0.15294878 0.0776018 0.20296216 0.05191472 -0.16903225 0.0124116875 0.2760936
-0.03006949 -0.09668486 0.07333025 0.31301898 -0.2418371 -0.006009531 0.24434075 -0.17033081
00000000: 9c41 9ebe 6af7 413d fd8f 84be 3f6b b63e
00000010: 17d8 dfbd 5a2a aabd bf41 41be 7f4f a9bc
00000020: 1191 183e fc14 233d 8715 a23e 3be9 8dbe
00000030: 42d9 023e 05f6 2bbd 7f26 70be f538 48be
00000040: b033 823d f8dd 0ebf 1564 80be 2c50 d1bb
00000050: f087 1f3d f223 bc3e 088b 1bbe 2524 84bd
00000060: f4a1 2dbe 893d f03d 1147 2bbe 6460 93bd
00000070: 0850 2abd bd10 063e f4b8 c6bc 48e6 febc
00000080: f0a7 283e 91c8 cdbe 00b1 cf3e 5c4c a13d
00000090: 8f49 bbbc 845f 88bc b14a 963d c5d7 bbbd
000000a0: 3df3 33be 1439 9e3b a6e5 3f3e fea0 ec3a
000000b0: 18e3 813c 0f72 443e cab7 13be 8597 6c3c
000000c0: 0816 13be d78f 243e 1a2c 84be ed3f db3c
000000d0: c029 e5bd 48b6 e1bd a319 4c3e 5a65 293e
000000e0: 2299 5dbc 6f1a cd3e a85b d63c 88b7 513e
000000f0: 3769 843d e860 b03e 6474 83bd 26e5 be3c
00000100: 44a7 8abd dbd0 1c3e 4a68 4f3e 8c8b c7be
00000110: 0758 97be 8c91 55be a051 623e ea1c 59bc
00000120: b4bf 143d 8a68 1bbd 2bf8 2d3b e2a4 8b3e
00000130: 6a28 a2bd 2fbb 0f3e 40e5 a13b 8bcc 033e
00000140: 5807 00be 57d2 07be 25df 5d3e af39 113e
00000150: 23b1 d2bc de71 483e 9fb6 9c3e 2be7 38be
00000160: 75a3 9ebe 3168 a0be 1271 933d 6bc9 a63e
00000170: 4c17 ea3d 47b7 70bd 3875 c5be 1038 b6bd
00000180: f273 2e3c 0d1b 24bc 8288 243e 3ed9 e2bc
00000190: a935 903d 0a18 12be e824 05be df25 0a3e
000001a0: 08c7 57bd 8b55 313e 032a 423c c07d ecbd
000001b0: 698a 243e 1197 f83c b04d 003d 0dab 05be
000001c0: ece9 a63d 4cf4 913e ff63 9fbc fabb 5e3e
000001d0: 866e 173e 3c80 bb3c b86c 8bbe d3a9 a2be
000001e0: 18e7 c23c 826e e13e 5167 71bd 246b 333e
000001f0: ba3c 0abe 1b0c 24bd 693f d63d 226f 00be
00000200: 583f dc3d cd4a d23d 6a92 c23d 8e94 80bd
00000210: 77dc b5bd f6b2 0a3e 59dd 123d aac3 343e
00000220: b061 63be 5ab2 863e a5ba 243e 83c4 77be
00000230: 90ba 8bbe 1983 883e 6608 8b3e a6c4 4d3e
00000240: 2396 77bd 91a4 3c3e c3a9 353e 9fe7 613e
00000250: 3746 74bd 3766 043c b231 1fbe 1d12 e53d
00000260: ed3a 1bbe 6b25 dabd 55fe 94be 5cdf a4be
00000270: 6501 c8bc a3d9 b0be 873a 67be 7fa0 8dbd
00000280: 70d6 c63d 85ed 9dbe f5ec 283c 74c0 e53c
00000290: 2c84 383e 4b02 093e 3408 cfbe e318 b1be
000002a0: d51e 7fbd 9745 e93d 6ec7 243d ebfd 463d
000002b0: b739 e8bd 5844 fbbd d48b f7bd 2f03 90be
000002c0: 90f1 423e 49da 113e fdf7 2e3d 314c 97be
000002d0: 0446 59be 1e56 b53e 89e3 943d 8656 ae3d
000002e0: dced 593e 6453 eabc 7d06 b2bd 2a80 87bd
000002f0: 65d1 4a3e 57ca 963e c9a9 acbd 491a d03d
00000300: ce0c 4c3d 7780 673e d635 243e 2e05 7d3e
00000310: b348 c43e 4055 3d3e 8e40 fe3d 403e 253e
00000320: c47a 953d cc4c 8a3e 86da 4dbe 5916 873d
00000330: a43b e03d b2c4 b43e fb54 a93d ab41 983d
00000340: 0bd0 0bbe 5edd ccbd 5f68 0abd 2ac8 83be
00000350: 6c00 7f3e 6a14 84be 0aaf c33d a78d 0d3d
00000360: f262 29bd 37c4 35be c380 a13b af51 b03c
00000370: 980f 3ebe 0415 263c e687 00be 1ed2 3dbe
00000380: 00a0 4c3d c925 ba3d dedc 873e 1176 8c3e
00000390: 26e8 a03e aecc 533e 6fbe 5ebe 448d ca3d
000003a0: 5911 073d 4132 91be ef1b 823e bb98 cabe
000003b0: 5110 00be 1d59 34bc 691a 91bd 01f1 febb
000003c0: 9f75 08be 9b9e 1cbe b1ed 9e3d 50d5 4f3e
000003d0: 88a4 543d ca16 2dbe 645a 4b3c 245c 8d3e
000003e0: 4b54 f6bc b602 c6bd 2c2e 963d 0644 a03e
000003f0: 25a4 77be 9aeb c4bb 7634 7a3e 336b 2ebe

actor_mean.2.bias f4 [64]
0.011407982 0.038662776 -0.051154852 0.00449244 0.025943948 -0.0009540696 0.016233914 0.008083452
0.02612176 0.041416597 -0.012526847 0.0015035255 0.013353274 -0.00638632 -0.03541233 -0.018265767
-0.005321316 0.04632877 0.031067276 0.080800176 -0.039328422 -0.0012867164 0.013616477 0.026719224
0.036590695 0.02499079 0.0067935754 0.00066257286 -0.01556151 0.0048187063 0.010474217 0.013531612
0.011206761 -0.002907785 -0.0053732186 -0.0065075047 0.01390105 -0.018666018 -0.01538081 0.0069337958
0.06395069 -0.05143031 0.051202677 0.0021328153 -0.040073946 0.0029259697 0.0123240575 0.009096248
-0.0436694 0.027384352 -0.012859297 -0.042629004 0.018283777 -0.006526618 0.033890627 0.00043408992
-0.030004276 0.007947564 0.03245443 -0.019081498 0.027550455 0.0035769893 -0.019973464 0.01664783
00000000: 8be8 3a3c dc5c 1e3d c087 51bd 5135 933b
00000010: 6788 d43c 871a 7aba fcfc 843c 7470 043c
00000020: 4dfd d53c 73a4 293d 683d 4dbc f211 c53a
00000030: b1c7 5a3c 5644 d1bb 850c 11bd 17a2 95bc
00000040: 6f5e aebb 3dc3 3d3d cd80 fe3c 907a a53d
00000050: d716 21bd 0aa7 a8ba a517 5f3c 46e2 da3c
00000060: 20e0 153d 7cb9 cc3c a49c de3b 83b0 2d3a
00000070: b4f5 7ebc 3de6 9d3b 0d9c 2b3c b2b3 5d3c
00000080: 909c 373c 8990 3ebb d311 b0bb e83c d5bb
00000090: 3bc1 633c 7ae9 98bc cbff 7bbc e534 e33b
000000a0: 94f8 823d 97a8 52bd e6b9 513d b4c6 0b3b
000000b0: 9424 24bd a0c1 3f3b d8ea 493c 6e08 153c
000000c0: afde 32bd 2655 e03c cdaf 52bc c09b 2ebd
000000d0: dcc7 953c 3ddd d5bb e6d0 0a3d 9096 e339
000000e0: 87cb f5bc 8036 023c f0ee 043d cd50 9cbc
000000f0: 7eb1 e13c ec6b 6a3b 649f a3bc 0861 883c

actor_mean.4.weight f4 [1, 64]
0.05917502 -0.022670176 -0.042997144 0.026542366 -0.019390622 0.05926265 0.04303401 -0.04131775
-0.044434067 -0.01709999 -0.05445856 -0.04158614 -0.0486413 -0.12687758 -0.031939108 -0.06974131
-0.02186183 0.05036147 -0.042835064 0.04464 -0.07933965 -0.059529006 -0.09067943 0.00022951205
0.031082863 0.058682956 0.07108701 0.05649565 -0.04527331 0.026264505 0.11046729 -0.048822865
0.042685915 -0.06760423 -0.1304052 -0.06998596 0.03933505 0.010819445 0.05433844 0.084669575
-0.03149579 -0.034007728 0.028956952 0.054252338 -0.07407039 0.054381397 0.017835056 -0.049757265
0.006045051 0.0730358 -0.056657955 -0.048427384 -0.09348235 -0.034644447 0.045399137 -0.061172955
-0.091691375 0.032767262 -0.06775626 -0.077285245 0.07478337 -0.0820563 -0.0673361 0.05201319
00000000: 8161 723d ceb6 b9bc c61d 30bd 606f d93c
00000010: 15d9 9ebc 64bd 723d 6e44 303d cd3c 29bd
00000020: 7f00 36bd 4715 8cbc f00f 5fbd 3a56 2abd
00000030: 1a3c 47bd 32ec 01be 95d2 02bd 88d4 8ebd
00000040: 9517 b3bc d447 4e3d d273 2fbd 6fd8 363d
00000050: d47c a2bd b0d4 73bd 23b6 b9bd 2ca9 7039
00000060: 7da1 fe3c 8a5d 703d 1196 913d fc67 673d
00000070: 8270 39bd a928 d73c ad3c e23d 7cfa 47bd
00000080: 6dd7 2e3d 1674 8abd f188 05be cd54 8fbd
00000090: ca1d 213d 0b44 313c fc91 5e3d 3e67 ad3d
000000a0: bb01 01bd b04b 0bbd 2137 ed3c b337 5e3d
000000b0: 37b2 97bd 07bf 5e3d d31a 923c 46ce 4bbd
000000c0: 9015 c63b cb93 953d 2c12 68bd cb5b 46bd
000000d0: ad73 bfbd 56e7 0dbd 72f4 393d 7e90 7abd
000000e0: b0c8 bbbd f736 063d cbc3 8abd ba47 9ebd
000000f0: 0628 993d 220d a8bd 82e7 89bd c80b 553d

exp_avg f4 [64, 72]
0.00015869629 0.00013978683 0.00013796508 0.00012974747 1.5139544e-05 8.0717284e-05 9.7190394e-05 8.919474e-05
-4.9519633e-05 8.20007e-05 -3.4501696e-05 -4.5424084e-05 -6.950492e-05 -4.8034784e-05 -0.00017980298 -0.00023488804
-0.00020849398 -0.00021811719 -0.00021169563 -0.0001548321 -0.0002174065 -0.00022205675 -0.00012170676 -3.9522365e-05
-4.878816e-05 -1.40544935e-05 2.126133e-05 6.636085e-05 8.291026e-05 9.542578e-05 0.00011765771 0.00012317642
0.00010226774 8.175501e-05 7.9676414e-05 5.5262506e-05 -1.4545697e-05 -9.549312e-06 9.896518e-06 -4.4478133e-05
-6.6375396e-06 -0.00010044943 -8.743295e-05 -0.00013930888 -0.00015526918 -0.00015675505 -0.00019191588 -0.00021661467
-9.5307434e-05 -5.5807453e-07 -9.195685e-06 0.000106629166 0.000105097315 0.00012674772 9.058559e-05 9.812159e-05
9.531301e-05 0.000106708074 7.515488e-05 5.7323257e-05 3.06613e-05 -4.5905503e-07 -4.5783614e-05 -1.6034743e-05
-1.6278744e-05 -4.8323825e-05 -6.763292e-05 -5.9912854e-06 -3.5140816e-05 -0.00010724403 -0.00010486596 -2.133665e-05
2.3186798e-05 1.203089e-05 5.5473618e-05 6.209487e-05 6.7480934e-05 -9.574947e-06 4.1369152e-05 7.991109e-05
6.202675e-05 0.00011063703 6.801608e-05 3.952779e-05 8.82107e-05 0.00014026498 0.000111715235 0.00011166175
0.00010522147 0.00010168736 8.731356e-05 8.3323364e-05 2.1817672e-05 -5.9404192e-05 -1.8315783e-05 -3.634093e-05
1.6455161e-06 -1.5479676e-05 -5.290638e-06 2.6328697e-05 1.2907436e-05 3.9293893e-05 3.874541e-05 2.5478139e-05
9.5800395e-05 0.0001364764 0.00014284805 0.00010298101 6.5608154e-05 5.276946e-05 -2.9815554e-05 -9.705652e-05
-7.390201e-05 -5.798144e-05 -6.120152e-05 -3.9793707e-05 -7.612082e-05 -9.764136e-05 -0.00010348919 -0.00014601948
-0.00022183434 -0.00010025829 -4.2704934e-05 3.0613042e-05 3.156101e-05 3.1115418e-05 5.474182e-05 4.108113e-05
4.9624e-05 3.381082e-05 3.2131324e-05 7.223647e-05 2.6473004e-05 3.063649e-05 4.1977008e-05 3.3542627e-05
3.847444e-05 2.5510992e-05 3.980707e-05 5.2762276e-05 1.7384249e-05 1.3682883e-05 1.3969498e-05 5.957334e-06
9.5033174e-05 0.000116010444 0.00013762324 0.00014939404 3.301883e-05 -9.610868e-06 9.212779e-05 0.00011440429
7.014621e-05 3.534286e-05 -8.138179e-05 -7.9892496e-05 -0.0001154591 -2.5136478e-05 -5.301761e-05 -1.920297e-05
-3.0117824e-05 -9.239349e-05 -1.4251013e-05 -0.00014627032 -0.00020364464 -0.00025603277 -0.00023006478 -0.00021589281
-0.00018955383 -0.00012505216 -0.00011538767 -2.5740173e-06 1.3024454e-05 6.8645306e-05 9.316478e-05 0.000119803764
0.00013615392 0.00013606584 0.00011995614 5.265769e-05 8.017028e-05 5.6613804e-05 6.2573155e-05 3.7908576e-05
7.771041e-05 5.1879593e-05 -9.117381e-06 -2.1336578e-05 -1.8770676e-05 -7.835649e-05 -8.679133e-05 -0.00010311977
-0.00015377527 -7.222266e-05 8.8650695e-06 4.462414e-05 2.261733e-05 2.5394263e-06 1.7922306e-05 -7.5297557e-06
6.8252307e-06 1.2864384e-05 -4.009453e-06 1.2481471e-05 9.233595e-06 5.628358e-06 -1.7971297e-05 4.762924e-05
5.8571448e-05 7.6512166e-05 1.6836746e-05 5.3224576e-05 8.663703e-06 0.00010481168 1.3388968e-05 2.6990647e-05
2.0837817e-05 3.108744e-05 2.2847604e-05 -6.974771e-06 1.39920985e-05 4.9474165e-05 3.0310199e-05 1.791905e-05
3.6194826e-05 2.9636247e-05 6.1295505e-05 4.008868e-05 6.902768e-05 2.956058e-05 5.5718432e-05 6.83845e-05
9.2652044e-05 9.299079e-05 9.168415e-05 0.00015980467 0.00014056345 0.0001464685 0.00013855088 0.0001426139
8.206351e-05 7.501791e-05 2.93603e-05 1.274264e-05 4.6915437e-05 6.3641082e-06 -1.6796572e-05 -3.897722e-05
-6.579863e-05 -7.081242e-05 -8.41597e-05 -9.030871e-05 -0.00011566955 -0.00010873942 -0.00014411884 -0.00016792849
00000000: b667 2639 be93 1239 b8aa 1039 d20c 0839
00000010: d9ff 7d37 c346 a938 b2d2 cb38 100e bb38
00000020: 4db3 4fb8 caf7 ab38 eab5 10b8 bd85 3eb8
00000030: 2bc3 91b8 f578 49b8 7f89 3cb9 474c 76b9
00000040: 2d9f 5ab9 63b6 64b9 9dfa 5db9 6d5a 22b9
00000050: 9df7 63b9 e8d7 68b9 d23c ffb8 d1c4 25b8
00000060: e3a1 4cb8 97cb 6bb7 5c5a b237 362b 8b38
00000070: 1be0 ad38 531f c838 01bf f638 eb28 0139
00000080: 9378 d638 e373 ab38 f317 a738 aac9 6738
00000090: 4b09 74b7 fc35 20b7 3909 2637 088e 3ab8
000000a0: 08b8 deb6 61a8 d2b8 355c b7b8 7113 12b9
000000b0: c1cf 22b9 9d5e 24b9 073d 49b9 0f23 63b9
000000c0: cadf c7b8 97ce 15b5 2b47 1ab7 199e df38
000000d0: b167 dc38 95e7 0439 c5f8 bd38 a1c6 cd38
000000e0: c8e2 c738 76c8 df38 789c 9d38 616e 7038
000000f0: 529a 0038 0b74 f6b4 c807 40b8 5982 86b7
00000100: 568e 88b7 50af 4ab8 26d6 8db8 c008 c9b6
00000110: 2a64 13b8 33e8 e0b8 7ceb dbb8 1bfc b2b7
00000120: 4581 c237 47d8 4937 58ac 6838 ee38 8238
00000130: 8d84 8d38 16a4 20b7 ca83 2d38 f195 a738
00000140: 5c14 8238 ce05 e838 dba3 8e38 a4ca 2538
00000150: c2fd b838 1814 1339 a948 ea38 f22b ea38
00000160: 59aa dc38 fc40 d538 1c1c b738 e4bd ae38
00000170: 1805 b737 c428 79b8 d8a4 99b7 c76c 18b8
00000180: 81db dc35 5ada 81b7 3c86 b1b6 72dc dc37
00000190: 048d 5837 7fcf 2438 9182 2238 e3b9 d537
000001a0: 72e8 c838 1b1b 0f39 7bc9 1539 82f7 d738
000001b0: 1c97 8938 c754 5d38 6a1c fab7 d38a cbb8
000001c0: d7fb 9ab8 1931 73b8 5159 80b8 2be8 26b8
000001d0: 0ea3 9fb8 cec4 ccb8 5608 d9b8 ce1c 19b9
000001e0: 349c 68b9 c241 d2b8 131e 33b8 8166 0038
000001f0: 6060 0438 ed81 0238 959a 6538 874e 2c38
00000200: 5d23 5038 17d0 0d38 bfc4 0638 a97d 9738
00000210: 5812 de37 ae7f 0038 7810 3038 1fb0 0c38
00000220: 9e5f 2138 7000 d637 84f6 2638 104d 5d38
00000230: 64d4 9137 898f 6537 895e 6a37 1ce5 c736
00000240: 8c4c c738 a24a f338 f54e 1039 a8a6 1c39
00000250: b37d 0a38 5d3e 21b7 bb34 c138 56ec ef38
00000260: 761b 9338 1b3d 1438 84ab aab8 f58b a7b8
00000270: a222 f2b8 2ddc d2b7 3a5f 5eb8 1016 a1b7
00000280: 89a5 fcb7 61c3 c1b8 a317 6fb7 2460 19b9
00000290: 7189 55b9 233c 86b9 8b3d 71b9 4961 62b9
000002a0: f8c2 46b9 6f20 03b9 49fc f1b8 48bd 2cb6
000002b0: 9b83 5a37 abf5 8f38 7661 c338 283f fb38
000002c0: 8ac4 0e39 e5ac 0e39 f690 fb38 c4dc 5c38
000002d0: 1721 a838 9c74 6d38 b539 8338 0600 1f38
000002e0: 75f8 a238 4a99 5938 daf6 18b7 f4fb b2b7
000002f0: b875 9db7 5253 a4b8 be03 b6b8 0142 d8b8
00000300: bc3e 21b9 3f76 97b8 2fbb 1437 ce2a 3b38
00000310: 59ba bd37 036b 2a36 dc57 9637 1ca8 fcb6
00000320: 4904 e536 1cd4 5737 f088 86b6 8267 5137
00000330: fde9 1a37 3adb bc36 11c1 96b7 82c5 4738
00000340: 9daa 7538 2875 a038 a33c 8d37 743d 5f38
00000350: 525a 1137 58ce db38 2ea1 6037 f969 e237
00000360: dfcc ae37 e263 0238 dba8 bf37 d408 eab6
00000370: 9bbf 6a37 7b82 4f38 a842 fe37 de50 9637
00000380: e6cf 1738 5b9b f837 c68b 8038 e424 2838
00000390: f4c2 9038 ddf8 f737 36b3 6938 a669 8f38
000003a0: 304e c238 0d04 c338 8e46 c038 3d91 2739
000003b0: 3764 1339 5795 1939 f847 1139 a18a 1539
000003c0: 8319 ac38 ef52 9d38 c44a f637 39c9 5537
000003d0: 11c7 4438 468b d536 5de6 8cb7 797b 23b8
000003e0: 5ffd 89b8 2181 94b8 e57e b0b8 1f64 bdb8
000003f0: 9e93 f2b8 080b e4b8 9b1e 17b9 f615 30b9

exp_avg_sq f4 [64, 72]
3.4407034e-07 3.4925353e-07 3.557611e-07 3.4721424e-07 3.682793e-07 3.584508e-07 3.8607635e-07 4.182056e-07
4.6611171e-07 4.3791778e-07 4.2367503e-07 4.0302635e-07 3.6936845e-07 3.6727062e-07 3.713041e-07 3.7678808e-07
3.647575e-07 3.6666376e-07 3.5831943e-07 3.737668e-07 4.147663e-07 4.864712e-07 5.148556e-07 4.4196415e-07
3.5192502e-07 3.0458565e-07 2.7850774e-07 2.2538005e-07 1.8262446e-07 1.9273617e-07 2.2071431e-07 2.4985118e-07
2.699816e-07 3.1814176e-07 3.9339275e-07 4.370209e-07 4.4046647e-07 4.460898e-07 3.943833e-07 3.5634105e-07
3.3933264e-07 3.5461136e-07 4.091173e-07 4.9006854e-07 5.258279e-07 5.3627707e-07 5.1539666e-07 5.282719e-07
5.179997e-07 3.0092912e-07 3.4606643e-07 2.9097922e-07 2.9858847e-07 3.3036852e-07 3.559868e-07 3.6975067e-07
3.9125638e-07 3.73849e-07 2.5748264e-07 2.0636409e-07 1.6607619e-07 1.5468494e-07 1.6107039e-07 1.8168359e-07
2.159713e-07 2.2363862e-07 1.7772201e-07 1.5604382e-07 1.663349e-07 1.94659e-07 2.3862805e-07 2.951724e-07
1.10846024e-07 1.11311415e-07 1.1562623e-07 1.3068227e-07 1.3956036e-07 1.4375337e-07 1.6182905e-07 1.6637891e-07
1.7953323e-07 1.9810875e-07 2.1907967e-07 2.3724628e-07 2.6157383e-07 2.777302e-07 3.109768e-07 3.3235477e-07
3.2583912e-07 3.0867656e-07 2.947332e-07 2.6467546e-07 2.441876e-07 2.3217207e-07 2.1564857e-07 2.0895533e-07
2.1342026e-07 2.1913331e-07 2.1433105e-07 2.2887704e-07 2.5860524e-07 3.065743e-07 3.7761697e-07 4.379094e-07
5.0215215e-07 5.698106e-07 6.221384e-07 6.2579096e-07 6.0093583e-07 5.062214e-07 4.604035e-07 4.624449e-07
4.7308652e-07 4.6674805e-07 4.5998928e-07 4.635441e-07 4.508299e-07 4.1388668e-07 3.858533e-07 3.644027e-07
3.79272e-07 3.2349317e-07 3.2145806e-07 2.9534237e-07 2.7442348e-07 2.6073417e-07 2.6018364e-07 2.3086176e-07
2.0294726e-07 1.9130779e-07 1.7967311e-07 1.5403852e-07 1.2293074e-07 1.12211744e-07 1.128807e-07 1.0924015e-07
1.06062195e-07 1.0747342e-07 1.1202866e-07 1.1785714e-07 1.3393871e-07 1.6664245e-07 2.2124178e-07 2.7043063e-07
3.3107452e-07 3.6138871e-07 3.806814e-07 3.8316176e-07 4.145692e-07 4.0713869e-07 4.6081132e-07 5.091084e-07
5.9541105e-07 6.377601e-07 6.8618095e-07 6.6502315e-07 6.829369e-07 7.171791e-07 7.809501e-07 7.744927e-07
8.011238e-07 8.4595956e-07 8.905984e-07 9.566028e-07 1.0507463e-06 1.2235456e-06 1.191597e-06 1.0402301e-06
8.5630643e-07 6.836685e-07 5.898413e-07 4.945106e-07 4.5035426e-07 4.264265e-07 4.7967063e-07 5.2529305e-07
5.697439e-07 5.949343e-07 6.314678e-07 6.470978e-07 6.7109755e-07 6.411891e-07 5.7303333e-07 4.896243e-07
3.9511795e-07 3.3261108e-07 2.7638944e-07 2.6043975e-07 2.1966476e-07 2.2290895e-07 2.8129395e-07 3.301462e-07
3.8043638e-07 3.8790063e-07 4.069964e-07 2.9375562e-07 2.6982684e-07 2.704234e-07 2.6367354e-07 2.4567603e-07
2.0626179e-07 2.0808481e-07 2.012856e-07 2.0512945e-07 2.0657477e-07 2.479403e-07 3.0640504e-07 3.6817818e-07
4.0220883e-07 3.60792e-07 2.2702513e-07 2.1190272e-07 2.0475876e-07 2.5140767e-07 3.2090927e-07 4.1819803e-07
2.1344805e-08 1.9860554e-08 2.0202323e-08 2.0564658e-08 2.1389026e-08 2.3173499e-08 2.370364e-08 2.599966e-08
2.582485e-08 3.0562067e-08 3.5027007e-08 3.657889e-08 3.9527016e-08 4.8201514e-08 5.943165e-08 6.346842e-08
7.523541e-08 9.017234e-08 1.06571896e-07 1.27576e-07 1.5045096e-07 1.7526037e-07 1.8322693e-07 1.6790977e-07
1.5000768e-07 1.2463161e-07 1.0922638e-07 9.516452e-08 9.4755514e-08 1.07287896e-07 1.3112125e-07 1.5710746e-07
1.6486415e-07 1.755999e-07 1.813926e-07 1.9334601e-07 2.0516563e-07 2.1965104e-07 2.3800426e-07 2.4160107e-07
00000000: abb8 b834 0a81 bb34 6fff be34 c368 ba34
00000010: ecb7 c534 1a71 c034 ee45 cf34 bd85 e034
00000020: e83d fa34 f61a eb34 7475 e334 855f d834
00000030: 9d4d c634 4a2d c534 a657 c734 5c49 ca34
00000040: e4d3 c334 e2d9 c434 0c5f c034 1eaa c834
00000050: 0cad de34 0c96 0235 9c34 0a35 1747 ed34
00000060: 35f0 bc34 ef85 a334 d085 9534 ffff 7134
00000070: 6e17 4434 eaf2 4e34 7dfd 6c34 4923 8634
00000080: fdf1 9034 12cd aa34 7d33 d334 b29f ea34
00000090: 4079 ec34 1e7e ef34 a1bb d334 244f bf34
000000a0: 862d b634 6a61 be34 a7a4 db34 418d 0335
000000b0: 9e26 0d35 aef4 0f35 ca59 0a35 92ce 0d35
000000c0: ab0c 0b35 628f a134 02cb b934 e137 9c34
000000d0: b04d a034 815d b134 741e bf34 2582 c634
000000e0: de0d d234 6ab5 c834 253c 8a34 ee94 5d34
000000f0: ad52 3234 7917 2634 b1f2 2c34 ce14 4334
00000100: bde5 6734 5121 7034 dbd3 3e34 008d 2734
00000110: ca99 3234 7503 5134 ca1c 8034 3078 9e34
00000120: 3f0a ee33 190a ef33 314e f833 ab51 0c34
00000130: 0fda 1534 a05a 1a34 3bc3 2d34 e3a5 3234
00000140: b8c5 4034 b8b7 5434 293c 6b34 c3bd 7e34
00000150: 6f6e 8c34 f31a 9534 53f4 a634 7e6e b234
00000160: fdee ae34 2fb8 a534 d33b 9e34 b818 8e34
00000170: e318 8334 f94a 7934 078d 6734 345d 6034
00000180: 8428 6534 e84a 6b34 df22 6634 3ec1 7534
00000190: 6fd6 8a34 4097 a434 48bb ca34 cf19 eb34
000001a0: a2cb 0635 16f5 1835 0601 2735 07fc 2735
000001b0: ff4f 2135 45e3 0735 602d f734 f145 f834
000001c0: 84fc fd34 5d95 fa34 72f4 f634 04dd f834
000001d0: 9709 f234 2734 de34 4627 cf34 20a3 c334
000001e0: bf9e cb34 90ac ad34 dc94 ac34 8c8f 9e34
000001f0: 7a54 9334 08fb 8b34 5eaf 8b34 cce2 7734
00000200: b8e9 5934 496a 4d34 2bec 4034 c965 2534
00000210: f2fe 0334 0ff9 f033 d268 f233 6897 ea33
00000220: 4fc4 e333 23cc e633 6894 f033 a618 fd33
00000230: cbd0 0f34 54ee 3234 7a8e 6d34 b42f 9134
00000240: 89be b134 e304 c234 7460 cc34 5ab5 cd34
00000250: f591 de34 b794 da34 6d65 f734 aaa9 0835
00000260: 56d4 1f35 8a32 2b35 ff31 3835 0b84 3235
00000270: 1153 3735 2c84 4035 7ba2 5135 bce6 4f35
00000280: cf0c 5735 e615 6335 7511 6f35 9f64 8035
00000290: 5e07 8d35 b538 a435 f6ee 9f35 099e 8b35
000002a0: eedc 6535 5785 3735 9655 1e35 82be 0435
000002b0: 38c8 f134 9def e434 b7c2 0035 dd01 0d35
000002c0: 81f0 1835 93b3 1f35 2382 2935 39b4 2d35
000002d0: 7925 3435 2e1e 2c35 8dd2 1935 ba6e 0335
000002e0: 9920 d434 b891 b234 ad62 9434 91d2 8b34
000002f0: fddc 6b34 bf58 6f34 bf04 9734 f33e b134
00000300: c73e cc34 a840 d034 2981 da34 77b5 9d34
00000310: b8dc 9034 b62e 9134 048f 8d34 75e5 8334
00000320: cf78 5d34 eb6d 5f34 f720 5834 8e41 5c34
00000330: d7ce 5d34 a81c 8534 fd7f a434 06aa c534
00000340: 29ef d734 e0b2 c134 31c4 7334 6087 6334
00000350: a9db 5b34 35f9 8634 6f49 ac34 b384 e034
00000360: b959 b732 d299 aa32 6189 ad32 29a6 b032
00000370: f7ba b732 100f c732 db9c cb32 db55 df32
00000380: 72d5 dd32 5943 0333 9a70 1633 ea1a 1d33
00000390: 6ac4 2933 2006 4f33 ca41 7f33 224c 8833
000003a0: 1b91 a133 c5a4 c133 85dc e433 d3fb 0834
000003b0: a58b 2134 342f 3c34 09bd 4434 b04a 3434
000003c0: cc11 2134 7ad2 0534 d68f ea33 405d cc33
000003d0: 657c cb33 2566 e633 56ca 0c34 5fb1 2834
000003e0: 8305 3134 888c 3c34 d1c4 4234 8c9a 4f34
000003f0: 804b 5c34 38d9 6b34 1d8e 7f34 66b5 8134

exp_avg f4 [64]
-0.00014246548 -1.8195731e-05 -0.00023762863 8.228246e-05 5.8666043e-05 2.2721433e-05 -0.00016048994 -3.3867247e-05
3.1831132e-05 -9.134054e-06 -9.549822e-05 1.10688325e-05 -0.00011939387 5.937252e-05 2.4039734e-06 -1.6150487e-06
1.7736815e-05 3.52443e-05 -1.2950513e-05 0.00012196368 -2.411415e-05 -5.7890305e-05 0.00012179377 1.111909e-05
-1.099776e-05 -3.793809e-05 1.9260868e-05 -8.296259e-05 -1.4102341e-05 -2.3897046e-05 -8.121966e-05 -1.1065126e-05
0.00013180115 1.7597677e-05 -0.00016319433 4.3534033e-05 4.7008878e-05 5.264436e-05 2.449902e-05 -0.00012770723
8.2994506e-05 -5.3219514e-06 -0.00012182284 -3.7068814e-05 -0.00022237946 -2.9217758e-06 -5.9049853e-05 -0.00016658049
-6.9719754e-05 -4.3935506e-05 -2.2753607e-05 2.0815698e-06 1.7678058e-06 -1.6342723e-05 -4.7452824e-05 -6.523296e-05
-6.237735e-05 0.00012772717 -7.298926e-06 0.0001405969 -0.000102072554 0.00014221409 -4.0557712e-05 -2.643836e-05
00000000: c962 15b9 09a3 98b7 f32b 79b9 0f8f ac38
00000010: 2f10 7638 e899 be37 3149 28b9 ae0c 0eb8
00000020: 6b82 0538 773e 19b7 3746 c8b8 46b4 3937
00000030: 1963 fab8 c206 7938 f353 2136 a7c4 d8b5
00000040: 85c9 9437 47d3 1338 0846 59b7 c1c6 ff38
00000050: be48 cab7 3ecf 72b8 886b ff38 218c 3a37
00000060: 0583 38b7 b71f 1fb8 6692 a137 34fc adb8
00000070: 1899 6cb7 8476 c8b7 7954 aab8 5ba4 39b7
00000080: 1a34 0a39 b99e 9337 251f 2bb9 5098 3638
00000090: 662b 4538 73ce 5c38 3f83 cd37 26e9 05b9
000000a0: 560d ae38 3793 b2b6 247b ffb8 567a 1bb8
000000b0: 882e 69b9 ba13 44b6 4cac 77b8 1cac 2eb9
000000c0: 8236 92b8 6447 38b8 00df beb7 19b1 0b36
000000d0: 5845 ed35 bb17 89b7 1508 47b8 aecd 88b8
000000e0: 96d0 82b8 80ee 0539 4ce9 f4b6 316d 1339
000000f0: c90f d6b8 4e1f 1539 831c 2ab8 f2c7 ddb7
